pretrained/diodeclipper_gru8_epoch=44-step=41580.ckpt (torch, 17035 bytes, 22 tensors)

model.rec.weight_ih_l0 f4 [24, 1]
00000000: 60a7 2041 8ced 3b40 8eb7 43bf c9f3 1240
00000010: aa86 a23f b93a 4cc0 d578 9140 b4aa 933f
00000020: 1f82 4dc0 3d7a 9c3f 2d1d 843f 0510 a03f
00000030: e2b0 0dbf 9e5b 3040 7cf3 31c1 a155 16c0
00000040: 4b54 d640 b621 8240 10e0 7040 46b0 30c0
00000050: df31 4e3f 7111 bbc0 a7e1 eec0 5943 c83f
10.040863 2.9363737 -0.7645196 2.2961295 1.2697346 -3.1910841 4.546 1.153647
-3.211067 1.2224804 1.0321404 1.2504889 -0.55348027 2.7555919 -11.121944 -2.3489764
6.6977897 4.066615 3.7636757 -2.7607589 0.8054485 -5.845879 -7.4650455 1.5645553

model.rec.weight_hh_l0 f4 [24, 8]
00000000: 58c6 c53e 881b 413f f93d 3a40 cfc2 a1bf
00000010: 59de e63e 865d 0ac0 d5b5 48bf 9f63 edbd
00000020: 7723 0dbf f901 7abe 8879 dcbe f899 93be
00000030: 6796 dabe 56fa 6d3f edfb 613e c84a 68be
00000040: b8d3 75bd 312d d23e 7d74 c63f 2fef 6cbf
00000050: 1335 803f 6777 403e d621 37bf 4bf5 ba3e
00000060: 1076 1fbe 233b 543c 1710 9f3d 560f 733e
00000070: cdd4 043e 57f3 3a3f 5451 c7bc e3e8 55bf
00000080: 28fc 3b3f 594b c0be 6fcb 5f3e 8229 4fbe
00000090: 8533 413f b5fc b33f d189 a3be 50c8 80bf
000000a0: d783 b53f 5fa0 1abf e71d 54bf 41a1 323f
000000b0: 14ee 063f b14a a63d 1e20 d8bd 858d c5be
000000c0: 68fc 343e 9a0a 1a3f 7109 0240 6512 f7bd
000000d0: 3e68 ad3f 561f 1dbf 1aa5 2fbe 415c 17bf
000000e0: 35c8 4b3d 540c d23e 4e33 f93d 90b5 e3be
000000f0: 43fc 093f 7e30 b8be def6 90be ad5d fabd
00000100: 5431 c2bf 64fa c2bf 5680 3bc0 9199 da3f
00000110: f365 11c0 cda1 2540 0244 2240 5640 cfbd
00000120: 742a 603e 4b3b 7bc0 871a 85be bcb0 3a40
00000130: c1ff 6bc0 2523 61bf bff0 6940 4ffa 43bf
00000140: 9714 bbbe e02a 7cc0 ed3f 1e3e e6aa 3d40
00000150: bd4c 83c0 2372 8bbf e732 7640 26db 14bf
00000160: af1f 803e 0910 2fc0 48e6 9b3e 11dd e33f
00000170: bb79 86c0 e209 9ebf 5803 3140 bf8c 81be
00000180: c525 5cc0 5791 0ec0 027c 65c0 dea9 5040
00000190: ddbe 9dbf 030e d13f 2c87 8a40 af3c 0e40
000001a0: 7779 053e caaf 6cc0 12b0 a23e b1b8 4640
000001b0: 2604 48c0 c271 64bf a2d3 3640 f652 30bf
000001c0: 515f 96c0 0a7d b2c0 928c d6c0 b15b cd40
000001d0: 19d0 f7bf 5e1f dd40 f738 a440 727a 75bf
000001e0: b825 56bf 1006 b1bf de23 04c0 ce1c b63f
000001f0: 0ded 39bf af73 763f 48d8 8fbe 75bd 41bf
00000200: a390 f43e 8ff4 2b3f 9d88 4b3f 313f 70bf
00000210: d8bc 133f f02a 75bf c805 04bf 80bb 26be
00000220: a0b8 1dbe 2f4e 0ebe fb10 1ebf 5781 93be
00000230: 9c0a 3bbe 85ca a53e b482 41be 1926 20be
00000240: 0f66 dbbe 9fcc 51be 9262 b4be 7012 56bd
00000250: 7fb4 6ebe bf82 463f 9af4 8dbe a540 3dbd
00000260: 5f73 babd 1fe3 09be 9a83 053f d227 6fbe
00000270: 92fa e23d 3e4c 10bf 8bb4 d83e 32c6 fa3e
00000280: e06e 253d 15a2 123c 7db9 3fbf da60 5c3d
00000290: 55b3 89be 80e6 823f ea81 e43e 238c 80bc
000002a0: 8615 2fbe 5ed6 babe 813c 33bf aba3 833e
000002b0: a8ea c8bd 5041 473f b179 84bc ddc9 753e
000002c0: 0923 9dbe bd50 a6bd 1bb7 b5be b90c 213e
000002d0: 2529 52be 9373 273e f00a 8f3e 0dd4 363e
000002e0: d9f9 b83e 4bd8 5e3e bab9 233f 2c87 87be
000002f0: 1b7b 673e a074 4cbf f927 3ebe 8e61 ac3d
0.38627887 0.75432634 2.9100325 -1.2637576 0.45091513 -2.1619582 -0.78402454 -0.11591267
-0.5513224 -0.24414815 -0.4306147 -0.28828406 -0.42692873 0.9296011 0.22068758 -0.22684777
-0.060016364 0.41050103 1.5504299 -0.92552465 1.0016197 0.18795548 -0.71536005 0.3651527
-0.15572381 0.012953552 0.07766741 0.23736319 0.12971802 0.7302756 -0.024330772 -0.8355848
0.73431635 -0.37557486 0.21854948 -0.20230678 0.7546924 1.4061495 -0.31941083 -1.006113
1.4180859 -0.60400957 -0.8285813 0.69777304 0.5270703 0.08119715 -0.10553001 -0.38584533
0.1767441 0.60172427 2.0318263 -0.12064055 1.3547437 -0.6137594 -0.17152825 -0.59125143
0.04975148 0.4102503 0.12167989 -0.4447446 0.53900546 -0.35974497 -0.28313345 -0.122248985
-1.5171304 -1.5232663 -2.929708 1.7078115 -2.2718475 2.5880005 2.5354009 -0.10119693
0.21891195 -3.925494 -0.259968 2.917037 -3.687485 -0.8794425 3.655319 -0.76553816
-0.36539146 -3.940117 0.15454073 2.9635558 -4.1031175 -1.0894207 3.8468568 -0.58146894
0.25024173 -2.7353537 0.30449128 1.7801839 -4.2023597 -1.2346766 2.765829 -0.25302693
-3.4398053 -2.2276208 -3.5856938 3.2603679 -1.2323872 1.6332401 4.3290005 2.2224538
0.13034616 -3.6982293 0.31774956 3.1050227 -3.1252532 -0.8923608 2.856667 -0.6887659
-4.6991353 -5.5777636 -6.7046595 6.417443 -1.9360381 6.910079 5.1319537 -0.9588996
-0.83651304 -1.3829975 -2.0646892 1.422754 -0.72627336 0.9627027 -0.28094697 -0.75679713
0.477666 0.6717004 0.7950533 -0.9384642 0.5771003 -0.9576864 -0.5157132 -0.16282463
-0.1540246 -0.13897012 -0.6174466 -0.28809616 -0.18265766 0.32381073 -0.18897516 -0.15639533
-0.42851302 -0.20488213 -0.35231453 -0.052263677 -0.23311041 0.7754325 -0.2772568 -0.046204228
-0.091040365 -0.13465546 0.52153933 -0.23355034 0.11082949 -0.56366336 0.42325243 0.48979336
0.04038894 0.008949776 -0.7489241 0.053803302 -0.26894632 1.0226593 0.44630367 -0.015691822
-0.17098054 -0.36491674 -0.70014197 0.25710806 -0.09810382 0.77834034 -0.016171308 0.24002786
-0.30690792 -0.08120868 -0.3549126 0.1572751 -0.20523508 0.16352682 0.27938032 0.17854328
0.3612812 0.21762197 0.6395527 -0.26470315 0.22605555 -0.79865456 -0.18569936 0.084170446

model.rec.bias_ih_l0 f4 [24]
00000000: 4860 ddbe d1f8 44be 96fd 083f ee0e 89be
00000010: b729 ef3e ee2d c83e ff2a 8cbd d0b2 073e
00000020: 161e 1bbf 41bb 86c0 010f a2c0 acba 73c0
00000030: e2af 74be 24ca 61c0 0c01 0a3f 4fc6 cd3e
00000040: 60bc b53d 9b99 553e 7f37 283e 7c1e 20be
00000050: 8603 5e3e cb57 53be b921 88be b70d 793a
-0.4323752 -0.19235541 0.5351194 -0.26769203 0.46711513 0.39097542 -0.06844138 0.13251805
-0.6059278 -4.210358 -5.0643315 -3.8082685 -0.23895219 -3.5279627 0.5390785 0.4019036
0.0887382 0.20859377 0.1642742 -0.15636629 0.21681032 -0.20638959 -0.26588228 0.000950064

model.rec.bias_hh_l0 f4 [24]
00000000: af17 20bd a932 843e 6313 0b3e f02d a23c
00000010: 8cad 2c3f f6f4 99be e686 733d c7ed 2dbe
00000020: ebdd 96be 7642 8ec0 5bf5 9fc0 ba50 6ac0
00000030: 0a28 303e 9a0d 65c0 278f a63e 95ab a7bc
00000040: 994c 41be 70be 1f3e 3418 9ebe 3525 86be
00000050: 21c2 26be 70c2 c63e 5656 693d 1897 723e
-0.039085086 0.258199 0.13581614 0.019797295 0.6745231 -0.30069703 0.05945482 -0.16985236
-0.29466185 -4.445613 -4.9987006 -3.6611772 0.17202774 -3.5789552 0.32531092 -0.020467559
-0.18876876 0.1559999 -0.3087784 -0.26200262 -0.16284992 0.3882022 0.056967102 0.2369045

model.linear.weight f4 [1, 8]
00000000: 499f 3b3f da08 7f3c ab8d 4bbe 0ff6 be3d
00000010: b67b 353f 8a3b 5d3e 4f63 e3be f2bf c4be
0.73289925 0.015566075 -0.19878261 0.09324276 0.7089189 0.21604744 -0.44411704 -0.38427693

exp_avg f4 [24, 1]
00000000: 0bf5 7237 0772 0d37 d0fe 1c36 8a8b c837
00000010: e16f 7e38 d586 0436 c409 7036 b4d0 feb7
00000020: 215a 6237 5c04 ebae 59cc 92ae 6cae 0cb0
00000030: 7474 7235 9603 d7b0 e0ea 7137 f7c0 ea35
00000040: 8e3e f5b7 351f c338 be95 1439 0c3c 86b9
00000050: 63d1 04b8 2eee 4e39 6ce2 c8b8 c39d f5b8
1.4481378e-05 8.430804e-06 2.3394132e-06 2.3906836e-05 6.0662514e-05 1.9748015e-06 3.5768471e-06 -3.0376345e-05
1.34916345e-05 -1.0687337e-10 -6.675611e-11 -5.117957e-10 9.0321487e-07 -1.5644328e-09 1.44194055e-05 1.7490519e-06
-2.9235405e-05 9.304137e-05 0.00014170163 -0.0002560321 -3.166626e-05 0.0001973442 -9.5789175e-05 -0.00011711896

exp_avg_sq f4 [24, 1]
00000000: a08f eb30 cf19 a22e 15ac d831 088a 8430
00000010: 59ed 2533 2cdf 3e31 d8d4 ae2e f186 4231
00000020: 4e55 9a31 5542 361e 4768 641f d0bf 2d21
00000030: bcca 8630 47dc 2c24 98f2 4e2f 04a3 c530
00000040: 9033 f634 f75b ba32 0138 af34 e267 7b33
00000050: 5333 0335 1667 d233 75bd 8833 2753 0634
1.7139321e-09 7.3714916e-11 6.305991e-09 9.643495e-10 3.8632923e-08 2.7775497e-09 7.9504126e-11 2.830742e-09
4.491688e-09 9.648717e-21 4.8367134e-20 5.886854e-19 9.807404e-10 3.7483137e-17 1.8821777e-10 1.4379968e-09
4.5858587e-07 2.169507e-08 3.2637038e-07 5.8534972e-08 4.887599e-07 9.797638e-08 6.3674555e-08 1.2509973e-07

exp_avg f4 [24, 8]
00000000: 4a78 9c3a 1461 ea39 6e30 99b9 5465 c5b9
00000010: fcea 8eb9 61cc 15ba 7eb7 3eba c8b1 0e3a
00000020: 998a 9738 62f9 5db6 0e19 9d37 0841 2637
00000030: 0c47 27b8 86ce ccb8 d52a 10b8 3c5d 54b7
00000040: 88df 5d38 c941 b0b8 3a39 98b8 d2d4 b938
00000050: c924 52b8 34bc 8835 bc4d bf38 dedd 5638
00000060: 5399 1339 d683 cb37 53e5 1738 7b11 69b5
00000070: 9ba1 91b8 7496 49b9 98b3 90b8 8173 cfb4
00000080: 728e a338 c9b4 3e39 389e 1b39 c586 fab8
00000090: 2a69 d5b8 6633 d1b9 3c26 aab9 5318 5839
000000a0: afd8 0db6 c7a8 7ab7 7d8d 1eb7 5ad1 1fb6
000000b0: 4f53 a636 dc10 5138 d6a4 01b8 8e79 6a37
000000c0: eb94 1439 320c 8438 2c2e 19b8 7b47 82b8
000000d0: 7b07 27b7 2086 f7b7 be76 b1b8 1a37 5138
000000e0: b915 c1b9 ae5c 1bb9 f174 ab38 806f 0039
000000f0: a755 e437 7ead 1639 7184 5039 ca9e 21b9
00000100: 6545 e9b8 6d3d 6c38 902b 2d38 e5fa 6db8
00000110: 5b9f cb38 e153 8d38 d63f 9d37 7f0c e6b7
00000120: 8879 f0af f3fa 8130 24f7 aaaf 0c58 82b0
00000130: 6373 6c30 4a86 6a30 f9d4 77af 8ffb 3e2f
00000140: 4c2c cf2e 01b1 0930 3652 b3af cfc7 04b0
00000150: 4c29 9d2f 5d0e 8b2f 42a3 95af 626e b82f
00000160: efa7 8530 effb 8d31 c192 2fb1 2b63 84b1
00000170: ccae 2a31 ef5b 1131 bee1 10b1 d42d 4131
00000180: 01ab 5838 f27a 79b8 68fa c4b4 a0ce 7b38
00000190: b517 87b8 a625 7fb8 e252 c336 05e1 6eb7
000001a0: dc53 2732 59f5 5832 c573 c6b1 377e 49b2
000001b0: a1de 2e31 1280 d0b0 cb1f 1eb2 171e db31
000001c0: e2e9 c7b7 f0aa 3a38 b039 e237 08f7 24b8
000001d0: c3af 5038 7757 1538 a1e1 9636 8bcd 4537
000001e0: 05e1 1139 5b22 e538 4855 53b8 728a beb8
000001f0: a105 d936 efa4 4fb8 238f c4b8 5200 be38
00000200: 4cee 6f3b 26b0 1e3a 4a2f 3eba a27b f6b9
00000210: af56 acba 767b 07bb 82ad faba 4903 b03a
00000220: 64f5 363a 952a cb38 c29d 9c38 15bb 0eb8
00000230: a190 9db9 0d1c 4aba 1d23 c9b9 7c94 98b6
00000240: 2d92 3f3a 944c 6e3a 715b a139 e51c 2dba
00000250: 8308 1db9 e0c0 94ba 7ce1 6aba 762e a939
00000260: eeed 4eba d4f7 8cb9 c9c1 f7b8 9f74 1839
00000270: 4874 9839 bc2f 793a b594 f839 5d19 a6b8
00000280: e7b6 843b d276 7539 ae1d 84ba ed0e 8cb9
00000290: c943 a0ba 7a85 b7ba a5c5 ebba fe20 ab3a
000002a0: 3215 213a c824 e937 5ed7 69b9 7f70 d836
000002b0: 1f1d 17b9 4385 60b9 5a1a 9cb9 087d 003a
000002c0: f376 99ba 3111 a7b9 7b98 3b39 3846 9139
000002d0: 83fe 8339 c922 453a 350a cc39 9d2f 45b9
000002e0: d322 72ba 5569 bcb9 bc76 0339 40d6 b939
000002f0: 3233 8437 11e1 cc39 efcc 0f3a 59f5 5bb9
0.0011937704 0.00044704287 -0.00029218517 -0.00037650263 -0.00027259428 -0.0005714354 -0.0007275267 0.00054433616
7.226057e-05 -3.3076726e-06 1.8727525e-05 9.909512e-06 -3.988207e-05 -9.765946e-05 -3.4372166e-05 -1.26578925e-05
5.2898686e-05 -8.4045874e-05 -7.258584e-05 8.861128e-05 -5.010216e-05 1.0187564e-06 9.122069e-05 5.1228206e-05
0.0001407613 2.4260877e-05 3.621478e-05 -8.68247e-07 -6.94424e-05 -0.00019224902 -6.899907e-05 -3.8640795e-07
7.798978e-05 0.0001818716 0.00014840893 -0.00011946032 -0.0001017622 -0.0003990188 -0.00032453414 0.00020608427
-2.1136764e-06 -1.4940458e-05 -9.450477e-06 -2.3814705e-06 4.956884e-06 4.9845185e-05 -3.0909512e-05 1.39757885e-05
0.00014169856 6.296522e-05 -3.6521044e-05 -6.212197e-05 -9.955717e-06 -2.9507151e-05 -8.462135e-05 4.98808e-05
-0.00036828013 -0.00014816478 8.1756974e-05 0.00012248568 2.7219603e-05 0.00014369746 0.00019885764 -0.0001541331
-0.000111232315 5.6323992e-05 4.1286985e-05 -5.6738867e-05 9.7094766e-05 6.7390276e-05 1.8745584e-05 -2.7423956e-05
-4.37421e-10 9.457309e-10 -3.1098424e-10 -9.483769e-10 8.6020274e-10 8.531954e-10 -2.2540182e-10 1.7369771e-10
9.421139e-11 5.009185e-10 -3.2618325e-10 -4.8305265e-10 2.8587477e-10 2.5294158e-10 -2.7218944e-10 3.3547837e-10
9.724753e-10 4.1322816e-09 -2.5549272e-09 -3.8529797e-09 2.4837616e-09 2.1152535e-09 -2.1083078e-09 2.8111247e-09
5.1657673e-05 -5.9480728e-05 -3.669004e-07 6.0035498e-05 -6.4417174e-05 -6.08318e-05 5.8211017e-06 -1.4238297e-05
9.739747e-09 1.262864e-08 -5.77572e-09 -1.1728438e-08 2.5446882e-09 -1.5170392e-09 -9.204039e-09 6.3771597e-09
-2.3831559e-05 4.4505054e-05 2.6968162e-05 -3.9330713e-05 4.9754755e-05 3.5605826e-05 4.496615e-06 1.1789972e-05
0.00013912104 0.0001092597 -5.0385745e-05 -9.0856935e-05 6.4677592e-06 -4.9506252e-05 -9.3726696e-05 9.059966e-05
0.0036610542 0.000605347 -0.00072549714 -0.0004701289 -0.0013148392 -0.0020672954 -0.0019125196 0.0013428713
0.0006979315 9.687726e-05 7.468044e-05 -3.4029672e-05 -0.0003005313 -0.00077098684 -0.0003836387 -4.547239e-06
0.00073078537 0.00090903905 0.00030776442 -0.0006603732 -0.00014975858 -0.0011348985 -0.00089599914 0.00032268808
-0.00078937307 -0.00026887527 -0.00011813973 0.00014539294 0.00029078336 0.0009505709 0.00047413041 -7.920221e-05
0.004050124 0.00023409285 -0.0010079646 -0.00026714 -0.0012227233 -0.0014001571 -0.001798798 0.0013056097
0.0006144821 2.7792892e-05 -0.00022300842 6.450398e-06 -0.0001441133 -0.00021411949 -0.00029774272 0.00049014436
-0.0011708423 -0.0003186553 0.00017890513 0.00027708872 0.00025175893 0.0007520137 0.00038917517 -0.00018805121
-0.00092367566 -0.00035936633 0.00012537366 0.00035445578 1.5759466e-05 0.000390776 0.00054855546 -0.00020976867

exp_avg_sq f4 [24, 8]
00000000: 1ef8 7836 fdae 1236 d8e8 2035 4515 df35
00000010: 85ee 5833 48b8 a234 c0ff 3c36 6101 1836
00000020: aa8b 8e33 2281 6333 d917 6f32 cc58 3333
00000030: 07f6 5531 5d5b df31 398e 7833 4df2 4733
00000040: 0ab4 6235 eeef b634 9c11 bc33 83b0 7134
00000050: d604 0333 eada 8b34 4f7f 1635 f98f 0635
00000060: e719 4534 8937 cf33 eb97 e832 6004 9733
00000070: 354b 3b32 a206 2d33 9c65 0134 9ed4 ed33
00000080: cb6f 8136 1b56 da35 8368 ca34 310a 9235
00000090: a437 df33 baf7 b135 ff0f 4236 d8e7 2036
000000a0: 9abb 4634 5944 9f34 df1e 9133 e847 8b34
000000b0: 9957 9333 f532 9d33 bc9c 6134 0df0 2f34
000000c0: 3b5b ec33 f180 4933 44bc 8a32 8d81 1533
000000d0: 21ce ff30 defa 5232 9d7e 9a33 5272 8333
000000e0: 5777 df35 018d 7c35 f045 8834 aa77 3a35
000000f0: fb77 ce32 65a2 3a34 96c9 a535 19aa 8b35
00000100: 2ebe a233 05ab 4132 82db 0033 dfae 4332
00000110: 3164 bb32 7f45 8233 9a10 5a32 4e67 5733
00000120: 3018 4021 2177 0021 d544 2c20 8c02 0121
00000130: af65 df20 5f98 3f21 c16e 7c20 739e be20
00000140: c93a 8320 e57c 9720 346e 1f21 36e5 6720
00000150: c97c 0520 1e84 f820 177d d21f 4efd ca20
00000160: df7d 9b24 07fb bf23 23d5 ac23 d059 8d23
00000170: 00e4 d922 a7bd 2824 9371 2424 e1a8 5124
00000180: 8843 9232 46ba 7331 74cb 7e31 a94e 7f31
00000190: 645a 0e32 368d b632 6265 b330 fa27 0d32
000001a0: 1434 1227 1cac f225 0410 9e26 5b67 de25
000001b0: 2c4c d725 7bec 2126 7205 3826 3f07 d626
000001c0: 526f f931 f18a 7e31 ff1c 3e31 2d26 8131
000001d0: 7d2d a731 6fc1 4a31 87fe af30 22c8 a631
000001e0: 9985 fc32 4c36 3e32 190d 3e32 1bb5 5832
000001f0: 4377 9232 9dd3 ca32 af0e d331 418d a032
00000200: 7de0 9138 a500 6838 82d6 6b37 24c2 3538
00000210: 6107 0336 afeb 7736 23e8 7f38 9068 4938
00000220: e3f3 a536 a32e 7936 2756 7f35 013a 4236
00000230: 7743 5934 eab8 0835 57b5 8d36 3696 6336
00000240: c3ad c937 f892 c437 e0ee b136 ab80 a337
00000250: 2722 8336 898c e136 5b70 c637 a403 9637
00000260: 8eb4 8536 aa45 1336 67e1 2235 93f3 db35
00000270: 8641 8534 938c 5535 4463 3736 4b78 2036
00000280: 3642 0f39 458c f338 264c ee37 dde4 c138
00000290: 94fa d336 c7ab 3a37 e448 0639 860d cf38
000002a0: a30a c737 d5c6 a237 6c07 af36 c4cb 8037
000002b0: 2013 8835 f192 dd35 3aaa b037 cd63 8f37
000002c0: 1265 8137 0014 3d37 b4cc 4336 e97b 1237
000002d0: de74 d834 e5fa 9a35 9f54 5937 7afe 2c37
000002e0: a925 ac37 8569 9c37 bac0 9a36 bec5 7a37
000002f0: b113 8735 ae25 9735 35e9 a337 58cb 7d37
3.7099303e-06 2.1857552e-06 5.9943477e-07 1.6620985e-06 5.050835e-08 3.0308934e-07 2.816305e-06 2.2650568e-06
6.637795e-08 5.297e-08 1.3917053e-08 4.1757446e-08 3.113543e-09 6.500541e-09 5.787135e-08 4.655367e-08
8.445355e-07 3.4074714e-07 8.757635e-08 2.2509089e-07 3.0505213e-08 2.6050049e-07 5.6064613e-07 5.01284e-07
1.8356478e-07 9.6492904e-08 2.7077439e-08 7.032281e-08 1.0901933e-08 4.0285734e-08 1.2051026e-07 1.1074847e-07
3.857514e-06 1.6267326e-06 3.7701474e-07 1.0880814e-06 1.0394368e-07 1.3259626e-06 2.8917564e-06 2.3976809e-06
1.8508436e-07 2.9665787e-07 6.757704e-08 2.5943086e-07 6.861155e-08 7.320151e-08 2.1011778e-07 1.6385475e-07
1.1006201e-07 4.691623e-08 1.6150928e-08 3.480959e-08 1.8612277e-09 1.2280649e-08 7.194215e-08 6.1209576e-08
1.6649527e-06 9.4082503e-07 2.538286e-07 6.9464534e-07 2.4036117e-08 1.7381679e-07 1.2352127e-06 1.0405812e-06
7.578306e-08 1.1272964e-08 3.0001964e-08 1.1390255e-08 2.1815227e-08 6.066238e-08 1.2693045e-08 5.0152543e-08
6.508414e-19 4.3525753e-19 1.4591741e-19 4.371027e-19 3.7844958e-19 6.491498e-19 2.1381876e-19 3.2292105e-19
2.2231164e-19 2.5663043e-19 5.401715e-19 1.96423e-19 1.1306826e-19 4.2100262e-19 8.9145403e-20 3.4387754e-19
6.743377e-17 2.0814576e-17 1.8738544e-17 1.5325288e-17 5.9059372e-18 3.6589835e-17 3.5658032e-17 4.5462697e-17
1.7027347e-08 3.5467038e-09 3.7077514e-09 3.7152097e-09 8.28604e-09 2.1251804e-08 1.3052779e-09 8.21637e-09
2.0289802e-15 4.2096934e-16 1.0967793e-15 3.8580898e-16 3.734817e-16 5.6178587e-16 6.3845204e-16 1.4851197e-15
7.2595094e-09 3.7040844e-09 2.7665121e-09 3.758734e-09 4.865511e-09 2.9504823e-09 1.2805267e-09 4.8539883e-09
2.9397414e-08 1.1071801e-08 1.1062434e-08 1.2614033e-08 1.7050871e-08 2.3612126e-08 6.1425776e-09 1.8690686e-08
6.955953e-05 5.531371e-05 1.40570355e-05 4.333457e-05 1.9524816e-06 3.6943054e-06 6.1012932e-05 4.8019516e-05
4.9457753e-06 3.7131038e-06 9.512027e-07 2.8942015e-06 2.0234243e-07 5.0933033e-07 4.223238e-06 3.391307e-06
2.4041981e-05 2.3433458e-05 5.3028198e-06 1.949103e-05 3.90808e-06 6.721883e-06 2.3655759e-05 1.7883089e-05
3.984728e-06 2.1945257e-06 6.0677706e-07 1.6387661e-06 2.4820855e-07 7.9553246e-07 2.7326905e-06 2.3911878e-06
0.00013662208 0.0001161327 2.840727e-05 9.245586e-05 6.317461e-06 1.1126459e-05 0.0001280639 9.873048e-05
2.3727602e-05 1.9404493e-05 5.2162704e-06 1.5353675e-05 1.0138356e-06 1.6508549e-06 2.1060103e-05 1.7093402e-05
1.5425063e-05 1.12699345e-05 2.9176417e-06 8.731128e-06 4.0318167e-07 1.1546914e-06 1.295391e-05 1.0311249e-05
2.0521535e-05 1.8645786e-05 4.611994e-06 1.4947202e-05 1.0064015e-06 1.1261343e-06 1.953971e-05 1.512732e-05

exp_avg f4 [24]
00000000: 795b 983a c5dc f5b8 c40b 75b9 ccb0 20b9
00000010: 2cd7 bfb8 88f4 b6b7 0b6e 7239 752b e1b9
00000020: 68cf 3d39 6106 9431 208b 1631 f5e8 9a32
00000030: 61c2 76b9 bdcb 4d33 19c0 e638 5092 b539
00000040: 250c 20bb a912 93b5 7ef8 dc3a a36b 94b9
00000050: 6bbc 553a 5ff6 3cba e2f3 8cba c867 bfba
0.0011623941 -0.00011723632 -0.00023369404 -0.00015324651 -9.1476686e-05 -2.180996e-05 0.00023119913 -0.00042947722
0.0001810171 4.308092e-09 2.1906956e-09 1.8033896e-08 -0.000235328 4.791558e-08 0.000110030356 0.00034632022
-0.0024421301 -1.0957784e-06 0.0016858724 -0.00028308955 0.00081533816 -0.0007208343 -0.0010753835 -0.0014603073

exp_avg_sq f4 [24]
00000000: 46c0 c237 0d45 2735 ee61 1836 5de5 8335
00000010: 7a73 1537 1e67 9336 8840 f734 663c 1d37
00000020: df31 c734 6c02 1923 d8c4 b322 bfc1 9825
00000030: f38b d133 e840 2128 c099 6433 2649 7434
00000040: 3bd9 293b d404 6839 a779 fc39 f8f5 4439
00000050: b0c1 1f3b fd4b 413a 31ef 063a 6ecb 393a
2.3216136e-05 6.231283e-07 2.2706768e-06 9.827014e-07 8.907979e-06 4.392946e-06 4.6054288e-07 9.371992e-06
3.7102924e-07 8.2946595e-18 4.8726464e-18 2.6499084e-16 9.7577775e-08 8.95137e-15 5.322522e-08 2.2750882e-07
0.0025916833 0.00022127043 0.00048155824 0.00018783647 0.0024376921 0.0007373689 0.00051473366 0.00070875033

exp_avg f4 [24]
00000000: 795b 983a c5dc f5b8 c40b 75b9 ccb0 20b9
00000010: 2cd7 bfb8 88f4 b6b7 0b6e 7239 752b e1b9
00000020: 68cf 3d39 6106 9431 208b 1631 f5e8 9a32
00000030: 61c2 76b9 bdcb 4d33 19c0 e638 5092 b539
00000040: 70ef 343a 9bb3 feb9 77eb c73a 9e2a 6239
00000050: 912e 123a 8fee 35b9 f43a 42ba 1917 82ba
0.0011623941 -0.00011723632 -0.00023369404 -0.00015324651 -9.1476686e-05 -2.180996e-05 0.00023119913 -0.00042947722
0.0001810171 4.308092e-09 2.1906956e-09 1.8033896e-08 -0.000235328 4.791558e-08 0.000110030356 0.00034632022
0.0006902134 -0.00048580472 0.0015252669 0.00021568916 0.0005576397 -0.00017350375 -0.00074092974 -0.0009925097

exp_avg_sq f4 [24]
00000000: 46c0 c237 0d45 2735 ee61 1836 5de5 8335
00000010: 7a73 1537 1e67 9336 8840 f734 663c 1d37
00000020: df31 c734 6c02 1923 d8c4 b322 bfc1 9825
00000030: f38b d133 e840 2128 c099 6433 2649 7434
00000040: 608e 263a e626 2f38 33a6 9239 1b83 c337
00000050: c37b ad3a d276 6e39 5f87 0239 aa03 6939
2.3216136e-05 6.231283e-07 2.2706768e-06 9.827014e-07 8.907979e-06 4.392946e-06 4.6054288e-07 9.371992e-06
3.7102924e-07 8.2946595e-18 4.8726464e-18 2.6499084e-16 9.7577775e-08 8.95137e-15 5.322522e-08 2.2750882e-07
0.0006353613 4.175948e-05 0.00027971118 2.3306862e-05 0.0013235736 0.00022741713 0.00012448196 0.00022221977

exp_avg f4 [1, 8]
00000000: f576 1d3b 361b 0cba f327 6dba 223d 1239
00000010: 68c7 1439 ccc7 df3a 7c7a 39ba 805c 163a
0.0024027203 -0.0005344631 -0.00090467854 0.00013946419 0.00014188664 0.0017073094 -0.00070754415 0.00057358295

exp_avg_sq f4 [1, 8]
00000000: f570 023a d715 c539 710b c038 9fd8 9a39
00000010: a1fd ba37 e517 9d38 e1a1 ec39 91f1 b739
0.00049759384 0.0003759104 9.1574046e-05 0.00029534564 2.2291033e-05 7.490794e-05 0.00045134037 0.0003508446

weight_ih_l0 f4 [24, 1]
00000000: 60a7 2041 8ced 3b40 8eb7 43bf c9f3 1240
00000010: aa86 a23f b93a 4cc0 d578 9140 b4aa 933f
00000020: 1f82 4dc0 3d7a 9c3f 2d1d 843f 0510 a03f
00000030: e2b0 0dbf 9e5b 3040 7cf3 31c1 a155 16c0
00000040: 4b54 d640 b621 8240 10e0 7040 46b0 30c0
00000050: df31 4e3f 7111 bbc0 a7e1 eec0 5943 c83f
10.040863 2.9363737 -0.7645196 2.2961295 1.2697346 -3.1910841 4.546 1.153647
-3.211067 1.2224804 1.0321404 1.2504889 -0.55348027 2.7555919 -11.121944 -2.3489764
6.6977897 4.066615 3.7636757 -2.7607589 0.8054485 -5.845879 -7.4650455 1.5645553

weight_hh_l0 f4 [24, 8]
00000000: 58c6 c53e 881b 413f f93d 3a40 cfc2 a1bf
00000010: 59de e63e 865d 0ac0 d5b5 48bf 9f63 edbd
00000020: 7723 0dbf f901 7abe 8879 dcbe f899 93be
00000030: 6796 dabe 56fa 6d3f edfb 613e c84a 68be
00000040: b8d3 75bd 312d d23e 7d74 c63f 2fef 6cbf
00000050: 1335 803f 6777 403e d621 37bf 4bf5 ba3e
00000060: 1076 1fbe 233b 543c 1710 9f3d 560f 733e
00000070: cdd4 043e 57f3 3a3f 5451 c7bc e3e8 55bf
00000080: 28fc 3b3f 594b c0be 6fcb 5f3e 8229 4fbe
00000090: 8533 413f b5fc b33f d189 a3be 50c8 80bf
000000a0: d783 b53f 5fa0 1abf e71d 54bf 41a1 323f
000000b0: 14ee 063f b14a a63d 1e20 d8bd 858d c5be
000000c0: 68fc 343e 9a0a 1a3f 7109 0240 6512 f7bd
000000d0: 3e68 ad3f 561f 1dbf 1aa5 2fbe 415c 17bf
000000e0: 35c8 4b3d 540c d23e 4e33 f93d 90b5 e3be
000000f0: 43fc 093f 7e30 b8be def6 90be ad5d fabd
00000100: 5431 c2bf 64fa c2bf 5680 3bc0 9199 da3f
00000110: f365 11c0 cda1 2540 0244 2240 5640 cfbd
00000120: 742a 603e 4b3b 7bc0 871a 85be bcb0 3a40
00000130: c1ff 6bc0 2523 61bf bff0 6940 4ffa 43bf
00000140: 9714 bbbe e02a 7cc0 ed3f 1e3e e6aa 3d40
00000150: bd4c 83c0 2372 8bbf e732 7640 26db 14bf
00000160: af1f 803e 0910 2fc0 48e6 9b3e 11dd e33f
00000170: bb79 86c0 e209 9ebf 5803 3140 bf8c 81be
00000180: c525 5cc0 5791 0ec0 027c 65c0 dea9 5040
00000190: ddbe 9dbf 030e d13f 2c87 8a40 af3c 0e40
000001a0: 7779 053e caaf 6cc0 12b0 a23e b1b8 4640
000001b0: 2604 48c0 c271 64bf a2d3 3640 f652 30bf
000001c0: 515f 96c0 0a7d b2c0 928c d6c0 b15b cd40
000001d0: 19d0 f7bf 5e1f dd40 f738 a440 727a 75bf
000001e0: b825 56bf 1006 b1bf de23 04c0 ce1c b63f
000001f0: 0ded 39bf af73 763f 48d8 8fbe 75bd 41bf
00000200: a390 f43e 8ff4 2b3f 9d88 4b3f 313f 70bf
00000210: d8bc 133f f02a 75bf c805 04bf 80bb 26be
00000220: a0b8 1dbe 2f4e 0ebe fb10 1ebf 5781 93be
00000230: 9c0a 3bbe 85ca a53e b482 41be 1926 20be
00000240: 0f66 dbbe 9fcc 51be 9262 b4be 7012 56bd
00000250: 7fb4 6ebe bf82 463f 9af4 8dbe a540 3dbd
00000260: 5f73 babd 1fe3 09be 9a83 053f d227 6fbe
00000270: 92fa e23d 3e4c 10bf 8bb4 d83e 32c6 fa3e
00000280: e06e 253d 15a2 123c 7db9 3fbf da60 5c3d
00000290: 55b3 89be 80e6 823f ea81 e43e 238c 80bc
000002a0: 8615 2fbe 5ed6 babe 813c 33bf aba3 833e
000002b0: a8ea c8bd 5041 473f b179 84bc ddc9 753e
000002c0: 0923 9dbe bd50 a6bd 1bb7 b5be b90c 213e
000002d0: 2529 52be 9373 273e f00a 8f3e 0dd4 363e
000002e0: d9f9 b83e 4bd8 5e3e bab9 233f 2c87 87be
000002f0: 1b7b 673e a074 4cbf f927 3ebe 8e61 ac3d
0.38627887 0.75432634 2.9100325 -1.2637576 0.45091513 -2.1619582 -0.78402454 -0.11591267
-0.5513224 -0.24414815 -0.4306147 -0.28828406 -0.42692873 0.9296011 0.22068758 -0.22684777
-0.060016364 0.41050103 1.5504299 -0.92552465 1.0016197 0.18795548 -0.71536005 0.3651527
-0.15572381 0.012953552 0.07766741 0.23736319 0.12971802 0.7302756 -0.024330772 -0.8355848
0.73431635 -0.37557486 0.21854948 -0.20230678 0.7546924 1.4061495 -0.31941083 -1.006113
1.4180859 -0.60400957 -0.8285813 0.69777304 0.5270703 0.08119715 -0.10553001 -0.38584533
0.1767441 0.60172427 2.0318263 -0.12064055 1.3547437 -0.6137594 -0.17152825 -0.59125143
0.04975148 0.4102503 0.12167989 -0.4447446 0.53900546 -0.35974497 -0.28313345 -0.122248985
-1.5171304 -1.5232663 -2.929708 1.7078115 -2.2718475 2.5880005 2.5354009 -0.10119693
0.21891195 -3.925494 -0.259968 2.917037 -3.687485 -0.8794425 3.655319 -0.76553816
-0.36539146 -3.940117 0.15454073 2.9635558 -4.1031175 -1.0894207 3.8468568 -0.58146894
0.25024173 -2.7353537 0.30449128 1.7801839 -4.2023597 -1.2346766 2.765829 -0.25302693
-3.4398053 -2.2276208 -3.5856938 3.2603679 -1.2323872 1.6332401 4.3290005 2.2224538
0.13034616 -3.6982293 0.31774956 3.1050227 -3.1252532 -0.8923608 2.856667 -0.6887659
-4.6991353 -5.5777636 -6.7046595 6.417443 -1.9360381 6.910079 5.1319537 -0.9588996
-0.83651304 -1.3829975 -2.0646892 1.422754 -0.72627336 0.9627027 -0.28094697 -0.75679713
0.477666 0.6717004 0.7950533 -0.9384642 0.5771003 -0.9576864 -0.5157132 -0.16282463
-0.1540246 -0.13897012 -0.6174466 -0.28809616 -0.18265766 0.32381073 -0.18897516 -0.15639533
-0.42851302 -0.20488213 -0.35231453 -0.052263677 -0.23311041 0.7754325 -0.2772568 -0.046204228
-0.091040365 -0.13465546 0.52153933 -0.23355034 0.11082949 -0.56366336 0.42325243 0.48979336
0.04038894 0.008949776 -0.7489241 0.053803302 -0.26894632 1.0226593 0.44630367 -0.015691822
-0.17098054 -0.36491674 -0.70014197 0.25710806 -0.09810382 0.77834034 -0.016171308 0.24002786
-0.30690792 -0.08120868 -0.3549126 0.1572751 -0.20523508 0.16352682 0.27938032 0.17854328
0.3612812 0.21762197 0.6395527 -0.26470315 0.22605555 -0.79865456 -0.18569936 0.084170446

bias_ih_l0 f4 [24]
00000000: 4860 ddbe d1f8 44be 96fd 083f ee0e 89be
00000010: b729 ef3e ee2d c83e ff2a 8cbd d0b2 073e
00000020: 161e 1bbf 41bb 86c0 010f a2c0 acba 73c0
00000030: e2af 74be 24ca 61c0 0c01 0a3f 4fc6 cd3e
00000040: 60bc b53d 9b99 553e 7f37 283e 7c1e 20be
00000050: 8603 5e3e cb57 53be b921 88be b70d 793a
-0.4323752 -0.19235541 0.5351194 -0.26769203 0.46711513 0.39097542 -0.06844138 0.13251805
-0.6059278 -4.210358 -5.0643315 -3.8082685 -0.23895219 -3.5279627 0.5390785 0.4019036
0.0887382 0.20859377 0.1642742 -0.15636629 0.21681032 -0.20638959 -0.26588228 0.000950064

bias_hh_l0 f4 [24]
00000000: af17 20bd a932 843e 6313 0b3e f02d a23c
00000010: 8cad 2c3f f6f4 99be e686 733d c7ed 2dbe
00000020: ebdd 96be 7642 8ec0 5bf5 9fc0 ba50 6ac0
00000030: 0a28 303e 9a0d 65c0 278f a63e 95ab a7bc
00000040: 994c 41be 70be 1f3e 3418 9ebe 3525 86be
00000050: 21c2 26be 70c2 c63e 5656 693d 1897 723e
-0.039085086 0.258199 0.13581614 0.019797295 0.6745231 -0.30069703 0.05945482 -0.16985236
-0.29466185 -4.445613 -4.9987006 -3.6611772 0.17202774 -3.5789552 0.32531092 -0.020467559
-0.18876876 0.1559999 -0.3087784 -0.26200262 -0.16284992 0.3882022 0.056967102 0.2369045

weight f4 [1, 8]
00000000: 499f 3b3f da08 7f3c ab8d 4bbe 0ff6 be3d
00000010: b67b 353f 8a3b 5d3e 4f63 e3be f2bf c4be
0.73289925 0.015566075 -0.19878261 0.09324276 0.7089189 0.21604744 -0.44411704 -0.38427693

state f4 [1, 15, 8]
00000000: 5a2d 973e 2ef9 963e a466 10be b154 83be
00000010: 28e2 2a3d a572 ecbc 62af 95be 895a 8c3e
00000020: 72dc 0bbf 450a a63d e0a9 3f3b 71ad 52be
00000030: 2d74 d43e feda 1a3f 6526 bd3d 009f 99be
00000040: c221 9c3e 514c 973e 3b5b 12be 2f9a 83be
00000050: a885 1c3d 8316 0abd 2529 98be 9a5a 8e3e
00000060: 0cfd a03e 5894 983e 24c2 12be 2160 84be
00000070: 50f6 163d 158e 1cbd c769 9bbe bfe4 903e
00000080: dc32 423f af97 bc3e 7dc4 76be d47d 96be
00000090: 7f29 c6bd f7db 94be 0d1b 0bbf 18cc 083f
000000a0: eb94 713f 735a ed3e 4684 8ebe 76b3 b2be
000000b0: 3cf9 45be 09db 10bf 4081 3bbf baf5 353f
000000c0: c610 6c3f 32cd dd3e 6e66 94be f298 a7be
000000d0: b687 38be d876 01bf 04b3 2fbf 2c1c 2f3f
000000e0: bcf6 7b3f 4451 0f3f f11c 8abe 6a05 d5be
000000f0: 37bb 65be 9485 3cbf b22c 5abf 5f62 503f
00000100: 3903 3e3f 7e48 bc3e d025 69be 2101 98be
00000110: 6402 babd 8488 90be 1ded 09bf 2773 033f
00000120: ce92 a23e 01a5 983e d8ec 13be bf60 84be
00000130: 0bfa 123d 00fb 1fbd ef1b 9cbe f8f4 913e
00000140: 67c7 a23e e39c 983e 6825 14be 1e5c 84be
00000150: 25f6 113d 35a0 20bd 0729 9cbe 790a 923e
00000160: 677b 723f b904 e53e caa3 a3be 8773 a9be
00000170: 691e 44be 2b77 0ebf d863 36bf 96cb 3b3f
00000180: 31c7 5e3e b8af 913e 9530 02be 7d14 80be
00000190: a034 833d 3284 b43b 5370 7ebe 852e 703e
000001a0: b13d a13e f278 983e f672 13be 8345 84be
000001b0: ccef 153d 9034 1bbd 9161 9bbe f84a 913e
000001c0: 3096 453f eb4b bb3e 1fa2 81be 1811 95be
000001d0: 1600 dcbd 7af8 98be 8190 0bbf fd86 0b3f
0.29526788 0.29486984 -0.14101654 -0.25650552 0.041719586 -0.02886326 -0.2923537 0.27412823
-0.5463325 0.081074275 0.002924554 -0.20573975 0.41494885 0.60490406 0.09235839 -0.3000412
0.30494505 0.29550412 -0.14292614 -0.2570357 0.038213402 -0.033712875 -0.2971889 0.27803499
0.3144306 0.29800677 -0.14331871 -0.2585459 0.036855996 -0.038221437 -0.3035414 0.2829952
0.75858855 0.36834475 -0.24098392 -0.29392874 -0.096758835 -0.2907407 -0.5433815 0.5343642
0.94367856 0.4635807 -0.27835292 -0.34902543 -0.19333357 -0.5658422 -0.73244095 0.71078074
0.92213094 0.43320614 -0.28984398 -0.32733876 -0.1802052 -0.50571966 -0.6863253 0.6840236
0.9842336 0.55983377 -0.26975206 -0.41605693 -0.22434698 -0.73641324 -0.8522445 0.814001
0.7422367 0.36774057 -0.2276833 -0.2968836 -0.09082487 -0.28229153 -0.5387743 0.51347584
0.31752628 0.29813388 -0.14445817 -0.2585506 0.03588299 -0.03905773 -0.30490062 0.2850721
0.31792757 0.29807195 -0.14467394 -0.2585153 0.035635132 -0.039215285 -0.3050005 0.28523615
0.9471955 0.44730166 -0.319609 -0.33095953 -0.19152226 -0.55650586 -0.712461 0.7335752
0.21755673 0.28454375 -0.12713845 -0.2501563 0.06406522 0.005508923 -0.24847536 0.23455246
0.3149238 0.29779774 -0.14399323 -0.25834283 0.03660564 -0.037891924 -0.30347875 0.2837751
0.7718229 0.36581358 -0.25319 -0.29114604 -0.10742204 -0.29877073 -0.5451737 0.5450285

hpf_coeffs f4 [1, 1, 2]
00000000: 9a99 59bf 0000 803f
-0.85 1.0
