pretrained/diodeclippper_rnn8_epoch=57-step=53592.ckpt (torch, 14923 bytes, 22 tensors)

model.rec.weight_ih_l0 f4 [8, 1]
000000 ad e0 1f 41 3d d5 9d 3d f1 60 59 3e fc ab 23 3e
       9.9923525 0.077066876 0.21228386 0.15983576
000010 04 89 92 c0 cc ca 19 41 cf f9 9c c0 1c 7d da 3f
       -4.5792255 9.612011 -4.905494 1.706943

model.rec.weight_hh_l0 f4 [8, 8]
000000 bd 3b 04 3e 34 ec 16 3e 57 8c ab 3b 7f 12 ea 3d
       0.12913413 0.14738542 0.0052352357 0.11429309
000010 c7 bf ec bf 97 94 b6 3f cf 33 94 bf 9e 23 2e be
       -1.8496026 1.4264096 -1.1578311 -0.17005774
000020 be f4 f7 3c 0d f3 9c bd 9f 81 8d be 2f f5 8f 3d
       0.03026807 -0.07663546 -0.27637956 0.07029187
000030 dc 03 b5 be 63 12 11 be f5 77 73 be 14 fa e0 bc
       -0.35354507 -0.1416717 -0.23776229 -0.027462997
000040 65 47 0b be f9 c6 f3 bd b3 63 87 3e c8 3b 08 be
       -0.13601454 -0.119031854 0.26443252 -0.13304055
000050 2b 89 00 3e 43 1a 0d bd 16 d2 d2 3e 77 fc a2 3e
       0.12552325 -0.034448873 0.41175908 0.3183324
000060 26 28 95 3d 11 dd 81 be b6 1a 76 be 3a e5 68 be
       0.07283048 -0.25363973 -0.24033627 -0.22743693
000070 34 c6 e8 3d e9 d8 f2 bc 1f f9 9d 3e 12 92 29 3b
       0.11365929 -0.029644446 0.30854127 0.0025874418
000080 61 4a 3b 3e f4 6e 15 be ff 25 38 3d c4 da 5c be
       0.18290092 -0.14593107 0.04495811 -0.21567827
000090 87 dd 47 bf 09 87 a8 3e 25 cf 9a be cd ba 8c be
       -0.780724 0.32915524 -0.30236164 -0.27486268
0000a0 e0 34 c5 be 9c 28 1f 3d 26 fb b9 3e d3 94 ef 3e
       -0.38516903 0.038857087 0.36324424 0.4679323
0000b0 b9 0a 07 bf 5f 57 b4 3e 17 4f cc bd ab 4b a5 3c
       -0.52750736 0.3522291 -0.09976023 0.020177683
0000c0 6b bc 46 3e ee dd 7a be ac ab 42 be 5d 31 41 be
       0.19407813 -0.24498722 -0.190108 -0.18866487
0000d0 9b c2 51 3d 1f d1 8b be b7 2d bf be a7 a9 b1 bd
       0.05121098 -0.27307984 -0.37339565 -0.08674937
0000e0 c6 77 e2 3d 0a 78 e5 3d 23 f2 d7 3d 85 4d 8b ba
       0.11058001 0.11204536 0.10544231 -0.0010627961
0000f0 84 93 18 c0 07 3b 08 40 16 01 71 bf 1d ae 5a be
       -2.3840036 2.1286027 -0.9414228 -0.21355481

model.rec.bias_ih_l0 f4 [8]
000000 61 b7 37 3e 3f a8 8f 3e 48 44 8b 3e 4c 8f 9b 3e
       0.17941047 0.2805805 0.27200532 0.30382764
000010 3a 2c e0 bc 32 51 3b be 0d 99 9c 3d a6 99 e2 bd
       -0.027364839 -0.18292692 0.076463796 -0.11064462

model.rec.bias_hh_l0 f4 [8]
000000 56 fc 93 be 11 82 9a 3e 12 c3 6e 3e 58 bc b8 be
       -0.28903455 0.30177358 0.23316601 -0.36081195
000010 78 3c 01 bd 7c 08 85 3d ec 54 69 bc 91 21 52 bd
       -0.031551808 0.06495759 -0.014241438 -0.051301543

model.linear.weight f4 [1, 8]
000000 f0 f3 63 3f 81 04 97 be fb d4 ec 3d ee 59 82 3e
       0.89044094 -0.29495624 0.1156406 0.25459236
000010 b6 6b bb 3e 36 de b4 bd cf c6 78 be 0e 99 29 bf
       0.36605614 -0.08831446 -0.2429459 -0.6624917

exp_avg f4 [8, 1]
000000 10 b3 95 b8 1a 4f 58 34 85 c3 c5 b7 3b 3c a3 b7
       -7.138227e-05 2.0145345e-07 -2.3575276e-05 -1.9459161e-05
000010 2c 47 8b b6 2c 35 ae b6 91 81 d5 37 f0 21 2a 38
       -4.1508083e-06 -5.191794e-06 2.5451913e-05 4.0562765e-05

exp_avg_sq f4 [8, 1]
000000 f6 0c 86 33 2f 98 d9 33 7d e5 18 33 83 6c e9 32
       6.242219e-08 1.0132532e-07 3.5598976e-08 2.7174115e-08
000010 11 8a d6 33 3b 8b de 31 13 95 62 32 5f 0b 5a 33
       9.990266e-08 6.476879e-09 1.3188827e-08 5.0767422e-08

exp_avg f4 [8, 8]
000000 db fb 85 ba b9 06 29 39 d3 31 5e 39 13 d3 08 b9
       -0.0010222154 0.000161196 0.00021190131 -0.00013048602
000010 18 1f df 38 52 60 ad b9 b7 43 1e 39 9a cc 61 ba
       0.0001063926 -0.00033068896 0.0001509328 -0.0008613557
000020 f9 69 4f 39 9a bc de b8 a3 32 bf b8 97 93 91 38
       0.00019780536 -0.00010620915 -9.1170215e-05 6.9416295e-05
000030 6d 09 a7 b6 bf 74 1f 38 7a e0 cb 37 0d 56 20 39
       -4.978085e-06 3.8017282e-05 2.4304016e-05 0.00015290845
000040 ae dd 18 b9 77 fc 49 38 ca 19 9a 38 b3 d7 e3 b7
       -0.00014578432 4.815726e-05 7.348096e-05 -2.7160952e-05
000050 74 8a 1f 38 ec a8 07 b9 25 4e 88 38 e7 07 22 b9
       3.80375e-05 -0.00012937532 6.499541e-05 -0.00015452468
000060 97 38 f9 b8 45 b2 ae 38 d3 b8 d3 38 31 5e 80 b8
       -0.00011883786 8.330172e-05 0.0001009569 -6.12106e-05
000070 f1 c1 df 37 2e d6 98 b8 0d be b1 37 e9 c0 08 b8
       2.6673983e-05 -7.287819e-05 2.1188544e-05 -3.260459e-05
000080 04 67 02 ba e7 9e 19 39 b4 d0 12 39 57 c0 c4 b8
       -0.0004974457 0.00014650413 0.00014001393 -9.3818344e-05
000090 df 41 cb b6 e5 09 3a 37 23 e9 f1 b7 18 48 a4 b9
       -6.05754e-06 1.1088768e-05 -2.8838002e-05 -0.00031334232
0000a0 03 c8 01 3a c2 45 1e b7 d1 95 8a 37 1f 41 89 37
       0.00049507635 -9.433776e-06 1.6520646e-05 1.6361997e-05
0000b0 4f 9b b5 35 26 81 ad b8 d7 09 f2 37 67 98 a3 39
       1.3530752e-06 -8.2733386e-05 2.885323e-05 0.0003120333
0000c0 f7 7e c0 39 f1 3c 0a b9 43 04 30 b9 09 74 b6 38
       0.0003671569 -0.00013183408 -0.00016786256 8.7000495e-05
0000d0 e7 a6 00 b8 f7 97 3a 39 11 b2 86 b8 97 3d 8c 39
       -3.0673018e-05 0.00017794954 -6.4227854e-05 0.0002674877
0000e0 1c a1 76 3a ec 2a 19 b9 de 4f 38 b9 c2 bd 03 39
       0.00094081624 -0.00014607207 -0.0001757736 0.00012563824
0000f0 67 6d a1 b8 cd 6b ff 38 f1 20 70 b8 7a 50 2f 3a
       -7.697456e-05 0.00012179427 -5.7251138e-05 0.0006687712

exp_avg_sq f4 [8, 8]
000000 7c d4 d2 37 02 f7 16 39 18 47 93 39 33 03 6f 38
       2.5132897e-05 0.00014397132 0.00028090994 5.698502e-05
000010 74 01 c8 34 95 fc 49 36 97 48 8d 36 d8 d7 a7 37
       3.725396e-07 3.0098356e-06 4.210578e-06 2.0008461e-05
000020 3d 36 00 37 57 fd 72 37 4b 2a ef 37 86 86 c0 36
       7.642023e-06 1.4483309e-05 2.8510714e-05 5.7377065e-06
000030 6c f6 63 34 9d 00 5b 36 0e 92 c5 35 c1 aa e2 36
       2.123067e-07 3.26339e-06 1.4720151e-06 6.7552032e-06
000040 d1 a5 0b 36 94 52 7c 36 56 e5 f0 36 b5 0d c9 35
       2.0809132e-06 3.7598993e-06 7.1792556e-06 1.4979656e-06
000050 d2 87 a7 33 df b1 81 35 54 8d 04 35 45 5a fa 35
       7.801249e-08 9.663016e-07 4.937949e-07 1.8652723e-06
000060 25 00 5c 36 43 be 74 37 ad c2 ef 37 c1 8d c1 36
       3.2782639e-06 1.4587832e-05 2.8581673e-05 5.7683505e-06
000070 26 da e8 33 00 e6 9e 35 7c d6 40 35 78 62 44 36
       1.0843023e-07 1.1838856e-06 7.183769e-07 2.9263592e-06
000080 27 4d 4e 37 75 ee ac 37 be 68 28 38 04 88 09 37
       1.229652e-05 2.0615038e-05 4.015187e-05 8.197505e-06
000090 9a cd 8c 34 1c 5e 88 36 1f 24 f6 35 0b 0d 35 37
       2.6226627e-07 4.0640716e-06 1.8338941e-06 1.07914775e-05
0000a0 8a 01 59 36 73 ca 80 35 83 b3 00 36 62 9e cd 34
       3.2336416e-06 9.595664e-07 1.9177976e-06 3.8299464e-07
0000b0 4d 94 6c 32 b2 30 fe 34 dd e6 1c 34 0f 0b 38 36
       1.3770728e-08 4.7346617e-07 1.461262e-07 2.7424574e-06
0000c0 40 26 a6 36 45 3b 02 38 74 69 7e 38 7e 1b 4e 37
       4.9516384e-06 3.1049614e-05 6.065653e-05 1.2284958e-05
0000d0 d6 4a c1 33 de 1b 4e 35 fe 0a 81 35 57 cf 7e 36
       9.0008754e-08 7.678153e-07 9.614448e-07 3.7969637e-06
0000e0 aa 97 8b 37 74 d2 ad 38 55 6d 29 39 94 cc 09 38
       1.6640715e-05 8.288483e-05 0.00016157825 3.2853874e-05
0000f0 52 15 88 34 86 3c e2 35 01 c7 21 36 9b c3 5c 37
       2.5347487e-07 1.6855927e-06 2.4106705e-06 1.3158565e-05

exp_avg f4 [8]
000000 8b 8e fd 39 6b 8e 7f b9 6b 3c 1a 39 11 82 6e 39
       0.00048362123 -0.0002437175 0.00014709092 0.00022745902
000010 0f f0 b5 39 4e 5b 3e b7 3a 37 b9 b9 b7 44 dc b9
       0.00034701868 -1.1346141e-05 -0.00035327097 -0.00042012866

exp_avg_sq f4 [8]
000000 f2 6d 79 3a d6 ce ca 38 95 ab ce 37 e7 c0 ca 38
       0.00095149793 9.670637e-05 2.4637013e-05 9.6680415e-05
000010 f4 80 0f 39 9c ff da 36 78 73 57 39 f2 a5 0f 3a
       0.00013685582 6.526663e-06 0.00020547013 0.0005479745

exp_avg f4 [8]
000000 8b 8e fd 39 6b 8e 7f b9 6b 3c 1a 39 11 82 6e 39
       0.00048362123 -0.0002437175 0.00014709092 0.00022745902
000010 0f f0 b5 39 4e 5b 3e b7 3a 37 b9 b9 b7 44 dc b9
       0.00034701868 -1.1346141e-05 -0.00035327097 -0.00042012866

exp_avg_sq f4 [8]
000000 f2 6d 79 3a d6 ce ca 38 95 ab ce 37 e7 c0 ca 38
       0.00095149793 9.670637e-05 2.4637013e-05 9.6680415e-05
000010 f4 80 0f 39 9c ff da 36 78 73 57 39 f2 a5 0f 3a
       0.00013685582 6.526663e-06 0.00020547013 0.0005479745

exp_avg f4 [1, 8]
000000 cb 0b 85 ba 5b 6a c8 39 09 03 0b 3a 21 42 65 b9
       -0.0010150609 0.00038226214 0.00053028815 -0.00021863777
000010 ef 49 75 38 89 ad f5 b9 04 70 08 39 d4 ad 23 ba
       5.8481408e-05 -0.00046859335 0.000130117 -0.0006243859

exp_avg_sq f4 [1, 8]
000000 3d 8f dc 38 4a 2b 98 39 80 12 14 3a eb 1c f1 38
       0.00010517098 0.00029023952 0.00056485087 0.00011497162
000010 5c 3c 89 36 f3 01 21 38 3f 53 ba 37 8c 3d cc 38
       4.089945e-06 3.8387207e-05 2.2211692e-05 9.738942e-05

weight_ih_l0 f4 [8, 1]
000000 ad e0 1f 41 3d d5 9d 3d f1 60 59 3e fc ab 23 3e
       9.9923525 0.077066876 0.21228386 0.15983576
000010 04 89 92 c0 cc ca 19 41 cf f9 9c c0 1c 7d da 3f
       -4.5792255 9.612011 -4.905494 1.706943

weight_hh_l0 f4 [8, 8]
000000 bd 3b 04 3e 34 ec 16 3e 57 8c ab 3b 7f 12 ea 3d
       0.12913413 0.14738542 0.0052352357 0.11429309
000010 c7 bf ec bf 97 94 b6 3f cf 33 94 bf 9e 23 2e be
       -1.8496026 1.4264096 -1.1578311 -0.17005774
000020 be f4 f7 3c 0d f3 9c bd 9f 81 8d be 2f f5 8f 3d
       0.03026807 -0.07663546 -0.27637956 0.07029187
000030 dc 03 b5 be 63 12 11 be f5 77 73 be 14 fa e0 bc
       -0.35354507 -0.1416717 -0.23776229 -0.027462997
000040 65 47 0b be f9 c6 f3 bd b3 63 87 3e c8 3b 08 be
       -0.13601454 -0.119031854 0.26443252 -0.13304055
000050 2b 89 00 3e 43 1a 0d bd 16 d2 d2 3e 77 fc a2 3e
       0.12552325 -0.034448873 0.41175908 0.3183324
000060 26 28 95 3d 11 dd 81 be b6 1a 76 be 3a e5 68 be
       0.07283048 -0.25363973 -0.24033627 -0.22743693
000070 34 c6 e8 3d e9 d8 f2 bc 1f f9 9d 3e 12 92 29 3b
       0.11365929 -0.029644446 0.30854127 0.0025874418
000080 61 4a 3b 3e f4 6e 15 be ff 25 38 3d c4 da 5c be
       0.18290092 -0.14593107 0.04495811 -0.21567827
000090 87 dd 47 bf 09 87 a8 3e 25 cf 9a be cd ba 8c be
       -0.780724 0.32915524 -0.30236164 -0.27486268
0000a0 e0 34 c5 be 9c 28 1f 3d 26 fb b9 3e d3 94 ef 3e
       -0.38516903 0.038857087 0.36324424 0.4679323
0000b0 b9 0a 07 bf 5f 57 b4 3e 17 4f cc bd ab 4b a5 3c
       -0.52750736 0.3522291 -0.09976023 0.020177683
0000c0 6b bc 46 3e ee dd 7a be ac ab 42 be 5d 31 41 be
       0.19407813 -0.24498722 -0.190108 -0.18866487
0000d0 9b c2 51 3d 1f d1 8b be b7 2d bf be a7 a9 b1 bd
       0.05121098 -0.27307984 -0.37339565 -0.08674937
0000e0 c6 77 e2 3d 0a 78 e5 3d 23 f2 d7 3d 85 4d 8b ba
       0.11058001 0.11204536 0.10544231 -0.0010627961
0000f0 84 93 18 c0 07 3b 08 40 16 01 71 bf 1d ae 5a be
       -2.3840036 2.1286027 -0.9414228 -0.21355481

bias_ih_l0 f4 [8]
000000 61 b7 37 3e 3f a8 8f 3e 48 44 8b 3e 4c 8f 9b 3e
       0.17941047 0.2805805 0.27200532 0.30382764
000010 3a 2c e0 bc 32 51 3b be 0d 99 9c 3d a6 99 e2 bd
       -0.027364839 -0.18292692 0.076463796 -0.11064462

bias_hh_l0 f4 [8]
000000 56 fc 93 be 11 82 9a 3e 12 c3 6e 3e 58 bc b8 be
       -0.28903455 0.30177358 0.23316601 -0.36081195
000010 78 3c 01 bd 7c 08 85 3d ec 54 69 bc 91 21 52 bd
       -0.031551808 0.06495759 -0.014241438 -0.051301543

weight f4 [1, 8]
000000 f0 f3 63 3f 81 04 97 be fb d4 ec 3d ee 59 82 3e
       0.89044094 -0.29495624 0.1156406 0.25459236
000010 b6 6b bb 3e 36 de b4 bd cf c6 78 be 0e 99 29 bf
       0.36605614 -0.08831446 -0.2429459 -0.6624917

state f4 [1, 15, 8]
000000 77 4e e1 bc 37 06 c5 3e 00 f9 0a 3f e6 37 7b be
       -0.027503235 0.38481304 0.54286194 -0.24533042
000010 df 47 34 bc 63 b7 9b bc 37 bc 71 bd fb 9e 8f bc
       -0.0110034635 -0.019008344 -0.059017386 -0.017531862
000020 e8 13 7d bf 94 d2 b5 3e 81 ce 0a 3f 95 f2 40 be
       -0.988585 0.3551222 0.5422135 -0.18842538
000030 58 37 b8 3d 4a f6 38 bf 82 bd af 3e 4e 53 79 bf
       0.08994931 -0.7225081 0.3432427 -0.9739274
000040 c6 4c 23 bc ce 64 c5 3e b0 aa 0a 3f a9 f9 7b be
       -0.009967035 0.3855347 0.541667 -0.24606957
000050 2d 72 08 bc af 8d 5e bc 20 b1 79 bd 00 64 6c b9
       -0.008328003 -0.013583585 -0.060959935 -0.00022543967
000060 f4 88 d2 ba 70 7c c5 3e 98 1d 0b 3f f3 19 7b be
       -0.0016062544 0.385715 0.5434203 -0.24521618
000070 d8 0d 54 bc 3b 1e 3a bc 5d de 80 bd ff 9f f9 39
       -0.012942754 -0.011359747 -0.062924124 0.00047612187
000080 0b 3d 20 3f 18 c9 ca 3e 91 82 14 3f 49 4c 78 be
       0.62593144 0.39606547 0.5801173 -0.2424785
000090 49 de 81 bd 37 bf 10 3e 74 71 1b be ee ac 04 3f
       -0.06341226 0.14135443 -0.15179998 0.5182637
0000a0 96 3b 71 3f c7 22 cb 3e 34 80 14 3f 16 0e 8a be
       0.94231546 0.3967497 0.5800812 -0.26963872
0000b0 da 67 b1 bd 94 aa f0 3e 5d 6b a1 be d4 90 67 3f
       -0.08662386 0.4700514 -0.31527224 0.90455365
0000c0 6f 20 69 3f 08 86 c9 3e 43 20 16 3f 2f b6 86 be
       0.91065115 0.3936007 0.5864298 -0.2631087
0000d0 1e 03 92 bd b9 cd bf 3e f1 d4 88 be 16 d9 5d 3f
       -0.07129501 0.3746164 -0.2672496 0.8665937
0000e0 90 9e 7d 3f 68 eb d2 3e f0 83 0a 3f c7 f3 99 be
       0.9907007 0.41195226 0.5410757 -0.300688
0000f0 b7 25 e4 bd 13 89 3a 3f 67 3b ee be f2 ae 7a 3f
       -0.11140006 0.7286541 -0.46529695 0.97923195
000100 a2 08 1a 3f 13 67 cb 3e 6c 03 12 3f 43 08 78 be
       0.6016942 0.39727077 0.5703647 -0.24221902
000110 59 48 7a bd 26 62 16 3e 9a 20 1c be 62 79 fb 3e
       -0.061104152 0.14685878 -0.15246812 0.49116045
000120 94 2e 06 3b 5f 5f c5 3e a2 2b 0b 3f 18 eb 7a be
       0.002047454 0.38549325 0.54363453 -0.24503744
000130 44 ac 57 bc 5b 29 43 bc 6a 5c 81 bd 73 86 77 3b
       -0.01316363 -0.011911715 -0.06316455 0.0037769347
000140 ba 5d 43 3b 53 6e c5 3e 12 24 0b 3f b1 04 7b be
       0.0029810504 0.38560733 0.54351914 -0.24513508
000150 d7 32 51 bc ae 4f 3f bc b7 40 81 bd ec b8 a0 3b
       -0.012768469 -0.011676712 -0.063111715 0.004904857
000160 16 9b 72 3f bf e3 c8 3e 16 f9 12 3f 93 fd 89 be
       0.9476789 0.39236256 0.57411325 -0.26951274
000170 93 7a 6d bd 4c 90 da 3e 08 8a 95 be ce 5f 6c 3f
       -0.057978224 0.42688215 -0.29206872 0.92333686
000180 36 b5 06 be d1 a9 c3 3e 48 09 0a 3f 3a b0 7c be
       -0.13155064 0.38215497 0.5392041 -0.246766
000190 10 4f 68 bb d7 76 1f bd 79 e1 41 bd 54 3f c1 bd
       -0.0035447516 -0.038931694 -0.047334168 -0.09435907
0001a0 7a c9 a6 ba 48 5e c5 3e 20 21 0b 3f 85 06 7b be
       -0.001272484 0.38548493 0.5434742 -0.24514206
0001b0 35 b5 51 bc 4d 43 4b bc 16 77 80 bd 79 0a af 3a
       -0.012799551 -0.0124061825 -0.06272714 0.0013354562
0001c0 bc 40 25 3f 3d 14 ca 3e b4 ff 14 3f 6d 43 78 be
       0.645519 0.39468566 0.5820267 -0.24244471
0001d0 9b f5 73 bd 2c 6d 08 3e 07 7d 19 be 3a a9 0c 3f
       -0.0595604 0.13322896 -0.149891 0.5494572

hpf_coeffs f4 [1, 1, 2]
000000 9a 99 59 bf 00 00 80 3f
       -0.85 1.0
