pretrained/ht1_gru64_epoch=898-step=830676.ckpt (torch, 171918 bytes, 22 tensors)

model.rec.weight_ih_l0 f4 [192, 1]
000000 1d 1b 96 3e 4e 91 9e 3d 28 09 28 3f 35 c1 99 3f
       0.2931756 0.077425584 0.6563897 1.2012087
000010 de d3 04 c0 5a 27 27 3f 29 27 06 bf fa 89 dc be
       -2.0754313 0.6529442 -0.52403504 -0.43074018
000020 53 f0 8e 3f 51 33 6f be 8f f3 e4 3f dc de 8b bd
       1.1167091 -0.2335942 1.7886828 -0.068296164
000030 d4 ce 1b bf e2 f5 77 bf a9 57 9d 3b 3d f4 70 bf
       -0.6086247 -0.9685956 0.0048017097 -0.9412268
000040 ad a2 83 3e 07 f0 84 40 1d 9a d2 3f 26 b5 aa bf
       0.2571005 4.1543 1.6453282 -1.3336532
000050 da f3 6a be ae 5c aa bf a3 cc 82 be 69 42 b9 bf
       -0.22944584 -1.3309534 -0.2554675 -1.4473392
000060 e6 99 69 3d eb 34 97 be 2b a7 09 bf d5 4f 00 3e
       0.057031535 -0.2953256 -0.53770703 0.12530454
000070 cc 26 e8 be 56 d9 5a c0 82 e0 4c bf f0 cd 71 3f
       -0.453421 -3.4195151 -0.8003007 0.9445486
000080 27 fa 87 3f ad ee e1 be 13 22 f1 be 34 73 1a c0
       1.0623215 -0.44127408 -0.4709631 -2.4132814
000090 00 bc 1e 40 57 7f 81 3f 7f eb ff 3f fb 6f 3d be
       2.4802246 1.0116986 1.9993743 -0.18499748
0000a0 64 2f 48 bd e8 fe 30 bf 7f c5 06 bf f4 be ac bf
       -0.04887332 -0.69138956 -0.52645105 -1.3495774
0000b0 95 95 3d bf c4 61 3b c0 2a 5f dc 3f 4a de ef bf
       -0.7405637 -2.9278421 1.7216542 -1.8739712
0000c0 6f 37 d0 bd 42 a8 5d 40 b2 91 e8 bf fe 89 c7 be
       -0.10166823 3.4633946 -1.8169463 -0.38972467
0000d0 07 30 21 c0 6e 67 fe 40 3d 51 4f 3f 95 3b 59 be
       -2.5185564 7.9501257 0.80983335 -0.21214135
0000e0 28 f0 3b c0 e1 27 6e 3f c6 77 fd be 0c cb 7f 3f
       -2.936533 0.930296 -0.49505442 0.999192
0000f0 fc ba be 3e d7 2f b3 be 54 3d 1e c0 e5 97 4d c0
       0.37252033 -0.34997436 -2.4724932 -3.212396
000100 78 83 83 40 e9 07 24 3f e3 be 2b 40 e6 07 b8 bf
       4.1097984 0.6407457 2.6835258 -1.437741
000110 0d ff 39 3d 3b 7d 70 3f d2 76 9f be b5 15 6b 3e
       0.04540925 0.93941087 -0.3114534 0.229575
000120 8b 02 bd 3f e8 d3 08 3f ef 70 b6 3f 9e 25 23 3f
       1.4766401 0.53448343 1.4253215 0.63729274
000130 8b 76 5e 3e 02 1b bb 3e 3e 73 28 be fa d6 bc 3f
       0.21724908 0.36544043 -0.16450211 1.4753106
000140 75 f5 e8 be 86 ba 8b bd b3 db ed 3f 86 6e 21 40
       -0.4549977 -0.06822686 1.8582672 2.5223708
000150 fe 8b 82 3e 5e 28 d3 bf a9 d2 e5 3e 13 96 30 c0
       0.2549743 -1.6496694 0.44887283 -2.7591598
000160 70 89 5f c0 3f f3 f5 3e 95 e8 9b 3d 5c c2 98 3e
       -3.4927635 0.48037145 0.07612721 0.29835784
000170 87 18 c6 3e 94 3a 4a bf 13 57 41 3d 62 ab 1b 3f
       0.38690588 -0.78995633 0.04720218 0.60808384
000180 ff bf 02 3f bb 80 ef 3e 11 90 62 bb 6f 69 9d 3f
       0.5107421 0.467779 -0.0034570734 1.2297801
000190 4f 3f 56 bf be 9b 94 40 44 e9 6e 3f 10 4a 6a 3d
       -0.8369035 4.6440115 0.93324685 0.057199538
0001a0 50 04 80 3e 9c 2b 48 3f e8 9e 6c 3f ce d0 3b 3f
       0.2500329 0.7819154 0.9242997 0.73365486
0001b0 bf 11 18 40 fd 08 2b 40 06 b6 1a c0 74 c8 e1 be
       2.3760831 2.6724236 -2.4173598 -0.44098246
0001c0 b3 8e 07 bc f1 82 27 3f d6 66 8a be fd bb df 3e
       -0.008273768 0.65434176 -0.27031583 0.4369811
0001d0 05 8d 90 40 1b c6 5f 3f fb c7 ba bf ad 06 9f be
       4.5172143 0.8741166 -1.4592279 -0.3105978
0001e0 ee 76 8e 3f 85 8f 01 40 38 c3 29 3f 75 49 48 40
       1.1130044 2.0243847 0.66313505 3.1294835
0001f0 22 9b 12 40 91 10 c1 c0 d2 88 29 c0 64 10 6c c0
       2.2907186 -6.0332723 -2.6489758 -3.6885004
000200 11 a7 4d 3e 43 b2 09 bf 96 15 33 c0 fc 67 0d bd
       0.20083262 -0.5378763 -2.7981925 -0.034522995
000210 a3 82 20 c0 58 50 39 40 17 ec 93 bd ef 0e 01 3e
       -2.5079734 2.8955288 -0.07222765 0.12603353
000220 7f 57 4d bf f1 bc 09 3f 49 e0 d9 40 7a b6 c8 be
       -0.80211633 0.53803927 6.8086286 -0.3920172
000230 5e 7c 24 bf 86 ad 66 3f d2 92 59 3e e8 56 95 3e
       -0.6425227 0.90108526 0.21247414 0.29167867
000240 84 af 89 c0 af 40 9c c0 67 97 22 be b1 b0 c4 3e
       -4.3026752 -4.882896 -0.15878068 0.38416055
000250 fa 10 29 bf db 49 d5 bf cb bd 2d 3f ae 42 89 bf
       -0.6604153 -1.6663164 0.67867726 -1.0723474
000260 ca 3a a5 bf ec f6 8f be 6e c7 18 3f dc 06 58 3f
       -1.2908566 -0.28118074 0.59679306 0.84385467
000270 38 ec 39 be 5a 76 6c c0 bf b4 53 bf e4 21 3a bf
       -0.18156517 -3.6947236 -0.8269767 -0.72707963
000280 8b 59 c8 3f b3 ef 55 bf 37 6a 76 be 21 67 55 3f
       1.5652326 -0.83568877 -0.24063955 0.8336049
000290 0f 92 0a bf a5 7a 85 be 75 3f 27 bf 18 57 5c 3f
       -0.5412912 -0.26070133 -0.653312 0.86070395
0002a0 5c 60 46 bf 4f 5c 47 3d b2 40 8c be 5d c5 5e bf
       -0.7749078 0.048672017 -0.2739311 -0.870199
0002b0 91 5a 69 be 31 8d 8c be 4a 03 bb bf 49 7a b2 3f
       -0.22788455 -0.2745147 -1.4610379 1.3943568
0002c0 e7 d9 17 be 9f 5b 8b be 35 78 e1 3f b5 10 66 c0
       -0.14829217 -0.2721834 1.7614809 -3.5947697
0002d0 15 10 78 3e e3 24 c1 40 f4 28 52 40 ea 49 b3 3e
       0.24224885 6.035753 3.2837496 0.3501733
0002e0 cc 0f 83 40 a3 62 36 3e 76 32 2d 3f 1d 81 33 bf
       4.0956783 0.17811064 0.6765512 -0.70118886
0002f0 82 36 2c c1 61 c6 67 3e 40 a4 b6 bb 4e d6 82 3d
       -10.763308 0.2263427 -0.0055737793 0.063885316

model.rec.weight_hh_l0 f4 [192, 64]
000000 37 d3 15 3e b3 c6 3a 3f 1c 2b a1 3f 30 e4 42 3f
       0.14631353 0.7295944 1.2591281 0.76129436
000010 e7 42 fb 3e ef 48 5d 3e 86 7e 38 bf a8 2d 35 bf
       0.4907448 0.21609853 -0.7206806 -0.7077279
000020 5b f1 7a bf 85 b0 c3 3d d7 e2 b3 be ce 11 37 40
       -0.9802453 0.09555153 -0.35134003 2.8604617
000030 2a d9 45 3f 78 06 00 3f df 19 49 3f 72 f1 39 3d
       0.7728449 0.5000987 0.785551 0.045396276
000040 ef 33 08 40 8e 21 33 3f 46 b8 d8 be 80 85 51 3f
       2.1281698 0.69973075 -0.4232809 0.8184433
000050 6b 3f 3c 3e 8e 6c 97 3f 16 52 b1 3e 73 47 2e 3f
       0.18383567 1.1830003 0.3463294 0.6807777
000060 dc 9c 88 3f d5 29 9d 3d 07 2a f4 3f 15 4f 0a bf
       1.067287 0.076739945 1.9075326 -0.5402692
000070 35 46 fe 3e a7 64 6d 3e ea 92 75 bf c6 15 48 3e
       0.4966294 0.23182927 -0.959273 0.19539556
000080 1a 1a c2 be 58 6f 52 3f 31 44 b3 3b 98 61 06 3f
       -0.3791054 0.8220115 0.0054707755 0.52492666
000090 a1 92 20 3e 51 8c 79 3e 8a 88 73 c0 1f 2f 9f be
       0.15680934 0.24369933 -3.8052087 -0.31090638
0000a0 f6 ee f4 bd 19 3b d4 3e 38 fd 47 be c9 8f 1e 3f
       -0.11959641 0.41451338 -0.19530189 0.6193815
0000b0 4b 87 49 3f 83 51 13 3f c6 9f 72 3f c3 3a 3e bf
       0.78722066 0.5754625 0.94775045 -0.74308413
0000c0 d4 e5 0d bf 6f 81 b5 3e 3c c4 fa bd bb 53 d6 3d
       -0.55428815 0.35450312 -0.1224446 0.10465189
0000d0 fb 9f d0 3e 93 95 9e 3e fc f4 05 bf 50 10 57 bf
       0.40747055 0.3097349 -0.5232694 -0.84009266
0000e0 a2 93 c1 bf 32 8e 4d bd 8d 2d 65 be e6 06 5e be
       -1.5123179 -0.050184436 -0.22380657 -0.21682319
0000f0 e7 ba 28 bf 09 74 54 c0 da 72 0d bf 02 38 92 3f
       -0.6591019 -3.3195822 -0.55253375 1.1423342
000100 78 12 55 3d a8 4b eb be 6e 49 2a bf 69 15 fd 3d
       0.052019566 -0.4595616 -0.66518295 0.12357599
000110 88 28 5c bd b4 93 72 be 31 da 87 bd 60 0b d7 3e
       -0.05374959 -0.23689157 -0.066334136 0.42000866
000120 2e 5d 75 bd b8 50 66 3e 4a c8 7e 3f b9 3d ed be
       -0.059903316 0.2249173 0.99524367 -0.46336153
000130 b0 12 9f bd 91 23 4e bc 2e bb 43 3e ed b7 23 bf
       -0.07767236 -0.012581722 0.19114372 -0.63952523
000140 2b 08 81 bf da f3 0d 3f 60 08 ef be ac 22 f4 bd
       -1.0080618 0.5545021 -0.46686077 -0.11920676
000150 3b ae 81 3e 8c 20 75 bf b3 39 88 3e 6d 0c 97 bc
       0.2532824 -0.9575279 0.2660652 -0.018438542
000160 9a cf 10 bf 7e d5 85 be 9c b2 8c be 63 76 87 3e
       -0.56566775 -0.26139444 -0.27480018 0.2645751
000170 09 76 a3 be 1b 5f f6 3d 7e 52 6a bd 0d 31 e3 bd
       -0.3192599 0.12029859 -0.057207577 -0.1109334
000180 9b 2f 41 be a8 f3 0b 3b 59 63 5d 3e a0 3a f1 3e
       -0.18865816 0.0021354947 0.2161993 0.4711504
000190 b3 97 4e 3e bb 68 41 bd 83 f2 17 3e 8b fc ce 3e
       0.20175056 -0.04721902 0.14838605 0.4042705
0001a0 ca 41 a3 3d 8a 6f 83 3e a6 d9 97 3f 47 5f 89 be
       0.07971533 0.25671035 1.1863296 -0.26830503
0001b0 9b 2b 6a bf 06 c0 47 be 7f 9a 75 bf 33 24 15 bd
       -0.91472787 -0.19506845 -0.9593887 -0.036411475
0001c0 96 6c f6 3e 15 c8 2f 3f 4c 34 76 be 0c 25 c9 be
       0.4812972 0.68664676 -0.24043387 -0.39286077
0001d0 2e 25 90 be 37 bd 6c 3e 47 80 68 3f 1b df 52 3e
       -0.28153366 0.23119055 0.90820736 0.2059292
0001e0 eb cc db 3f 9a 87 83 3e 06 0f 12 3e f9 26 4a bf
       1.7171911 0.25689393 0.14263543 -0.7896572
0001f0 19 90 91 bf a4 b8 95 3f 33 c2 f0 3e c6 03 89 be
       -1.13721 1.1696973 0.47023162 -0.2676069
000200 2b 56 e0 3b 2f 9b 8b 3d 49 a2 9e 3d 70 c1 49 bd
       0.0068462095 0.06816708 0.07745797 -0.049256742
000210 fd ca 0d 3f f2 c7 3e be 69 6c 08 bf d0 27 58 3d
       0.5538786 -0.1863096 -0.5329042 0.052772343
000220 28 a8 06 bf a3 f4 21 3f f0 b1 95 3d dc 8c 31 3e
       -0.52600336 0.6326391 0.073093295 0.1733889
000230 ae 2f 06 3e c2 ad 87 3e ee 37 0e bf f8 1d 75 3e
       0.13104126 0.26499754 -0.5555409 0.23937213
000240 88 25 25 be 71 05 8a bc b9 59 27 be a7 6c 95 bc
       -0.16127598 -0.016848298 -0.1634282 -0.018240286
000250 57 0e 59 3e e8 57 54 3f 01 72 1e bf d0 51 0d bf
       0.21196876 0.82946634 -0.61892706 -0.5520296
000260 8e 8e 97 bc b0 60 1c 3e 9a a8 70 3e 10 5e ba 3e
       -0.018500593 0.15271258 0.23501816 0.3639989
000270 a0 e5 49 3f a8 b8 2c 3e ff 84 e9 be 31 31 39 3d
       0.78866005 0.16867316 -0.4560928 0.04521293
000280 80 c6 85 bd b5 40 34 be 28 a8 4c 3f e6 ea 52 be
       -0.065320015 -0.17602809 0.79944086 -0.20597419
000290 1a f8 89 3e 61 ec 31 bd 6a 3b 0d bf 8e cd 08 3e
       0.269471 -0.04343832 -0.55168784 0.13359663
0002a0 37 03 97 3e d0 f4 61 be 25 27 54 3e cd 2a 6b 3e
       0.2949464 -0.22066045 0.20718057 0.22965546
0002b0 fd 9f 48 be ee 36 e4 bb a2 73 f8 bd 05 7e 4d be
       -0.1959228 -0.006964556 -0.1213143 -0.20067604
0002c0 7a 7d 14 3f bd 8c cc be d3 16 38 3e bc 04 83 3e
       0.5800396 -0.39951125 0.17977457 0.2558955
0002d0 4d 6c 68 be 31 d4 24 bc 27 1f 0b be c3 b5 3d 3e
       -0.22697563 -0.010060356 -0.13586102 0.18526368
0002e0 1d 3a b5 3d 17 e5 b8 3e 53 1c 8a be d3 2b b0 be
       0.08848975 0.36112282 -0.26974735 -0.34408435
0002f0 5c 2f 65 3d 40 3c f4 be c3 b3 5b be 41 4b 7b bd
       0.05595337 -0.47702217 -0.21455292 -0.061351065
000300 07 86 a6 3f 54 3e 5f 3f 2f 10 77 3f 4a cc d9 be
       1.3009652 0.8720448 0.9650907 -0.42538673
000310 44 24 93 bf a0 5d 28 bf 1e 81 d6 be 23 91 88 3e
       -1.1495442 -0.6576786 -0.41895384 0.2667323
000320 a3 f2 1d c0 3e 54 82 3e df 0e 84 bf cf 27 28 40
       -2.4679344 0.25454897 -1.0317038 2.6274297
000330 07 62 d4 3d 5e 88 0f bf 23 e6 ce 3e bd 35 6e 3f
       0.1037026 -0.56067455 0.40409955 0.9305075
000340 be 7b af bf 58 25 9b 3f 9a fb 90 bf 8a ae fd be
       -1.3709638 1.2120771 -1.1326783 -0.49547225
000350 4c fb aa 3e be 9e 96 3e f1 55 4a 3f 0c e5 b4 3e
       0.3339485 0.29417986 0.79037386 0.35331
000360 41 99 29 3f c3 39 33 be af c5 0e 3f 6b 05 c2 bf
       0.6624947 -0.17502503 0.5577039 -1.5157903
000370 cd c0 5e 3c 90 fe 55 40 92 72 cf bb 15 cd 06 bf
       0.013595772 3.3436623 -0.0063307965 -0.5265668
000380 39 c4 54 3e 4a b7 22 3f be 4d a2 bf 35 cc f4 3e
       0.20777978 0.63560927 -1.2679975 0.47812048
000390 72 9d 92 be d1 b0 ac bf 0a a3 93 3f 69 1f 3d 3e
       -0.28635746 -1.349146 1.153413 0.18469013
0003a0 01 93 13 be c1 f3 67 3e 9a d8 91 3f 5b 9e 4e be
       -0.14411546 0.22651578 1.1394227 -0.20177595
0003b0 fd e8 20 bf 77 a1 38 3e bd 7a d5 3f bf 9f 0d bd
       -0.6285551 0.18030344 1.6678082 -0.034576174
0003c0 9b a6 f0 3c 27 7b 8c bf d8 15 36 3e 98 06 4d bf
       0.029376319 -1.0975083 0.1778177 -0.80088186
0003d0 62 bc 5c be c0 1e c3 bd 26 c2 cc be b5 e5 78 be
       -0.21556237 -0.095273495 -0.39991874 -0.24306376
0003e0 3f 7d f1 3d de 4b 93 bf c2 86 bd be c9 e1 55 40
       0.11791467 -1.1507528 -0.37016875 3.3419058
0003f0 47 cf 36 bf ec 4e 08 c0 5f 6e 25 3f ad e8 75 bf
       -0.7141003 -2.129817 0.6462154 -0.9605816

model.rec.bias_ih_l0 f4 [192]
000000 2c bd a6 3d a3 f8 03 be 44 e6 5f 3e 1c 61 d1 be
       0.081415504 -0.12887816 0.21865183 -0.408944
000010 e8 c6 01 be 72 09 2f bf 06 eb 99 bd 8b 69 af be
       -0.12673533 -0.6837379 -0.0751553 -0.3426021
000020 3d 45 0a bd fa 3a ed 3d 81 f3 16 3f 65 62 84 be
       -0.033757437 0.115835145 0.5896531 -0.2585632
000030 93 24 6c 3c 7a 56 9c bd 04 ab a1 3e dc cf cc be
       0.014413017 -0.076336816 0.31575787 -0.40002334
000040 70 96 10 3f 85 f4 7e be 2f 0b 2e 3f f6 c6 22 be
       0.5647955 -0.24897964 0.67985815 -0.1589621
000050 d5 d8 52 3d 06 5e f3 3c 3d 05 97 3e 1d 45 65 be
       0.05147632 0.02970792 0.29496184 -0.22389646
000060 ee 9d 54 be ca be 1f 3e c5 f9 22 bd 4d e0 f1 3d
       -0.2076337 0.15600124 -0.03978898 0.1181036
000070 b9 96 66 3e 61 46 cd 3e 28 b9 a1 be 32 4f b2 3e
       0.22518434 0.40092757 -0.31586576 0.34826046
000080 7d 10 67 3d 22 eb 17 3e 2d 00 33 be fa b3 ad 3e
       0.05641221 0.1483579 -0.17480536 0.33926374
000090 b6 53 01 3e aa c5 1d be 5d 06 ee be cc 3d 75 bd
       0.1262959 -0.15407434 -0.4648923 -0.059873387
0000a0 5d 8c 5f bd e5 e0 de 3d 0b 9c a0 bd 9e 71 9a be
       -0.05457722 0.10882739 -0.07842263 -0.30164808
0000b0 5c 11 56 3e dd 3c 99 be fe 62 3c be 46 5b 14 3e
       0.2090506 -0.29929247 -0.18397138 0.14487943
0000c0 ce 8c a3 3c cf 24 aa bd 7e f9 ad 3c 91 2c 5a be
       0.019964602 -0.08307802 0.021237131 -0.21306063
0000d0 54 1e 5b be 7a 69 14 bf 3d f0 31 bc 7c 27 a4 be
       -0.21398288 -0.57973444 -0.0108605 -0.32061374
0000e0 c2 88 64 3e 03 8b cc 3e da 70 29 be 67 ef c2 3d
       0.22317794 0.39949808 -0.16546956 0.095183186
0000f0 b0 05 1e 3f bb bf 80 be fa 35 cf bd 81 ac 1e bf
       0.6172743 -0.2514628 -0.10117717 -0.6198197
000100 5a df 13 bf 16 bd 2b 3d d7 ea bb be 3c 76 56 bd
       -0.5776268 0.041928373 -0.36702606 -0.05235885
000110 bc 4e c8 be 19 ff 9e 3e 6f c2 75 3f c7 03 07 3e
       -0.3912257 0.31054 0.9599981 0.13185035
000120 e8 ee 45 3e f3 84 7e 3f 45 0c 0c bf 70 ec 39 3f
       0.19329417 0.99421614 -0.5470622 0.726264
000130 02 48 40 3f 86 4b 33 3f 4d 98 5f 3f 7a f7 04 3e
       0.75109875 0.70037115 0.8734177 0.1298503
000140 f9 34 7c bf 31 9a 12 bf 13 58 a6 3e c0 92 6b be
       -0.9851833 -0.5726653 0.3248907 -0.230052
000150 6c fa 17 3f b8 5c c0 bc 32 da 87 3f 34 cc 16 3c
       0.5936649 -0.023481712 1.0613463 0.009203959
000160 fb b7 f4 bd db 2e d5 3d de f2 07 3f f5 d0 c6 3d
       -0.11949154 0.104093276 0.5310496 0.09707824
000170 f8 05 85 3f 39 08 75 bf 84 eb 26 3f 1d 2b 35 3f
       1.0392447 -0.9571567 0.6520312 0.7076891
000180 85 95 85 3e 62 48 7d bf 05 dd 97 3f 6a 07 60 bf
       0.26090637 -0.9893857 1.1864325 -0.8751131
000190 9d fc 3d bf 15 e4 3e bf 3d a7 5b be 7c 63 62 3f
       -0.7421358 -0.74566776 -0.21450515 0.8843305
0001a0 51 ea 4a 3f f9 a7 d9 3d ff f2 fe 3d 83 0e 29 3e
       0.7926379 0.10627741 0.124486916 0.16509442
0001b0 61 7a c0 be 12 ff e6 bd f8 9c f5 be 69 cc 1e 3d
       -0.37593368 -0.112791196 -0.4797132 0.03876916
0001c0 b2 59 18 3e c8 b5 e2 3b 6a 67 8a bf 3a db 70 3e
       0.14877966 0.0069186427 -1.081281 0.23521128
0001d0 52 fb 48 bd 47 86 bb bc a4 72 37 be bf 54 dc 3e
       -0.049067803 -0.022891177 -0.17914826 0.43033406
0001e0 fd 86 ac be 7b 4e b5 be 9a 01 4c 3f a9 23 55 bc
       -0.33696738 -0.35411438 0.79689944 -0.01300899
0001f0 37 72 0b bf c4 cc af 3d 1b d3 f6 3b 42 a9 20 3f
       -0.54471153 0.08583978 0.00753249 0.62758267
000200 6b ed b0 3e ce de a4 be ae 82 0a 3f 54 7f 09 be
       0.34556136 -0.32201236 0.5410565 -0.13427478
000210 c9 5f f5 3e 66 0e 94 be ba 15 07 bd ec ec ef bb
       0.4792464 -0.28917235 -0.032979704 -0.0073219445
000220 e0 0a 32 bd 3a 6b 34 3d a2 65 68 bf 4a a7 b2 be
       -0.043467402 0.04404757 -0.9078008 -0.34893256
000230 5b a3 9e bd 96 4a 62 be d2 b1 19 3e 9b 17 86 be
       -0.07746001 -0.22098765 0.1500924 -0.26189885
000240 cf a7 a9 3d f4 d0 94 3f e1 4d 6e be 81 c5 20 3d
       0.0828396 1.1626267 -0.23271896 0.039250854
000250 dd 39 f1 3d 59 f9 0b 3e 4a 76 d7 bc ef 1e 1f 3c
       0.11778615 0.13669337 -0.026301522 0.009711965
000260 f9 2a 26 3f 42 d3 14 3e 29 56 35 3c 92 49 f4 3e
       0.6490932 0.14533713 0.011067905 0.4771238
000270 0b 14 10 be 6c 3e 84 be d0 7f 22 be 84 dc 13 3e
       -0.14070146 -0.25828874 -0.15869069 0.14439589
000280 e8 bf 68 3e 31 2c 9c 3e 37 3b b4 3d 16 dd da be
       0.22729456 0.30502465 0.08800357 -0.427468
000290 2e 18 88 be fe dc 2d bd 89 d9 78 3e 38 14 fb 3e
       -0.26580948 -0.042447083 0.24301733 0.49038863
0002a0 c7 74 67 3e c9 a3 8f be 0b 0b a6 be 9b a1 b4 3e
       0.22603141 -0.28054646 -0.324303 0.35279545
0002b0 89 f0 a9 be ae 4d cf 3d db 1b b2 3e 9b 78 9e bd
       -0.33191326 0.10122238 0.34786877 -0.077378474
0002c0 75 2d d1 bd fb 15 41 3d 38 d4 d7 be 7a b8 81 3e
       -0.10213748 0.047140103 -0.42154098 0.25336057
0002d0 39 72 b5 3a 68 61 ba bf f4 08 f4 be 53 85 fa 3e
       0.0013843245 -1.4560976 -0.4766308 0.48929843
0002e0 2f 2a bb 3e 24 e8 3c 3e 62 e0 96 be 67 f2 8e 3b
       0.3655562 0.1844793 -0.29468066 0.0043623927
0002f0 8d 10 81 3f dd c8 71 bd 96 30 c4 bd ee 43 11 be
       1.0083176 -0.05902945 -0.095795795 -0.1418607

model.rec.bias_hh_l0 f4 [192]
000000 c9 4a 08 3e 43 bc 9c be 84 69 ba 3e 48 8f ad be
       0.13309778 -0.30612382 0.36408627 -0.33898377
000010 8b 00 86 3d ea 1f fd be 68 ca bf 3b 1b e2 ad be
       0.06543072 -0.4943841 0.005852986 -0.33961567
000020 6d f0 a1 3c 70 1e b9 bd e4 43 16 3f 28 40 80 bc
       0.019767964 -0.090390086 0.5869734 -0.015655592
000030 11 33 a0 bc 49 b7 35 be 9a 4a 5d 3e 92 58 c9 be
       -0.0195556 -0.17745699 0.2161049 -0.39325386
000040 e7 a1 1b 3f 5f e0 a5 be 98 6d 2e 3f 0e 23 49 bd
       0.6079392 -0.32397744 0.68135977 -0.049105696
000050 04 96 00 bd 72 5b 0e be d9 fa a2 3e 97 ae e3 be
       -0.031393066 -0.13902071 0.31832007 -0.4446914
000060 c9 17 f0 bc 8b 65 12 3b 93 fe 2d 3e ba 9a 84 3e
       -0.029308217 0.0022338356 0.16991644 0.25899297
000070 f5 6b 4c 3e 3b dc bf 3e b6 a7 0a be 5a 12 a8 3e
       0.19963057 0.3747271 -0.13540539 0.328265
000080 7d b4 40 be 2b 1e 96 3e 1f 4d 52 3d 1d ca a5 3e
       -0.18818851 0.2931989 0.05134308 0.32380763
000090 79 7c 9c bd 76 18 da bd f1 81 d3 be dc 6e f8 bb
       -0.07640929 -0.10649197 -0.41310075 -0.007581575
0000a0 1c 3e 42 be 6c af ee 3d 10 62 2c 3c 46 ce 90 be
       -0.18969005 0.11654553 0.010521427 -0.28282374
0000b0 b9 3a 22 3e d5 28 fe be bd 8a 87 be ad 5d 57 3e
       0.15842713 -0.49640527 -0.26473036 0.21031828
0000c0 d3 95 2e 3d 4f 32 02 3d cf c4 96 bd 63 97 31 be
       0.042623352 0.03178626 -0.07361757 -0.17342906
0000d0 de 4b 25 bd a6 10 22 bf dd a5 64 3d 12 d2 05 be
       -0.040355556 -0.63306653 0.055822242 -0.13068417
0000e0 4c d3 48 3e d1 cc 30 3e d5 2f 16 be 2f b9 49 bc
       0.19611853 0.17265631 -0.14666684 -0.012312218
0000f0 23 82 24 3f 7e 6d ba bd d2 22 2b be da 35 cf be
       0.6426107 -0.09102915 -0.16712502 -0.40470773
000100 a6 db 4c bf e2 ec 87 3e 76 08 c7 be 70 31 47 bd
       -0.80022657 0.26547915 -0.38873643 -0.04863113
000110 14 01 57 be 1a 6f 40 3e 39 c1 78 3f fb 45 09 3e
       -0.20996505 0.18792382 0.97169834 0.13405602
000120 ec 72 63 3e 9e 44 7c 3f 3e 7d d9 be cd 53 3d 3f
       0.22211808 0.985422 -0.42478365 0.73955995
000130 d0 6d 51 3f 76 0b 36 3f 3e 2e 3b 3f d0 b4 67 3e
       0.81808186 0.7111124 0.73117435 0.22627568
000140 9e aa 63 bf d5 4f 01 bf f8 cb 37 3e ae 4b 9a be
       -0.88932216 -0.5051244 0.17948902 -0.30135864
000150 86 d9 40 3f 77 39 c4 bc d0 a0 6a 3f 59 ff 18 be
       0.75331914 -0.023953183 0.9165163 -0.14941157
000160 60 8e b8 bd d2 18 e5 3d 4b 2d 2f 3f d3 d7 6e 3e
       -0.09011531 0.11186375 0.68428487 0.23324518
000170 be ec 8b 3f 3f 8a 7f bf 52 65 49 3f cd bc 51 3f
       1.0931623 -0.9982032 0.7867023 0.8192871
000180 b0 cf 98 3e 1e 88 8e bf 05 c2 9f 3f 72 82 4d bf
       0.29845953 -1.113529 1.2481085 -0.8027717
000190 09 56 18 bf a6 b0 10 bf 60 44 11 be 20 9f 60 3f
       -0.5950628 -0.56519544 -0.14186239 0.87742805
0001a0 42 68 4a 3f 3c 5f 93 bc c0 08 da bc dd b9 82 bd
       0.79065335 -0.017989747 -0.0266155 -0.06383107
0001b0 46 35 c4 be fd 8a 22 bd a4 23 e8 be f4 64 05 be
       -0.38321894 -0.03968333 -0.45339692 -0.13026792
0001c0 93 e4 85 3e 4b ec 33 3e 0a b9 7e bf d8 64 0b 3c
       0.2615095 0.17570607 -0.995011 0.00850793
0001d0 79 c2 02 3d a9 60 37 be 90 26 10 be ad 03 e0 3e
       0.031923745 -0.17907967 -0.1407721 0.43752804
0001e0 01 18 b5 be d4 36 01 bf 27 ae 45 3f f9 eb b4 bc
       -0.35369876 -0.50474286 0.7721886 -0.022085177
0001f0 e1 6e 17 bf 64 88 49 3b f0 56 12 3a 64 05 00 3f
       -0.5915356 0.003075146 0.00055824127 0.50008225
000200 5e 46 b5 3e 27 e9 e4 bd 61 a8 31 3f 40 10 5d be
       0.35405248 -0.11177283 0.6939755 -0.2158823
000210 84 98 37 3f b7 81 12 bf 56 ab 15 be e5 6d de 3d
       0.71717095 -0.5722918 -0.1461614 0.108608045
000220 d6 82 0e bf 20 5c e0 3e a9 16 37 bf cf fe d1 be
       -0.5566839 0.43820286 -0.7151895 -0.41014716
000230 dc 16 ea 3c 73 fc 30 3e 3d cc 49 3d b7 9a 8b 3e
       0.028575353 0.17283802 0.049267042 0.27266476
000240 6e 83 65 3e a6 d1 36 3f e5 25 00 bd 40 30 94 be
       0.22413418 0.7141365 -0.03128614 -0.28943062
000250 bc 1c 76 3c 8a 4d 88 3e f0 9f c1 3d ad b1 5a 3e
       0.015021499 0.26621658 0.09454334 0.2135684
000260 e6 b5 f9 3e a0 23 05 3f 39 e5 15 3d 2e 4c e0 3e
       0.4877159 0.52007484 0.036595557 0.4380812
000270 6c 1f 95 3d d9 87 b6 3e 5e 53 83 be 63 80 54 be
       0.07281384 0.3565052 -0.25649542 -0.207521
000280 7e 74 55 3e 3f 7a 4e 3c 84 25 53 3e df 08 06 3e
       0.2084522 0.012602388 0.2061978 0.13089322
000290 53 0d eb bd 02 b8 0b be f0 e3 3a bd 83 e1 18 3e
       -0.11477151 -0.13644412 -0.045627534 0.14929776
0002a0 80 35 0a 3e 36 95 ff be bf f7 83 be 4d 3f e3 3e
       0.13496971 -0.49918526 -0.25774953 0.44384232
0002b0 04 c0 b1 be 0b 2c 47 3e 36 77 4e 3e 17 72 36 bf
       -0.3471681 0.19450395 0.20162663 -0.7126784
0002c0 be 13 ce 39 ab 6a db bd 73 23 52 bf 5b 93 29 3f
       0.0003930609 -0.10713705 -0.8208534 0.6624047
0002d0 85 0a 0c 3e cf 0e 1c bf 4e 9b 20 bf af 95 9f 3e
       0.13675888 -0.60960096 -0.62736976 0.31168887
0002e0 eb 27 d2 bd fa 14 a1 3e 0e 59 80 be 85 cb 83 be
       -0.1026152 0.31461316 -0.25067943 -0.2574121
0002f0 d8 ce 70 3f 33 7c 2d bd ce 33 e5 be b4 b5 ef bd
       0.9406562 -0.042354774 -0.44766086 -0.11704579

model.linear.weight f4 [1, 64]
000000 84 4a 03 bf 0c 83 e5 3d 76 cd 7a 3e b6 44 0c bf
       -0.51285577 0.11206636 0.2449244 -0.54792345
000010 db e0 96 3d f7 76 08 be 24 93 ad 3d 23 09 10 be
       0.073671065 -0.13326631 0.084753305 -0.14065985
000020 cf 3f 39 bd 98 68 f3 bc e5 49 83 3e a9 0b b6 be
       -0.04522687 -0.02971296 0.25642315 -0.3555577
000030 1e db 34 3e 38 76 21 3e e0 53 c1 be de 83 76 be
       0.17661712 0.15767753 -0.37759304 -0.24073741
000040 25 69 89 3e d2 7b fd 3c 42 ca 87 be ab fb 8c be
       0.2683803 0.030942831 -0.26521498 -0.27535757
000050 b1 2c eb bc a9 6e 9a be 3f 47 07 bf 26 3b 12 3f
       -0.028707834 -0.30162552 -0.5284309 0.57121503
000060 ef ef 82 bc 3f 62 2e 3e 82 e3 b5 bd 1f 64 01 be
       -0.01598355 0.17029665 -0.08881284 -0.1263585
000070 6e e5 20 3e 1a b6 b3 3c a2 8e 83 3e cb 57 c4 3b
       0.1571252 0.021937419 0.25694758 0.005991911
000080 ff 7e 14 be 0e 77 6c bd 6e 98 ae bd f9 0a da be
       -0.1450157 -0.057730727 -0.085251674 -0.42586496
000090 15 d5 f6 3e 3f f9 df 3e 21 ad 95 be 87 2b e7 3e
       0.48209444 0.43744847 -0.2923365 0.45150396
0000a0 db 1a b6 3d 18 f1 8a be 07 94 ac 3c c7 90 96 bd
       0.08891841 -0.27137065 0.021066679 -0.07351833
0000b0 ca be 38 be dd 08 77 3c fb 93 4c 3e 28 77 93 bd
       -0.1804153 0.015077797 0.19978325 -0.072004616
0000c0 72 f1 a7 3c dd a2 bf 3e f5 e9 d8 3c 2f 5a bd bd
       0.020500872 0.37428942 0.026478747 -0.09245717
0000d0 d4 0d 63 bf 20 e1 6e 3d 4f 78 d1 3c 48 96 29 3e
       -0.88692975 0.058320165 0.025570063 0.16561234
0000e0 37 9b 41 bc 47 8c 9d be cb 9f 92 3b 99 44 6c be
       -0.011816791 -0.30771086 0.004474615 -0.23073043
0000f0 5f 11 a1 3b 7d e6 12 bf 36 c6 f5 be 34 85 37 bf
       0.004915401 -0.5738295 -0.48002785 -0.71687627

exp_avg f4 [192, 1]
000000 2c fe e5 b5 0b a8 dd 38 96 38 60 37 66 e3 e4 38
       -1.7135803e-06 0.00010569402 1.3364615e-05 0.000109142435
000010 0f a0 a7 39 bb c7 b9 b7 d9 69 37 38 89 aa a4 b8
       0.00031971975 -2.2146725e-05 4.372918e-05 -7.851894e-05
000020 c8 6c ed b9 78 17 2c 39 17 e0 25 b5 74 44 dc 39
       -0.0004528521 0.00016411941 -6.1793384e-07 0.00042012671
000030 9d 02 8e b7 71 6d 12 3a 15 e7 44 b6 b3 9a 34 37
       -1.6928936e-05 0.0005585766 -2.9340783e-06 1.0764855e-05
000040 fc 3c 2d 37 e8 95 67 38 49 78 04 b7 eb fe 3d b6
       1.0325803e-05 5.5214303e-05 -7.895819e-06 -2.8311576e-06
000050 56 85 91 39 90 1a 9c 38 93 77 cc 34 7d 1d e8 37
       0.00027755898 7.443607e-05 3.8084963e-07 2.7670287e-05
000060 de e5 63 39 47 e5 b2 37 14 46 a4 37 95 81 be 38
       0.00021734039 2.132602e-05 1.9582956e-05 9.0840425e-05
000070 a7 8b ad 37 8e 69 79 39 66 c2 15 3a 08 2d 3b b6
       2.0688238e-05 0.00023785813 0.00057128666 -2.7891383e-06
000080 2d 16 92 b9 6b ff 37 38 72 7b 01 38 96 13 83 36
       -0.00027863812 4.3868476e-05 3.0870964e-05 3.9063843e-06
000090 40 60 b6 37 48 df 50 b8 f4 68 6e b9 ad 24 2a 39
       2.174091e-05 -4.979901e-05 -0.00022736547 0.00016226126
0000a0 a8 8a 95 39 71 3f 65 38 d3 5e fa 38 d2 19 e3 39
       0.00028522802 5.465694e-05 0.00011938591 0.00043316052
0000b0 60 4a 81 b8 2f 6a aa b8 0a 7e ca 38 a3 8d f7 37
       -6.165053e-05 -8.12601e-05 9.655587e-05 2.951065e-05
0000c0 77 b9 79 38 d1 9d 6b b7 a5 20 e3 38 8a 1d 85 39
       5.9538954e-05 -1.4043836e-05 0.00010830284 0.00025389745
0000d0 49 8a da 38 de 2a e3 b8 3c 05 1d 39 f8 cb a3 38
       0.00010420808 -0.00010832188 0.00014974637 7.810438e-05
0000e0 db af 0a 38 e4 46 81 b9 f5 9e 17 39 57 81 f3 b8
       3.3065542e-05 -0.00024657615 0.00014459698 -0.000116112344
0000f0 91 a2 8f 37 88 b2 25 38 bc b5 a2 b8 9b 78 a5 35
       1.712263e-05 3.9505336e-05 -7.7586126e-05 1.2328559e-06
000100 bb 55 b4 36 d2 c8 d1 b7 f4 89 8c b6 88 05 b2 37
       5.3743984e-06 -2.5008256e-05 -4.188385e-06 2.122183e-05
000110 7c 85 63 37 91 54 9c b8 8d f9 b0 b7 12 ef ae b7
       1.3561334e-05 -7.4544114e-05 -2.1097041e-05 -2.0853742e-05
000120 a1 15 c0 b7 92 1a 57 ba 72 42 0b 37 57 64 4e b8
       -2.2898255e-05 -0.00082055584 8.300516e-06 -4.9207676e-05
000130 97 87 b2 39 1a 1e cf ba 57 79 99 b8 97 cb f9 35
       0.00034051828 -0.0015801818 -7.31821e-05 1.8611198e-06
000140 35 7f de 35 4b 1f 25 38 42 62 6d b8 5e fc 31 b6
       1.6577311e-06 3.936821e-05 -5.6596713e-05 -2.6521952e-06
000150 9f af b3 ba b9 cc ae 35 78 b6 e3 37 37 7d cd 36
       -0.0013708955 1.3023592e-06 2.7145477e-05 6.124053e-06
000160 a0 42 43 36 05 2a 77 36 ed 38 91 b6 55 1e 1e 39
       2.9096045e-06 3.6830327e-06 -4.327964e-06 0.00015079354
000170 a0 f3 18 b9 ba fa 1f 36 31 00 d5 ba 7f 42 01 b9
       -0.00014586607 2.3838788e-06 -0.0016250667 -0.0001232717
000180 ec d0 4c b7 6c 98 85 b7 3d 72 c6 b9 9f b2 69 b6
       -1.2207991e-05 -1.5925812e-05 -0.00037850617 -3.4823677e-06
000190 4e fc 84 b7 30 08 b6 b7 70 be bc b4 94 ec a4 ba
       -1.5853115e-05 -2.1699903e-05 -3.515629e-07 -0.0012582713
0001a0 53 af 8b ba 0a 9e 83 b7 3d ef e2 b7 8b 98 4d 37
       -0.0010657109 -1.569001e-05 -2.7052703e-05 1.2254469e-05
0001b0 4f 44 74 b6 6a 8d 17 b7 a9 92 56 b7 9c 1d bd b6
       -3.6398594e-06 -9.033227e-06 -1.2789541e-05 -5.636086e-06
0001c0 c6 de 0e b8 02 3b 14 37 30 8b 69 37 d1 74 51 37
       -3.4062912e-05 8.835226e-06 1.3920289e-05 1.2484569e-05
0001d0 a9 b9 cf b7 4d 54 3a b6 f2 ba 90 b8 de 5f 03 b9
       -2.4762778e-05 -2.776523e-06 -6.901276e-05 -0.00012528847
0001e0 18 35 74 b7 28 9f 18 b7 3b 9b 12 b9 6b c4 ee 34
       -1.4555895e-05 -9.0969625e-06 -0.00013981473 4.4473867e-07
0001f0 a3 5a dc b6 02 52 3e b7 fc 41 73 b7 fa 85 c6 b7
       -6.5670624e-06 -1.1343976e-05 -1.4499292e-05 -2.3665827e-05
000200 8e fd 87 ba f7 56 4c 39 fb 8a ab b9 c1 db 8e 39
       -0.0010375248 0.00019487353 -0.0003271921 0.0002724808
000210 f2 01 da ba 44 5e 11 bb 16 5b 35 b9 5e df 28 bb
       -0.001663266 -0.002218143 -0.00017295437 -0.0025767903
000220 03 14 b0 3b 4b 52 2e 3a b2 bc 71 b9 5e e9 19 3b
       0.0053734793 0.0006649836 -0.00023053846 0.0023485045
000230 c4 31 f4 39 b2 e8 fe 3a 2b 7d 2d b9 bb d0 90 39
       0.00046576385 0.0019448011 -0.00016545194 0.00027621337
000240 c5 b5 a1 b9 71 c2 7d b9 76 f9 de 38 be e8 ac 38
       -0.00030843742 -0.00024200395 0.000106322506 8.244951e-05
000250 ed 96 67 ba 25 06 2b 39 89 4a 02 39 21 53 24 38
       -0.00088344404 0.0001631012 0.00012425533 3.9178067e-05
000260 82 62 45 ba d3 1a c8 ba f5 cf 3d 3a ee 12 1d bb
       -0.00075296324 -0.0015266783 0.0007240766 -0.0023967582
000270 07 1d 17 b9 bc a9 68 3a af 00 4c ba fb 8f 21 39
       -0.00014411296 0.000887539 -0.0007782084 0.00015407793
000280 36 08 d3 ba a3 44 8c b8 bb 1d 9b b6 f6 71 13 39
       -0.001610047 -6.688505e-05 -4.622821e-06 0.00014061466
000290 d2 d4 15 3a 9d ae 05 ba 9e c8 91 3a 09 77 ee 39
       0.00057156116 -0.0005099567 0.0011122411 0.00045483586
0002a0 87 8e 5d ba e2 2a 1f 3b 5e 58 8d 3a 3a 91 0f bb
       -0.0008451719 0.0024287035 0.0010783782 -0.002190663
0002b0 31 50 d3 b9 6e 41 4d b7 0b 91 89 b8 36 cc 65 3b
       -0.00040304803 -1.2234186e-05 -6.5596854e-05 0.0035064346
0002c0 04 45 c1 b9 b3 d3 09 39 49 68 9f 3b 7e 37 27 ba
       -0.0003686325 0.00013144202 0.0048647267 -0.00063788134
0002d0 24 14 4a b8 57 c1 ab 3a c3 bb 8e b9 22 01 14 ba
       -4.817931e-05 0.0013103884 -0.00027224244 -0.0005645921
0002e0 e6 30 9e ba ad 50 48 bb 66 69 37 3b 0b 7e 49 3a
       -0.0012069016 -0.0030565665 0.0027986406 0.00076863234
0002f0 b7 fa 6d 3a 7a dc 80 ba 48 04 66 39 0d 47 7b b8
       0.0009078192 -0.0009831332 0.00021936104 -5.9909235e-05

exp_avg_sq f4 [192, 1]
000000 35 f1 bb 32 13 7b a6 35 cb 84 cd 33 59 da f7 32
       2.1879353e-08 1.2403783e-06 9.570211e-08 2.8853878e-08
000010 36 96 62 37 3d e8 44 37 88 8d 7a 33 89 54 41 36
       1.3505623e-05 1.1736583e-05 5.8336383e-08 2.8808447e-06
000020 1e a6 cb 35 5a b5 cf 37 58 f9 18 33 af ac 7c 35
       1.5173025e-06 2.4760771e-05 3.5617035e-08 9.4128603e-07
000030 b7 11 a9 35 a6 00 ab 36 3a bc b7 30 0c eb 23 33
       1.2596637e-06 5.0962726e-06 1.33685e-09 3.816517e-08
000040 d9 2f d4 33 27 66 11 36 8e 4e 6a 31 79 41 89 32
       9.880723e-08 2.1666144e-06 3.4096135e-09 1.5978673e-08
000050 98 56 a5 35 38 d6 32 34 2d ee 15 31 f3 a8 b4 32
       1.231866e-06 1.6655474e-07 2.181774e-09 2.1031587e-08
000060 6f 6e 65 35 c8 e8 9a 34 3f ea 52 33 0d 9d 01 35
       8.546985e-07 2.8854106e-07 4.910748e-08 4.8284784e-07
000070 70 4a b4 31 91 89 69 35 38 dc 73 36 e6 3b 34 32
       5.247152e-09 8.699945e-07 3.6338006e-06 1.0490998e-08
000080 67 d2 fb 36 c3 0a 5a 33 ff a1 66 33 c3 53 04 32
       7.504877e-06 5.0766868e-08 5.3698383e-08 7.7024565e-09
000090 c7 73 b2 32 fa a1 59 33 df fb a4 34 0f 83 9d 35
       2.0774577e-08 5.0671566e-08 3.073064e-07 1.1735555e-06
0000a0 ec 00 8a 35 f7 d0 b6 34 df 3a fb 34 68 95 82 37
       1.028207e-06 3.4052184e-07 4.6795228e-07 1.556678e-05
0000b0 ba 50 b3 33 5a cb b1 32 95 d5 df 34 13 2f ad 35
       8.350021e-08 2.0697986e-08 4.1692388e-07 1.2903205e-06
0000c0 df 22 8f 34 8e c5 02 33 6b 63 a1 36 f2 d1 2a 37
       2.6661198e-07 3.044766e-08 4.8097477e-06 1.0181671e-05
0000d0 bd 30 24 33 d4 60 8c 37 4a 95 c0 34 b7 31 14 36
       3.8228553e-08 1.673439e-05 3.587141e-07 2.2082656e-06
0000e0 c6 3f a9 34 93 0d be 36 53 5f aa 35 3b 3d c7 33
       3.1525104e-07 5.6640215e-06 1.269373e-06 9.2777974e-08
0000f0 e2 1e 58 31 dc 24 51 34 dc 2d 86 33 78 a4 aa 32
       3.1449692e-09 1.9478051e-07 6.248203e-08 1.9865396e-08
000100 d3 b2 9a 2f d5 8b 96 32 87 86 e6 30 d4 59 94 31
       2.81395e-10 1.7525887e-08 1.6772937e-09 4.317579e-09
000110 a7 22 c5 32 1b 82 14 35 8f b4 2b 34 04 35 49 33
       2.2949576e-08 5.5323625e-07 1.5991303e-07 4.6847177e-08
000120 d5 eb 63 34 77 d9 97 37 e8 65 39 30 bd 1f 7f 34
       2.1226818e-07 1.8101868e-05 6.7447425e-10 2.3760272e-07
000130 9a 19 a5 36 7a 79 d3 37 c4 a5 d4 34 58 27 14 31
       4.9203636e-06 2.5209727e-05 3.9608688e-07 2.1559199e-09
000140 5f 6d f9 2e f8 e0 66 32 0c a9 da 32 09 de 04 31
       1.1342637e-10 1.3438914e-08 2.5455414e-08 1.933474e-09
000150 37 f9 9c 37 5c 3e 11 32 d6 33 65 34 23 38 37 31
       1.8712699e-05 8.45429e-09 2.1346145e-07 2.6661915e-09
000160 ca ee ca 33 cb 49 f0 30 39 02 9e 35 a1 61 43 35
       9.4497935e-08 1.7483271e-09 1.1772564e-06 7.278523e-07
000170 62 0e 0c 35 59 70 bc 32 bc 3c c6 37 0a cc 16 35
       5.2174994e-07 2.193717e-08 2.3631721e-05 5.617627e-07
000180 52 49 3e 36 00 f3 af 31 21 92 1c 36 8d a1 c4 2f
       2.8354884e-06 5.1207962e-09 2.333087e-06 3.576698e-10
000190 76 d4 6a 32 ce 41 8a 30 71 0d 9b 2f a7 c5 d7 37
       1.3668901e-08 1.0059524e-09 2.8203886e-10 2.5722036e-05
0001a0 8b 1c 02 37 88 71 e3 32 4c 0a 85 32 1a ba 99 31
       7.7552495e-06 2.6477906e-08 1.548792e-08 4.4740434e-09
0001b0 2f 6c 3a 30 03 b6 a9 31 da 6a a9 31 ef 98 2d 31
       6.7820144e-10 4.9392397e-09 4.930695e-09 2.5261746e-09
0001c0 91 c8 14 32 7c 10 36 31 a4 81 0e 35 7e c1 04 33
       8.660337e-09 2.6493856e-09 5.3087774e-07 3.0909625e-08
0001d0 8a 24 38 32 45 db e5 32 90 71 3b 33 86 ba 04 36
       1.0718518e-08 2.6758821e-08 4.3642615e-08 1.9778104e-06
0001e0 f2 9e bd 32 70 59 2f 32 64 91 08 36 59 6e 98 30
       2.2074776e-08 1.0206676e-08 2.0350208e-06 1.1090818e-09
0001f0 05 7c 05 32 e1 b1 0c 31 ff 0a 6b 32 f5 32 f7 32
       7.769818e-09 2.0473794e-09 1.36813005e-08 2.8777757e-08
000200 e7 75 bb 37 1a fa 3e 37 fe 62 1a 37 ae 27 68 36
       2.234704e-05 1.1383114e-05 9.202164e-06 3.459379e-06
000210 01 6a b5 38 f7 eb 12 39 10 b9 38 35 e5 90 95 39
       8.650497e-05 0.00014011549 6.8814643e-07 0.0002852745
000220 07 ef cd 3a 67 a6 c1 39 6d c4 59 37 09 06 f0 37
       0.0015711494 0.00036935808 1.2979942e-05 2.861304e-05
000230 1a e2 f9 37 2b 08 c0 38 ba 9c 82 36 4c 56 c9 36
       2.97884e-05 9.156795e-05 3.8925473e-06 6.000313e-06
000240 d8 a1 2e 36 73 ed 80 37 1f 49 84 34 ea d3 26 37
       2.6022226e-06 1.536936e-05 2.4640119e-07 9.943711e-06
000250 ca 99 02 38 05 da c5 37 fb 34 1a 36 31 68 b6 36
       3.1137643e-05 2.3585753e-05 2.2978627e-06 5.436152e-06
000260 dd af 38 37 6c 20 68 38 58 38 17 38 d0 c2 22 38
       1.1008201e-05 5.5343306e-05 3.605368e-05 3.8805243e-05
000270 a6 c3 0c 35 35 92 c5 37 36 16 50 39 2b cd 69 37
       5.243877e-07 2.3552313e-05 0.000198447 1.3935652e-05
000280 f9 9f 60 3a c7 a3 0b 36 59 d0 78 34 d4 6c 19 37
       0.00085687597 2.0807945e-06 2.3172596e-07 9.144849e-06
000290 d4 6d 61 37 0d d0 39 36 50 3a c5 36 ae c2 2d 39
       1.3436616e-05 2.768825e-06 5.877846e-06 0.0001657109
0002a0 36 de 1f 37 c2 5c a6 38 6a 8b 01 37 0d 58 97 38
       9.528876e-06 7.932774e-05 7.721459e-06 7.216642e-05
0002b0 63 6e 81 36 76 4a 2a 35 2d 03 6a 37 ce df b6 38
       3.8573503e-06 6.343829e-07 1.3948226e-05 8.720123e-05
0002c0 09 0a f5 36 dc c6 a1 36 ab f6 fe 38 e6 66 bf 37
       7.3027372e-06 4.821324e-06 0.00012157609 2.281689e-05
0002d0 e9 fe c2 36 4a a6 b6 37 a9 8e 35 38 13 83 a4 37
       5.811326e-06 2.1773525e-05 4.3286625e-05 1.961136e-05
0002e0 9e 3e 07 38 1b c5 9d 38 55 fb f1 38 46 41 10 37
       3.2244825e-05 7.523057e-05 0.0001153859 8.5982665e-06
0002f0 43 11 02 37 89 a9 7a 37 38 2b 95 36 1c 5e 01 36
       7.752623e-06 1.4940634e-05 4.4455774e-06 1.9277277e-06

exp_avg f4 [192, 64]
000000 c8 b5 ef b7 6a 96 25 39 43 72 19 b8 dc 11 14 38
       -2.8575669e-05 0.0001579166 -3.6584457e-05 3.5302583e-05
000010 7e 55 70 b7 12 8b 0c b8 e9 d9 17 38 e5 7d ff b7
       -1.432502e-05 -3.350812e-05 3.620415e-05 -3.0456993e-05
000020 b0 71 b1 37 0a ec 44 38 83 f7 4c b6 1d 43 44 b8
       2.1152984e-05 4.694987e-05 -3.054244e-06 -4.6792546e-05
000030 65 11 61 b8 00 09 7b 37 70 25 4c b8 35 21 43 36
       -5.366038e-05 1.4962861e-05 -4.8672257e-05 2.9076593e-06
000040 bd 78 90 38 a6 c4 fa b8 d2 02 e5 38 82 1e 04 b7
       6.888944e-05 -0.000119575576 0.00010920096 -7.874916e-06
000050 52 8c 2e b8 e8 c2 ca b6 09 b2 cb 37 0c c0 a9 37
       -4.1615516e-05 -6.042759e-06 2.428239e-05 2.0235799e-05
000060 be b7 12 38 4a 3c 66 39 a3 48 81 b8 12 56 bb 37
       3.4980236e-05 0.00021956969 -6.164729e-05 2.2332217e-05
000070 3d c3 ae 37 f1 68 f7 38 c5 69 29 35 c9 df 54 b8
       2.0833331e-05 0.00011797425 6.311132e-07 -5.0753155e-05
000080 36 38 e8 36 fb f3 5b b9 85 48 9d 37 8b b1 95 37
       6.9206826e-06 -0.00020976357 1.8749628e-05 1.7844859e-05
000090 e0 94 99 b9 77 ac 0a 39 d7 05 06 38 eb 37 e9 b7
       -0.00029293355 0.00013224954 3.195353e-05 -2.7801803e-05
0000a0 3b 76 2c 37 cf 2f c4 b7 72 29 3b b9 ae 8f 81 b6
       1.0279527e-05 -2.3387283e-05 -0.0001784915 -3.861226e-06
0000b0 78 ec 52 38 9d f4 1c 3a 1a e1 f0 37 a2 a1 cf b6
       5.028813e-05 0.0005987378 2.871505e-05 -6.1878973e-06
0000c0 0f 01 cc b8 5b 6c c2 b7 ed 1e a1 b8 c5 a0 2b 38
       -9.727675e-05 -2.317706e-05 -7.6828386e-05 4.0919305e-05
0000d0 e5 7b 4e 38 60 a0 3e 38 f8 3f af b8 18 30 87 b8
       4.9229613e-05 4.544889e-05 -8.3565654e-05 -6.44626e-05
0000e0 13 81 0c b9 89 df 20 b8 e7 ec 08 b7 49 be 9a b8
       -0.00013399524 -3.8355156e-05 -8.16139e-06 -7.3787356e-05
0000f0 ab 1f 8a 38 01 57 0c 38 6c 49 e9 36 cd 0d f7 36
       6.5862514e-05 3.345963e-05 6.9524885e-06 7.3627803e-06
000100 bc b5 56 39 90 a3 06 39 76 d3 bf 38 b0 57 0c b9
       0.00020476332 0.00012840168 9.1469774e-05 -0.00013384107
000110 6a 4c a5 38 eb a8 07 39 e8 ea 34 39 5f b3 72 38
       7.882046e-05 0.0001293753 0.00017253647 5.786435e-05
000120 7c 3a a1 b7 4e c5 a4 39 ce 11 b8 b8 d8 80 91 37
       -1.921993e-05 0.0003142752 -8.77712e-05 1.7345345e-05
000130 c5 a3 3d b9 ae 75 15 3a 04 34 69 b9 f7 a3 2b b8
       -0.00018085453 0.00057014346 -0.00022239989 -4.092228e-05
000140 e7 12 e9 38 80 b7 c7 37 a0 ee 1e 3a 7d bf 65 39
       0.000111138266 2.3808097e-05 0.00060627796 0.00021910477
000150 88 80 ea b9 41 84 15 ba 50 c1 7c 38 c1 6a 5f b9
       -0.0004472772 -0.00057036063 6.026152e-05 -0.00021306706
000160 54 7d 4b b9 c5 f5 03 b9 61 16 8f b9 47 0b 95 b9
       -0.00019406277 -0.0001258469 -0.0002729176 -0.00028427897
000170 e2 c8 8b 39 cf 7d 99 39 07 e9 74 b9 2a e3 5b b9
       0.00026661815 0.0002927617 -0.00023356463 -0.00020970093
000180 df 4c 16 39 48 8a c5 38 f4 bf c0 b8 53 e5 95 38
       0.00014333751 9.419449e-05 -9.1910275e-05 7.1475886e-05
000190 40 93 68 38 ad 2a 7d 39 9f 5a 10 b8 aa 14 2d 38
       5.5450248e-05 0.00024143858 -3.4416673e-05 4.126566e-05
0001a0 4a 33 15 ba 20 c9 06 3a 8a cd e7 39 02 a7 43 39
       -0.00056915416 0.00051416643 0.00044212892 0.00018658864
0001b0 12 cd ea 36 3c d6 88 38 f0 07 42 ba db e0 5c 38
       6.9976168e-06 6.5248896e-05 -0.00074016955 5.26615e-05
0001c0 16 63 96 b8 74 dd c4 37 c1 45 18 3a 4d 98 3d 38
       -7.1710136e-05 2.3468143e-05 0.0005808734 4.5202953e-05
0001d0 c9 23 c2 38 8f 86 b5 39 00 bb f2 39 22 49 6c b7
       9.2573064e-05 0.00034623264 0.00046297163 -1.4083724e-05
0001e0 47 0f 4f b9 c4 30 66 b9 64 a6 2d 3a 39 57 6e 38
       -0.0001974675 -0.00021952676 0.00066242204 5.6824854e-05
0001f0 3b 56 82 39 6b 57 de b7 c3 c6 0c b8 05 68 99 38
       0.0002485978 -2.650517e-05 -3.3563712e-05 7.314984e-05
000200 59 0f a4 b9 a4 1c 82 38 3a e2 a3 36 06 6a af b8
       -0.00031291952 6.204218e-05 4.884115e-06 -8.364399e-05
000210 f3 79 c6 b8 b9 0f fc b8 5b a4 93 39 2b 55 85 b8
       -9.4640905e-05 -0.00012019225 0.0002816048 -6.357798e-05
000220 b0 c5 49 38 d4 07 cd 39 c5 c7 b6 b8 2c 4a 6d 37
       4.8106245e-05 0.0003910648 -8.715646e-05 1.414357e-05
000230 a9 c7 bb b9 3a e2 05 3a 4f 63 c2 b9 41 ee d3 36
       -0.00035816178 0.0005107258 -0.00037076554 6.3160264e-06
000240 09 45 82 b7 61 7a 85 b8 42 7f d3 39 e2 29 36 39
       -1.5529355e-05 -6.364729e-05 0.0004033987 0.00017372475
000250 e0 03 0b ba 40 fd b2 b8 20 74 47 39 12 c1 d8 b8
       -0.00053030066 -8.534873e-05 0.00019021379 -0.00010335645
000260 31 e7 5c b9 d6 a6 13 39 73 21 17 b7 16 84 c5 b9
       -0.0002106696 0.00014081164 -9.008089e-06 -0.0003767318
000270 a9 5d 62 39 fa 60 29 39 7c e3 c4 37 96 a7 f9 b9
       0.0002158793 0.00016153223 2.3470951e-05 -0.00047617842
000280 0b 14 c7 b8 0a aa 21 b8 e9 20 fa b6 2e 74 49 b7
       -9.492793e-05 -3.8543752e-05 -7.454412e-06 -1.2007584e-05
000290 2a 1b 8d 38 bb fc 02 b9 8e 93 86 38 5d 82 15 b9
       6.7284636e-05 -0.00012491916 6.417102e-05 -0.00014258311
0002a0 a9 aa dc b9 ef f3 f0 39 e2 db 62 38 c9 5f 3b b8
       -0.00042088822 0.00045958112 5.408738e-05 -4.467348e-05
0002b0 26 79 6a 38 1d 14 66 b9 22 35 45 39 f6 63 eb 38
       5.5902776e-05 -0.00021942002 0.00018807178 0.000112242924
0002c0 e2 d6 1b 39 81 14 95 35 19 8c b1 39 55 61 3d 36
       0.00014862002 1.1107333e-06 0.00033864452 2.821985e-06
0002d0 a6 eb f5 b7 d7 66 0c 39 38 02 c8 b9 32 03 23 ba
       -2.9316008e-05 0.00013389751 -0.00038148626 -0.00062184327
0002e0 a2 fe 1a ba 52 1a 47 b9 e9 0b f0 39 b7 69 e3 38
       -0.0005912577 -0.00018987924 0.0004578524 0.000108438944
0002f0 00 41 ca 39 dc a2 25 38 e3 75 96 39 9c a5 50 39
       0.0003857687 3.949074e-05 0.00028698062 0.0001989812
000300 81 07 95 b9 2e ec 5c 39 88 57 8d b8 90 b4 88 b9
       -0.00028425085 0.00021068819 -6.739708e-05 -0.0002607447
000310 73 fd 00 b9 25 5c 1e b9 f0 b5 03 3a 65 c0 23 b8
       -0.00012301448 -0.0001510238 0.0005024364 -3.904141e-05
000320 25 2d 24 37 68 0f 24 3a e5 39 9a b8 40 7a aa b8
       9.785673e-06 0.0006258399 -7.354076e-05 -8.1290025e-05
000330 93 c2 fa b9 04 d6 73 3a b9 fc 01 ba ab 2e 8c 38
       -0.00047828685 0.0009301605 -0.0004958618 6.684413e-05
000340 62 18 8f 38 fa 8c af 38 34 75 fc 39 44 ae 2c 39
       6.823313e-05 8.370909e-05 0.0004815251 0.00016468117
000350 c0 27 65 ba 51 a2 9f b9 c2 fa 87 39 73 43 a0 b9
       -0.000874158 -0.00030447778 0.00025936036 -0.00030567832
000360 ec d9 34 b9 1b 4a 72 b9 9a e9 dd b9 cb 50 bb b9
       -0.0001724732 -0.00023106525 -0.00042326452 -0.00035727615
000370 9c 3e ca 39 aa 88 08 39 bd 56 79 b8 f9 b7 16 ba
       0.0003857509 0.00013020882 -5.9447008e-05 -0.000574946
000380 42 d5 b4 b8 ec 3c 2b 38 a5 0d db b6 0b ed 48 38
       -8.622791e-05 4.0826315e-05 -6.528297e-06 4.790448e-05
000390 ee cb 59 39 4f cc 05 b9 44 7a e2 b7 3a cc 42 b9
       0.00020770702 -0.0001275998 -2.6998234e-05 -0.00018577362
0003a0 b6 49 61 ba eb 91 79 3a bf c1 a0 39 54 a8 f9 36
       -0.00085940526 0.00095203397 0.0003066193 7.4403742e-06
0003b0 6d 45 35 38 ee c1 21 b9 1b d1 85 38 17 2d 83 39
       4.321842e-05 -0.00015426401 6.380883e-05 0.00025019862
0003c0 0c d5 c4 38 cd 92 91 b7 58 87 15 3a ee 32 33 38
       9.3856914e-05 -1.7353706e-05 0.0005704067 4.2724358e-05
0003d0 99 a1 74 b8 a3 0e 9a 39 83 40 b8 b9 30 48 01 ba
       -5.8324633e-05 0.00029384074 -0.0003514328 -0.0004931716
0003e0 67 14 00 ba 8a 5d c8 b9 0a 2a 6c 3a 20 b1 a0 38
       -0.00048858527 -0.00038216665 0.000900895 7.6623866e-05
0003f0 37 8e d4 39 7e a9 96 b8 23 73 8c 39 b7 c2 6e 39
       0.0004054175 -7.184128e-05 0.00026788664 0.00022769986
