pretrained/ht1_gru64_epoch=217-step=201432.ckpt (torch, 171918 bytes, 22 tensors)

model.rec.weight_ih_l0 f4 [192, 1]
00000000: 778b c0bd f53f 183f 4e9f a6be c728 39bf
00000010: 802a f3bf c919 df3e b94a b2bb 6456 adbc
00000020: 6dfe ee3e 1a38 323d fd57 7a3f 5277 80be
00000030: a792 01bf b023 1bbf 206c c1bd 37f5 aebe
00000040: 1d4e 8bbd c50b 3e40 ca09 0f3f abe4 96bf
00000050: b7e0 1bbe e425 babf d91c 2f3e b4ed 43bf
00000060: 9f08 14bd 37a2 2fbe 7997 b3bd 78ca 533d
00000070: 1b8c 063e efbe 45c0 ebac 90be 94f4 cf3e
00000080: f0e2 3c3f 2df8 21bf 385e bfbe bab2 a3bc
00000090: 825e a43f ccac 043f 656f c63f 7d35 f9bc
000000a0: 9f40 543c 2f4f ae3d 3c8c bfbd cb50 89bf
000000b0: 52f6 303d 2eed 11c0 b1cd 253f 9c3f 06c0
000000c0: a4fe 85bd 85dd 793f bd26 8abf 79eb 31bf
000000d0: f4df a3be efa3 c740 06ba 863f c749 46bd
000000e0: a059 2bc0 9ab7 113f bae3 bbbe 191c c03e
000000f0: ec52 cc3e f6fd 3cbf 6863 8cbf 82c1 55c0
00000100: dd41 613f 99fb 29be 2461 803f 3bb5 56bf
00000110: f6b7 0bbf 2d5d 98bd 7d32 143e f47f 583e
00000120: d1ff 173f 1cd1 163e 1516 2b3f f476 a23e
00000130: b23e 03bb 2e58 2b3e 9838 233e 4550 863d
00000140: abc5 353e 96dd cdbe 9196 f53f 5193 7a3f
00000150: f783 c23c 0d38 a4bf f893 4c3e 3921 6abf
00000160: 9c06 03c0 9117 483e 9e5a a73d 1dd5 143e
00000170: 0a56 ea3e 1f4e fcbe 5b9e 9bbd fdfd d33d
00000180: 0b61 963d 3193 08bd a8c3 4d3e 19bc 553f
00000190: 80e6 1ebf fcb6 773f 4237 773d 3fbd a03d
000001a0: 3fb2 e33d 872c ef3e e6ec f53e 8650 df3d
000001b0: caa4 6b3f c939 e23e 2073 87bf 24ae 41bf
000001c0: 6988 93be a70b 5c3f b7b2 a43b 0cb1 ab3d
000001d0: dc09 b43f 44c2 143f 8bc3 9cbf deea 8d3e
000001e0: f060 84be 8a08 143f ebc3 7a3e 3186 c13f
000001f0: 5057 093f b834 52c0 0af2 d0bf f0ac 12c0
00000200: ae84 f73d 4996 b4bf 8e48 0bc0 abea 303e
00000210: 92f9 16c0 d687 2340 f4cc b53e c1bd c43e
00000220: 6a6a 02bf 816a 033e d1cd 9b40 b5bd eabd
00000230: 9236 78bd e046 423f 1d32 c9be 4c08 4c3e
00000240: 3803 3cc0 cd60 71c0 6fc2 82bd eefc 4d3f
00000250: 28fa 38bf a1e6 3cc0 d20d 023f 3a3f 7abf
00000260: 852b dcbf 7323 b9be 3f5f 933e 13b3 7d3e
00000270: ecf9 1dbd 0283 75c0 b6b9 fbbe 6abd 983d
00000280: d764 a33f ed6a c2bf 10e7 51be 85b1 953f
00000290: df73 84bf 44da 25bf 87c1 06c0 b186 293f
000002a0: 2905 35bf 045e aabb faa8 1f3e 0cc1 60bf
000002b0: 2e34 d7bd 9cfc adbf f650 04c0 6f30 b13f
000002c0: 1ce4 aabd 3728 0ebf 1f55 f43f 4ee9 33c0
000002d0: 894c d63e 63a9 9640 22fb 3e40 22e9 08bd
000002e0: ba4e 5940 5f08 d93c 8267 463f db70 abbf
000002f0: 7b88 ffc0 4837 2d3f 8ae6 c83e 8187 6b3d
-0.09401601 0.5947259 -0.32543415 -0.72327846 -1.8997345 0.4357436 -0.0054410365 -0.021159358
0.46678486 0.043510534 0.9779051 -0.25091034 -0.506144 -0.6060133 -0.09444451 -0.3417146
-0.06802008 2.9694684 0.5587431 -1.1788534 -0.1522244 -1.4542813 0.17100848 -0.7653458
-0.036141034 -0.17151724 -0.087691255 0.05170676 0.13139383 -3.0897787 -0.28256926 0.40616286
0.7378378 -0.6326931 -0.3737657 -0.019982684 1.2841341 0.5182617 1.5502745 -0.030421013
0.01295486 0.08511197 -0.093529195 -1.0727781 0.04320366 -2.2801013 0.64766985 -2.0976324
-0.065427095 0.97603637 -1.0793072 -0.6949993 -0.320068 6.2387614 1.052552 -0.048410203
-2.6773453 0.5692078 -0.3669718 0.37521437 0.39907014 -0.73825014 -1.0967836 -3.3399358
0.87991124 -0.16599883 1.0029645 -0.83870286 -0.5457758 -0.07439647 0.14472385 0.2114256
0.5937472 0.14728206 0.6683057 0.3173138 -0.0020026383 0.16732857 0.15939558 0.06558279
0.17751186 -0.4020812 1.9186574 0.97881037 0.023744566 -1.2829605 0.1997832 -0.91456944
-2.0472784 0.1954024 0.08171581 0.14534421 0.45768768 -0.49278352 -0.07598563 0.10351179
0.07342728 -0.033343498 0.20094168 0.8349014 -0.62070465 0.96763587 0.060355432 0.07848596
0.11117982 0.4671366 0.48032302 0.109040305 0.92048323 0.44184712 -1.0582008 -0.7565634
-0.2881501 0.8595528 0.0050261873 0.083833784 1.4065509 0.58108926 -1.2247175 0.27718252
-0.25855207 0.5782553 0.244888 1.5119077 0.53648853 -3.2844677 -1.6323864 -2.2918053
0.120858535 -1.4108363 -2.1763034 0.17277019 -2.3589826 2.5551658 0.3550793 0.3842602
-0.50943625 0.12833597 4.868874 -0.11461965 -0.060598917 0.75889397 -0.39296046 0.1992504
-2.9376965 -3.7715333 -0.063847415 0.80464065 -0.7225671 -2.9515765 0.5080234 -0.97752726
-1.7200781 -0.36159858 0.28783605 0.24775343 -0.038568422 -3.836121 -0.49165124 0.07458003
1.2765149 -1.5188881 -0.204983 1.16948 -1.0347861 -0.6478617 -2.105562 0.6622115
-0.70711 -0.005199196 0.15591803 -0.87794566 -0.10507999 -1.3592715 -2.0674415 1.3842906
-0.0834429 -0.55530113 1.9088477 -2.8111148 0.41855267 4.708177 2.984078 -0.033425458
3.39543 0.02649325 0.7750169 -1.3393816 -7.98541 0.6766248 0.39238387 0.057502273

model.rec.weight_hh_l0 f4 [192, 64]
00000000: 4938 05bf d28e 903e d01f cbbd 545b 1b3f
00000010: e712 dbbe 3452 34bf 6475 a9bd f8a1 1cbe
00000020: fc4b fdbd ec4f 573d 05a7 6cbf 9560 a13e
00000030: 5137 653d 25a3 2d3f 7748 d73e 565d 3bbe
00000040: fd46 6a3f 60ea 9f3e 2b0c 77bf 7276 a0be
00000050: f096 c83d 35cd f63e 38d5 803e 11af 733e
00000060: 7de1 afbe 3fa4 a53e 29b9 383f e354 69be
00000070: b3cc 5a3d 67aa 4f3f 02f6 df3d 97f8 3c3d
00000080: a38a 9fbe adff 6d3f 3bbf d1bb 1b2b 98bc
00000090: 4617 843e 576f 8bbd c03b cdbf 712a 6bbe
000000a0: 6691 243e b247 603c aa5d 28be bb60 783e
000000b0: f2fe 903f c0f6 013f 870f 3d3f 3c74 f7be
000000c0: 90db 8a3d ec4e 793e abec b33d 31e0 503e
000000d0: ce08 88bc 1571 923e a928 813e 1c8b dfbe
000000e0: e23b 6cbf 8771 8a3d 0085 96be a071 673f
000000f0: e009 79be 600e 6fbf 99cf 5ebe ef4b f4bd
00000100: c31f 3d3e 51f4 7cbe b489 00be 9ead c3bd
00000110: bf21 5abe b364 f53e c38b 97be cabb 6c3e
00000120: 455a dbbd 3c8c 573d a17e 9a3e f88e 32bf
00000130: b5ec bd3c 22da 383e 6fa5 3f3e 4fa8 8bbd
00000140: 9d5c 14bf 7726 0a3e 0994 8e3e 14b2 a4be
00000150: 02f5 7b3e e91c febe 1ba3 edbd 0afe 6c3e
00000160: e44a 7dbd 9805 65be 60d0 eebd ac2f 893e
00000170: 6aa9 30be a341 893d a3df e73d f90b cd3d
00000180: e4f4 633e a6d9 33be be46 01be 8b54 213f
00000190: 0cb1 763e e4e8 e739 d3d8 aabe bec1 c83e
000001a0: ae64 083e 8783 113d 6d51 ae3e 5526 a9bd
000001b0: 4675 4bbe e4ca 5fbe 54b1 08bf 537b adbc
000001c0: a194 f8bd 7aa5 44be 43bf fabe 3700 2fbe
000001d0: 9148 a63e 057d 423e be8e 913e f74a 6fbd
000001e0: 4aa3 a53f eca1 b63d af8f a63d 02bf 9bbe
000001f0: 6f00 84be f23b 793d cedf fe3e 2a44 94be
00000200: 2293 de3e 40a0 1c3e f0ea a2bd 6fb8 e2bd
00000210: 2891 de3c d16d 863e b231 37be 3d24 5a3e
00000220: 9fe7 00be 3b89 833e bb3c 893e bb0b 91be
00000230: 882d 9a3d bcee e83e b6a2 11bf ab58 7b3e
00000240: bdb3 79bd c4c1 e2bd c7fa dabc 87fa 28bd
00000250: 8a42 623d 9a36 c43d da3c 0d3c ff6c acbe
00000260: efca ab3d 9068 3b3e 8ec1 813e 80b7 5d3e
00000270: be31 163e 077d 463d 2356 82be 9b90 613d
00000280: 65ab 96bd 6bd7 86be d29f 243f 8989 f0bd
00000290: e6ec 433e 48bb 193e f52e 6dbc dfa3 f23e
000002a0: 9549 bcbd a8a9 debb 6126 a9bc eb97 003f
000002b0: 6e9c 8b3e 2cd6 f1bb 7528 4b3e d07c 15be
000002c0: 4443 0c3e fa0b 0dbe bed9 b7bd 01e0 383e
000002d0: 2ec2 4c3e 4cf7 593d 4e95 7fbe 92d4 0e3e
000002e0: 46c2 193d bfa8 2f3e 213e d93c 43e4 8e3c
000002f0: f816 9c3d 26c4 ffbe 80b2 1e3e 7ba8 43be
00000300: 0b65 a03f dd6e 0c3f 4d4e 703f 788a 5cbf
00000310: 9e86 08bf 36b7 72bd b961 a7be f4a3 953d
00000320: 24e5 46bf 8b48 55be 977c 68bf 9b6e ac3f
00000330: d268 1fbe 7b08 40be 1347 b73d 9f38 313f
00000340: e5ea 84bf 2932 143f f659 54bf f115 123e
00000350: afe0 863d 7efb 40bf 51dc 73be 7ccf 8a3e
00000360: cf02 2a3f aa9f 223f 8992 17bd e855 35bf
00000370: aef1 523e 5cb4 1340 0ee7 29bf 72d5 44be
00000380: e6a8 093f 8240 913e 4802 03bf 412c fbbd
00000390: d0c1 7ebf 398b cbbf 221f 9a3f ddac 4b3e
000003a0: 0b01 57bd df1b da3d fde7 433f b162 b1be
000003b0: d149 26be 6881 29bf dabb bf3f 815a c1bb
000003c0: b63c e63e 4826 fdbe 391c f0bc 44b7 5fbe
000003d0: d503 753f 87d9 02bf 6f2a 8c3e 5ab7 433e
000003e0: fcb9 9a3e e964 c1be 4861 f6bd e964 f83f
000003f0: 6b63 59bf 9e11 acbf 1d64 773f 8cfb 18be
-0.5203901 0.28233963 -0.09918177 0.6068623 -0.4278786 -0.7043793 -0.082743436 -0.15296161
-0.123680085 0.052566454 -0.9244235 0.31519 0.055960957 0.67827064 0.42047474 -0.18297324
0.9151457 0.312335 -0.9650294 -0.31340367 0.09794414 0.48203436 0.25162673 0.23797251
-0.3435172 0.32351872 0.7215753 -0.22786288 0.053417873 0.8111939 0.10935594 0.04613551
-0.3116046 0.92968255 -0.0064009703 -0.018575242 0.25799006 -0.06808346 -1.6033859 -0.22965409
0.1607109 0.0136889685 -0.1644198 0.2425565 1.1327803 0.50767136 0.7385182 -0.48330867
0.067801595 0.24346513 0.08785375 0.20398022 -0.01660576 0.286019 0.25226334 -0.4366082
-0.92278874 0.06759935 -0.29398346 0.90407753 -0.24320173 -0.9338131 -0.2175888 -0.11928546
0.18469147 -0.24702574 -0.1255253 -0.09554599 -0.21301936 0.4792839 -0.29598817 0.23118511
-0.10710577 0.052623972 0.30174735 -0.69749403 0.02318416 0.18051961 0.18715452 -0.06819212
-0.57953817 0.13491236 0.27847317 -0.32167113 0.24605182 -0.49631432 -0.116033755 0.23143783
-0.061839 -0.22365415 -0.11660838 0.26794183 -0.17252126 0.06701972 0.11321952 0.10012049
0.22261387 -0.17563495 -0.12624642 0.6301963 0.24090976 0.0004423327 -0.3336855 0.39210314
0.13319656 0.035525825 0.34046498 -0.082592644 -0.19868955 -0.2185474 -0.5339558 -0.02117697
-0.12137724 -0.1920375 -0.48974046 -0.17089926 0.3247724 0.18993004 0.28429216 -0.0584211
1.2940457 0.08917603 0.08132874 -0.30419165 -0.2578158 0.060848184 0.49780124 -0.28958255
0.43471628 0.15295506 -0.07954967 -0.11070334 0.027168825 0.26255658 -0.17890051 0.21302886
-0.12588356 0.25690636 0.26804146 -0.28329262 0.07528216 0.4549464 -0.568889 0.24545543
-0.060962427 -0.11072114 -0.026730908 -0.041254546 0.055239238 0.09580727 0.008620465 -0.33676907
0.08388316 0.18301606 0.25342983 0.21652031 0.14667413 0.04845908 -0.25456342 0.055069547
-0.0735691 -0.26336226 0.64306366 -0.11744983 0.19133338 0.15012848 -0.014476527 0.4739065
-0.09193722 -0.006795127 -0.020648183 0.5023181 0.27267784 -0.0073802676 0.19839652 -0.14598393
0.13697535 -0.137741 -0.08977078 0.180542 0.19995949 0.053214356 -0.24959299 0.13948277
0.03753879 0.17154215 0.026518883 0.017442828 0.076215684 -0.49954337 0.1549778 -0.19107239
1.2530836 0.54856664 0.9386948 -0.86148787 -0.5333041 -0.059256755 -0.32691744 0.07306662
-0.7769339 -0.20828454 -0.9081511 1.3471254 -0.1556733 -0.18753235 0.08949103 0.6922702
-1.0384184 0.5788904 -0.8294977 0.14266182 0.06585824 -0.75383747 -0.23814513 0.27111423
0.66410536 0.6352488 -0.03700498 -0.7083421 0.20600006 2.3078833 -0.66368186 -0.19222048
0.53773344 0.28369528 -0.51175356 -0.122643 -0.99514484 -1.5901862 1.2040751 0.19890161
-0.05249123 0.10649847 0.7652586 -0.34645608 -0.16239096 -0.66213083 1.4979203 -0.0059006815
0.44968194 -0.4944327 -0.029310333 -0.21847254 0.9570897 -0.5111317 0.27376124 0.19112912
0.3022002 -0.377723 -0.12030274 1.9405795 -0.84917325 -1.3442876 0.96637136 -0.14939708

model.rec.bias_ih_l0 f4 [192]
00000000: 8ac5 093e 9c5b 6d3d 198a ad3d 0a5e 9ebd
00000010: 566b 873d c574 44be 1216 313b a01b 95be
00000020: 5443 ac3c 0b7c 713e 6d0c 193f 7c33 b2bc
00000030: 1072 ff3d e7ba a6bc 7fd2 843e 40e3 24be
00000040: dab4 d73e e7a7 7b3d 219a cc3e 775e f8bd
00000050: 626a 823d 9371 243e 26c5 3a3e 5271 52bd
00000060: 908e bfbd ea29 fe3d 2f14 0a3d c68f 343e
00000070: 640b 133e f530 e53d b12e 10be 06a5 553d
00000080: 5fad 483d 5bc7 b33d cc9c a7bd 059d 873e
00000090: db2e 243e 3ad0 57bd 4fc1 08be b3a6 0b3d
000000a0: cc07 40bd ec3b 1ebc c51e 2abc da0a 9cbd
000000b0: eeb9 973e de08 ffbc 03e0 513b 30df 7dbc
000000c0: 9f67 dc3d 4f6d 91bd a669 e73d e931 86bd
000000d0: ebb1 55bc 9998 08be 5459 b03d 07f7 31be
000000e0: 09da 6f3d 249a c63e dc72 d2bd 7c48 103b
000000f0: aab7 363f 5ecb 41bd 891d 3cbd 3ddf bebe
00000100: d7c4 21bf 164e 32be 92e8 d0be 02ad 75bd
00000110: 183e a5be bc88 f63d 2f42 293f be1f a63c
00000120: 9b9f 12bd 9c41 103f e33b 0bbf 438e ed3e
00000130: b27d fb3e 3c9f dd3e 513d 2e3f e25a bebd
00000140: 208b 7cbf 8e05 c4be 842f a23e 8198 82be
00000150: 64cd dc3e 0729 8abd 85cc 233f 172e d73b
00000160: 679d 02bd be6e 4cbe 390a 8f3e 55d9 c73d
00000170: 9918 4a3f 54d7 23bf e7b2 dc3e 1cd0 fb3e
00000180: 6315 233e dd1a 3bbf 7283 4a3f 0679 2dbf
00000190: 682c bdbe f849 15bf f204 14bf 5696 163f
000001a0: 5469 1c3f 32c1 5d3a 7caf f63d d79f 973d
000001b0: 7c33 43bf 6d1b 52be a860 bebe 52aa 05be
000001c0: 809d 133e 1a42 f2bd f779 42bf 7249 6c3c
000001d0: f63c 15be 22bb 34be a4a4 8dbe 9501 a03e
000001e0: e767 88be 890d e5be 8515 123f 7474 80be
000001f0: 1d0c efbe a45e 803e 0a01 34bd f09f 263f
00000200: 98aa 603e b1bb d7bd 1b58 443e dff2 a0bd
00000210: ff7e 433e 49b3 9cbd 8d6a 09bc b360 193e
00000220: c085 f4bd 354a bd3e 7df4 78be 65a5 69be
00000230: 3e49 2a3d 84cf e23c b4ed 163d de19 99be
00000240: 978e 1dbe 8422 dd3e f64e 9f3d 8765 a7bd
00000250: d6cf b7bd 4dc9 44bc 976a 3dbd b05c 293e
00000260: b6f8 b33e 0e8b 3c3e 7b7d 803e 8dcf a13e
00000270: eeaf debd cb5d c0be 5a1f 13be 8d83 84be
00000280: 8fd7 3c3e 5bf6 633d 1f7e 133e 34f8 f7bd
00000290: ea1e 32be e4ef 9dbd 6a2a e03d 9691 b23d
000002a0: 3c01 883d 09f6 61be dc01 83be 65d8 7b3e
000002b0: fbe5 2dbc 3841 05be 44c3 bc3e 7676 c9bd
000002c0: a976 20bd 47b2 38be 2fe2 82be 2e19 e93d
000002d0: 3a11 e03d 6c97 05bf 87c0 3fbe a974 6e3e
000002e0: 4d79 fa3e f789 393e a66e 2cbe 2171 adbd
000002f0: fd87 273e 43a6 cdbd 2321 6cbe 0704 62be
0.13454261 0.057948694 0.08473606 -0.0773278 0.066122696 -0.19185169 0.0027021212 -0.2912264
0.021028198 0.23582475 0.59784585 -0.021753065 0.124729276 -0.020352794 0.25941846 -0.16102314
0.42130166 0.06143942 0.3996134 -0.12127393 0.06367947 0.1605895 0.18239269 -0.051377602
-0.093533635 0.12410338 0.033710655 0.1763297 0.14359814 0.111909784 -0.14080311 0.05215933
0.048993465 0.087782584 -0.081842035 0.26486984 0.16033499 -0.052688815 -0.13354991 0.034094524
-0.046882436 -0.009657841 -0.010383313 -0.07619257 0.2963404 -0.031132158 0.003202439 -0.015495107
0.10761952 -0.07100927 0.11299448 -0.06552488 -0.013042907 -0.13339461 0.08610788 -0.1737939
0.058557544 0.38789475 -0.10275814 0.002201586 0.71374 -0.047313087 -0.045926604 -0.37279692
-0.6319098 -0.174126 -0.40802437 -0.059979446 -0.32273936 0.12037799 0.66116613 0.020278808
-0.035796743 0.5635011 -0.54388255 0.463976 0.49119335 0.4328555 0.6806231 -0.09294678
-0.9864979 -0.38285488 0.31676877 -0.25506976 0.4312545 -0.067461066 0.6398395 0.0065667736
-0.03188839 -0.1996412 0.27937487 0.0975825 0.78943783 -0.6400044 0.43105242 0.49182212
0.15926127 -0.73087865 0.7910682 -0.6776279 -0.36947942 -0.5831599 -0.57820046 0.58823144
0.6109822 0.00084592693 0.1204519 0.07403534 -0.76250434 -0.20518275 -0.37183118 -0.13053253
0.1441555 -0.11829014 -0.75967354 0.014421808 -0.14574036 -0.1764951 -0.27664673 0.31251207
-0.2664177 -0.4473689 0.57064086 -0.25088847 -0.4668893 0.25072205 -0.043946303 0.65087795
0.21940076 -0.10533846 0.19174235 -0.07858824 0.19091414 -0.076513834 -0.00838722 0.14978294
-0.11939573 0.36970678 -0.24312015 -0.22817 0.041573755 0.027686842 0.036847785 -0.29902548
-0.15386425 0.43190396 0.077787325 -0.08173662 -0.089751884 -0.0120108845 -0.04624423 0.16539264
0.3515069 0.1841242 0.25095734 0.3160366 -0.108734 -0.37571558 -0.14367428 -0.25881615
0.18441604 0.055654865 0.1440358 -0.12107888 -0.17394605 -0.07711771 0.1094559 0.087191746
0.066408604 -0.22066511 -0.25587356 0.24594267 -0.010613914 -0.1301316 0.36867726 -0.09837048
-0.039175663 -0.18036757 -0.2556319 0.11381756 0.10940786 -0.52184176 -0.18725787 0.2328669
0.4892067 0.18119036 -0.16839084 -0.08468843 0.16360469 -0.100414775 -0.23059516 -0.22071849

model.rec.bias_hh_l0 f4 [192]
00000000: 10b2 3e3e a852 f4bd beb3 6b3e 2c47 f1bb
00000010: 263f 843e 0e24 22bb 5f70 ab3d 3094 93be
00000020: d4af 983d fa75 f23c d05c 183f 2673 623e
00000030: 54e0 b93d 87c4 f8bd 0e9c 233e 61f5 1dbe
00000040: e4cb ed3e b958 5ebc ef5e cd3e 7c19 3bbc
00000050: e334 9dbc 0058 05bc dfaf 523e de5a 8bbe
00000060: 3da5 ad3d 7afd f2bc c741 793e ad6a a23e
00000070: 9bc2 f13d f187 af3d ee5f 223d 25be 033d
00000080: 6250 48be 3934 6e3e c9c4 133e 3166 7f3e
00000090: 0a8f 2dbd 0a3f a7bb dd71 a7bd 84eb b03d
000000a0: 465c 3abe ad24 feba 4ae4 a03d 93f8 6abd
000000b0: 0c9d 7b3e 09b7 69be 1fda 9ebd 0096 4c3d
000000c0: 4067 053e e9a3 333d ce9a 943c f41f d4bc
000000d0: c270 243e f136 3fbe cd74 1c3e ed26 843c
000000e0: 7b04 013d 7bec 243e 10ef abbd eda3 d7bd
000000f0: 1d34 3d3f b8aa e73d 891e e5bd c279 21be
00000100: 24c1 5abf 2270 4a3d 0206 dcbe 0b68 66bd
00000110: 14dd 10be cb3a 13bb f940 2c3f c82f b83c
00000120: 328e e4bb 4701 0e3f d4dd d7be 4c5c f43e
00000130: abe4 0e3f db1e e33e 42d3 093f 6b15 643b
00000140: 9701 64bf f76f a1be 8378 2f3e f319 a7be
00000150: 6a44 173f 2120 8bbd 3f71 fd3e c8b1 1bbe
00000160: 02b4 24bb c579 44be 7f7f dd3e 985c 6f3e
00000170: ece5 573f 5d59 2ebf 6ed4 103f c779 1a3f
00000180: b489 493e 5ee2 5abf 2a4d 5a3f 0ef4 1abf
00000190: b5c2 63be a52b cebe 666c 01bf fad1 143f
000001a0: 45e7 1b3f 02c2 fcbd bc12 fbbc 099a 1ebe
000001b0: f010 45bf e33e 07be 68e7 b0be f660 99be
000001c0: 0986 833e f1d4 4e3d fc64 2cbf f260 59be
000001d0: 5b9a 84bd 5355 aabe d5fd 73be 83b0 a33e
000001e0: 9cf9 90be b215 19bf 12c2 0b3f 531a 85be
000001f0: f781 03bf 62fd 2b3e 9a91 50bd cafa 053f
00000200: 1859 323e 2369 3dbe f5a2 9a3e c56e 00bd
00000210: 4451 a13e 58e7 49bd 4464 03be c840 053d
00000220: 9acb 8ebe 1e02 c83e bcd8 95bd fd54 89bd
00000230: 9c07 2c3e 194d 473e 0841 9e3c a561 0c3e
00000240: 0ec8 1b3c 8ba3 523e 005c 06bd 04c4 19be
00000250: 55e9 afbd f8cd e23d d437 903d cc98 603e
00000260: 96d2 6a3e 6239 8c3e 5069 2b3e 549c 343e
00000270: ff2a 05bd ff5d 203d 62ed 18be 5ebb 6ebe
00000280: 1459 b13d f69d 3d3b 5e78 193e 5c6a 1a3d
00000290: c787 26be cfaa 17be e025 b73a bb17 8a3d
000002a0: 36b2 843b a51f 9fbe f225 303c 25f4 2e3e
000002b0: b8f4 0bbe d86f c43c 13e0 953d f97a b5be
000002c0: 252d d9bd e4ea 3abe 1ca2 a0be f4a9 253e
000002d0: 6741 a93d 3256 cfbd f9fc 75be fabe 263e
000002e0: 9860 50bd 954e 5a3e 62ec 50be c457 25be
000002f0: c257 1f3e a6b3 dcbd 176c 92be 3a39 cebd
0.18622613 -0.11929828 0.23017785 -0.0073632207 0.25829428 -0.0024740729 0.083710425 -0.28823996
0.074554116 0.029597271 0.5951662 0.22114238 0.0907599 -0.121468596 0.15977499 -0.15425636
0.4644462 -0.013570958 0.4011149 -0.01141965 -0.019190257 -0.008138657 0.20574902 -0.27217764
0.08478782 -0.029661883 0.24341498 0.31722012 0.11804696 0.08570851 0.039642267 0.032163758
-0.19561914 0.23262109 0.14430536 0.24941327 -0.04237274 -0.0051039504 -0.081760146 0.08638671
-0.18199262 -0.0019389592 0.07856043 -0.057365965 0.24571627 -0.22823729 -0.07756447 0.04994774
0.13027668 0.04385749 0.018140223 -0.025894143 0.16058639 -0.18673302 0.15278931 0.016131843
0.031498414 0.16105835 -0.08395207 -0.10529313 0.73907644 0.11311859 -0.11187465 -0.15769103
-0.8545096 0.049423344 -0.42973334 -0.056251567 -0.14146835 -0.0022465463 0.6728664 0.022483721
-0.006974959 0.554707 -0.4216143 0.47726667 0.5581767 0.44359478 0.5383798 0.0034802805
-0.89064926 -0.31530735 0.17135815 -0.32636985 0.59088767 -0.067932375 0.49500462 -0.15204537
-0.0025131707 -0.19187076 0.43261334 0.23375165 0.8433521 -0.6810511 0.5657414 0.6034207
0.19681436 -0.8550166 0.85273993 -0.6052865 -0.22242244 -0.40267673 -0.5055603 0.581329
0.60899764 -0.123416916 -0.030648582 -0.15488447 -0.7697897 -0.13207583 -0.3455155 -0.29956788
0.25688198 0.050496046 -0.6734159 -0.21228388 -0.064747535 -0.33268222 -0.23827298 0.31970605
-0.28315437 -0.5979873 0.54593 -0.25996646 -0.51370186 0.16795877 -0.050920106 0.523358
0.17416799 -0.18497138 0.3020245 -0.031355638 0.31507313 -0.049292892 -0.12831217 0.032532483
-0.2788971 0.39064115 -0.073167294 -0.06705663 0.16799778 0.19463004 0.019318119 0.13709123
0.009508146 0.20570199 -0.03280258 -0.1501618 -0.085894264 0.11074442 0.07041898 0.21933287
0.22931895 0.2738753 0.16739392 0.1763776 -0.032511707 0.03915214 -0.14934304 -0.23313662
0.086595684 0.0028933263 0.14987323 0.03769909 -0.16262732 -0.14811252 0.001397308 0.067428075
0.0040495647 -0.3107883 0.010751234 0.17085321 -0.13667572 0.023979113 0.073181294 -0.35445383
-0.10604314 -0.18253666 -0.3137368 0.16178113 0.08264428 -0.10123862 -0.24022283 0.1628379
-0.05087337 0.21319039 -0.20402673 -0.16146761 0.1556082 -0.10776453 -0.2859809 -0.10069509

model.linear.weight f4 [1, 64]
00000000: 7a85 c5be 0089 f23d 87f4 cb3d 4ea7 37bf
00000010: c4d4 873c 9bb8 a2bd 585b b93e acee dfbc
00000020: 0089 463d 1c60 e83c 01db 593e 11fe a6be
00000030: 54ce 6e3c 46f6 0c3e 8984 33be 6bd9 2cbe
00000040: 3974 a13e 2968 e4bd e066 a9be d540 eebe
00000050: 077c f6bc 18f5 4dbe 0f75 03bf 460b 9f3e
00000060: 4bce 673d 9e8b 4c3e 34d9 b63c e796 00be
00000070: e4ab 4a3d ebe3 05be ace1 eb3d 6942 16bd
00000080: 7c5f 01be 0ba1 0dbe ca9d 5eba 631e 8cbe
00000090: ed56 f53e 15c3 263f d7c6 90be eba9 9e3e
000000a0: ac01 be3d f585 46be 7023 b43d b06c 153b
000000b0: caea bdbd f0ff 1dbd 4e5f 6c3e 8c2e 053d
000000c0: a392 47bd 86b0 b13e 6f0c 7c3c 4d01 b33d
000000d0: 4a10 7ebf 5db3 14bc f84f 62bc 6d11 093e
000000e0: f60a f93d d8ef 06be 3d22 6ebc b0b9 bbbe
000000f0: c922 793d 8eb6 8dbe 99a1 22bf f4eb 88bf
-0.38578397 0.11842537 0.09958749 -0.7173966 0.016580947 -0.07945367 0.36202502 -0.027335487
0.048470497 0.028366141 0.2127495 -0.32615712 0.01457556 0.13765821 -0.17531027 -0.16879813
0.31533983 -0.111526795 -0.330863 -0.46533838 -0.030088438 -0.20113027 -0.5135049 0.31063288
0.05659322 0.19975135 0.022320367 -0.12557565 0.049480334 -0.13075225 0.11517653 -0.036684427
-0.1263408 -0.13830964 -0.00084921403 -0.27366933 0.47917882 0.6514142 -0.28276703 0.30989012
0.09277663 -0.19387038 0.08795822 0.0022800379 -0.09273298 -0.03857416 0.23083231 0.032515094
-0.048723828 0.3470499 0.015383824 0.087404825 -0.99243605 -0.009075967 -0.013813011 0.13385554
0.12160294 -0.1317743 -0.01453453 -0.36665106 0.06082419 -0.2767834 -0.6352783 -1.0697007

exp_avg f4 [192, 1]
00000000: e6d8 9ab8 af9f 86b8 286b f4b8 57c3 90b8
00000010: 26ea 2c38 a350 cdb8 7736 a537 18a3 cab7
00000020: a772 d5b9 4492 1037 9279 5638 1115 8cb8
00000030: cfc8 1cb8 45e1 753a 0e35 4f38 0ce5 89b8
00000040: 964d b236 181d b639 f199 06b6 2b9a bf37
00000050: ac71 f639 6a12 c539 1ffd 6238 d5ed 7839
00000060: 9cfa 033a 317e 3439 600d a1b6 1a75 46b9
00000070: 31ec 5eb8 fae0 373a cac5 8039 4804 fd38
00000080: ed78 2fba d6f9 2139 e098 1b39 341c 0a37
00000090: 2c06 e6b8 cfcc ac39 4c54 0338 bb40 85b7
000000a0: ad27 8b3a fc04 8e38 bc7c b339 6a55 2338
000000b0: f231 fcb7 91d1 78b7 3933 0039 9025 50b8
000000c0: c9cd 01b7 ce27 4cb7 15d9 34ba 262c 01ba
000000d0: 0329 8d38 d946 0f3a d28c 2c39 cbe5 6338
000000e0: 63e9 193a 366f 78b8 c4c6 4b3a 83f7 76b8
000000f0: 756d 58b8 845b e237 842e f738 8910 a1b7
00000100: 72cf 95b4 2681 8cb8 73b0 f6b6 891e d6b7
00000110: e73d 2cb7 f953 9536 413b 84b9 e0c5 7a36
00000120: 9d85 a2b7 3c0f b9b8 6e81 5736 8eb4 3f37
00000130: a64d 7c39 cc86 e0ba 9aa8 cab8 e058 2bb7
00000140: bf66 70b2 e14b 6837 2680 5eb8 3c22 61b7
00000150: 507d 2ebb a0b4 32b8 eba3 aeb9 65a6 ebb7
00000160: 77cf 17b8 dee9 9d38 4360 2db9 7d91 9c39
00000170: 0d0c 6138 7bf8 bfb5 33c3 d3ba 9362 06ba
00000180: 72eb b6b8 d4c4 6136 dcc2 05ba 96b7 b636
00000190: 310c 91b7 e026 1637 cf48 1cb7 c799 9eba
000001a0: c816 35bb 7e3e 68b8 63e2 80b8 24f5 85b5
000001b0: bde4 17b3 d719 0c36 3893 3337 0364 2ab7
000001c0: 344f 77b8 86b7 9eb7 4d2b 73b5 211b b9b7
000001d0: 8630 b0b7 38e6 94b8 450f 27b8 b6ad 4a39
000001e0: 4c76 8838 10d3 d8b5 6bc0 31ba 4163 d935
000001f0: 3ad8 2937 dea5 d1b7 68b1 b034 1a06 25b8
00000200: 9f3f 62bb ab32 9339 ba18 53ba 0dff c039
00000210: 2ed8 01bb 953f 35bb 62ef 233a 8c78 afbb
00000220: e6dc 563b 57d1 ed39 0622 85b8 67a9 693a
00000230: 984c 21ba bf18 743b 40b3 163a 0ef7 9e3a
00000240: d016 373b a029 353a 6364 83b9 c4fa 1a3a
00000250: b56e 1cbb 09a2 913a 87a2 263b dafa 45ba
00000260: 86ff 0abb 5f98 91ba b2a7 673a 0cfd c9b9
00000270: fdf3 9db9 48b3 233b 0434 caba 1a3d 303a
00000280: 406d e2b8 4868 03b9 c6a4 54ba ad4a c839
00000290: 7801 a33a 33ab 353b beb0 4639 10b3 503b
000002a0: 19c1 80bb 92c6 963b 678e 803a 1033 84bb
000002b0: 6660 75ba e635 4f39 e8f8 373a bf22 be3b
000002c0: 8260 e0b8 014d 5639 f351 583b c868 c1bb
000002d0: e0a5 54ba a958 8339 b517 84ba 0385 f638
000002e0: d8d2 5dbb 27cf 68bb f526 b63b e9f9 d63a
000002f0: 38b2 09ba 44ff 7b3a 34b8 07ba d9c7 a43a
-7.383693e-05 -6.419361e-05 -0.00011654786 -6.90284e-05 4.1226063e-05 -9.7901815e-05 1.9694895e-05 -2.4156223e-05
-0.00040711949 8.617124e-06 5.1134797e-05 -6.679644e-05 -3.7380316e-05 0.0009379576 4.9402057e-05 -6.5753324e-05
5.3138456e-06 0.00034735422 -2.0057162e-06 2.2840764e-05 0.00047005469 0.00037588488 5.4118336e-05 0.00023739722
0.0005034597 0.00017213148 -4.799731e-06 -0.00018926375 -5.3148895e-05 0.000701442 0.00024561427 0.000120647775
-0.00066937396 0.00015447228 0.00014838902 8.2320075e-06 -0.00010968404 0.0003295899 3.131134e-05 -1.5884978e-05
0.0010616683 6.772016e-05 0.00034234475 3.8941776e-05 -3.0063999e-05 -1.4830745e-05 0.00012226113 -4.9626047e-05
-7.736912e-06 -1.2168615e-05 -0.0006898803 -0.0004927538 6.731043e-05 0.0005465574 0.00016455658 5.433503e-05
0.0005871264 -5.923138e-05 0.0007773454 -5.8881484e-05 -5.1600353e-05 2.6983915e-05 0.00011786542 -1.9200395e-05
-2.790435e-07 -6.699776e-05 -7.3519127e-06 -2.5525007e-05 -1.0266412e-05 4.4503217e-06 -0.0002522115 3.7368081e-06
-1.9374123e-05 -8.824325e-05 3.2112835e-06 1.1426526e-05 0.00024061519 -0.0017130016 -9.663515e-05 -1.0213087e-05
-1.39932e-08 1.38459445e-05 -5.3048272e-05 -1.3419016e-05 -0.0026624985 -4.2606727e-05 -0.00033309995 -2.8091667e-05
-3.6194422e-05 7.5299045e-05 -0.00016534426 0.00029863036 5.3655403e-05 -1.4302926e-06 -0.0016156196 -0.0005126383
-8.7222914e-05 3.3642182e-06 -0.00051025837 5.445395e-06 -1.7291024e-05 8.949748e-06 -9.315277e-06 -0.0012100273
-0.0027631987 -5.537131e-05 -6.1456834e-05 -9.980618e-07 -3.5365463e-08 2.0876666e-06 1.0703508e-05 -1.0156075e-05
-5.8963153e-05 -1.8920528e-05 -9.0587565e-07 -2.2066351e-05 -2.100343e-05 -7.1000715e-05 -3.9830124e-05 0.00019328934
6.50702e-05 -1.6154681e-06 -0.00067806867 1.6196647e-06 1.0123529e-05 -2.499198e-05 3.2911635e-07 -3.9344748e-05
-0.0034522784 0.00028075775 -0.0008052696 0.0003681112 -0.001981269 -0.0027656306 0.00062536274 -0.0053549465
0.0032785474 0.00045360133 -6.3482716e-05 0.00089134875 -0.0006153076 0.0037246195 0.0005748756 0.0012128071
0.0027937181 0.00069108047 -0.0002506106 0.0005912001 -0.0023869697 0.0011110912 0.0025426464 -0.00075523334
-0.0021209433 -0.0011108032 0.0008836939 -0.00038526242 -0.0003012716 0.0024978686 -0.0015426879 0.0006722972
-0.00010796869 -0.00012531981 -0.00081117114 0.0003820261 0.0012436351 0.002772045 0.00018948593 0.003184501
-0.003929269 0.004601308 0.0009808064 -0.0040344074 -0.0009360373 0.00019761137 0.0007017986 0.005802482
-0.00010699128 0.00020437317 0.003300783 -0.0059023835 -0.00081118755 0.00025052324 -0.0010077866 0.000117549695
-0.0033847596 -0.0035523863 0.0055588433 0.0016401383 -0.0005252692 0.00096129277 -0.000517729 0.0012571766

exp_avg_sq f4 [192, 1]
00000000: 6807 9533 3244 ca34 2bce ab34 40ce c432
00000010: 8455 2f36 9b81 5135 6ffa ca33 f06a a035
00000020: bf12 3235 fb1e b335 cfcc f533 9501 0e34
00000030: 5db0 6033 04be 8036 2091 cf32 9fb8 b633
00000040: 97bb 7d34 dd8c 3c36 7758 8532 b50d 5833
00000050: 85bd 3936 b93e 2935 1217 a933 e6ad 2034
00000060: e2b4 7535 39a6 9533 625f 6a33 8503 4834
00000070: 3265 3032 4c73 8b36 2476 7f35 26ff f534
00000080: f233 cf36 9cb3 3d34 829f 5434 10f4 8130
00000090: 6453 5235 d7e4 8035 c97f ef33 fb2a 0535
000000a0: 74fe af36 b64b d333 32a9 9d35 58a4 7436
000000b0: 8125 9031 53d1 7f32 b140 f433 dd09 1136
000000c0: e4e9 ac33 1064 b434 4c64 9036 88fb 7d36
000000d0: c46d 2433 e73c cb36 f201 2635 6d72 4235
000000e0: cc38 7b36 10fc cc34 3fe7 2536 fd23 dc32
000000f0: 4a9c a432 2a54 e932 a83b 0d34 d60f 4032
00000100: 7486 922e 799f 2633 f45e 7c30 f7e4 a831
00000110: fa56 8931 8105 1534 4fcc 1036 5427 ef32
00000120: 4192 5331 5b63 3835 4c3a 2c31 cb76 d634
00000130: 4fad 8636 8637 7437 9014 2335 ade9 8b30
00000140: a5b6 8d2d 2eb7 3531 53c3 2733 361b d230
00000150: bc08 e537 7eb9 7c32 5fbe 8836 f523 8c31
00000160: 8077 7e32 78da 5d32 ccfa eb34 e64e 3c35
00000170: d16e 9734 5577 2d31 53d6 2737 496b cc35
00000180: 7828 1d34 5037 4531 826a 8336 ed95 0630
00000190: 5ae7 e032 de57 6a30 a4e8 5d30 1fd2 4937
000001a0: b4ed ec37 8dd4 5532 7730 c132 1163 4732
000001b0: cf24 a82f 209c 1430 ff23 5331 e281 2f31
000001c0: cc10 3f32 303d b030 43e6 8431 e275 c331
000001d0: 1e47 d631 202b b933 ffe9 9832 4cb2 8e35
000001e0: 1543 5e33 9a0e 942f 1d59 4836 9f60 d730
000001f0: 8593 9931 ff10 9431 0e5b f132 21d2 ef32
00000200: 61ee 5938 ea3f 7036 c4e4 a636 ca84 0136
00000210: 4518 4738 a386 5438 292c 0637 ef30 6539
00000220: b79f d338 de81 a638 b131 ed36 6caa a737
00000230: e72f 2437 b7ef b239 5eb2 2137 fbdd 9136
00000240: cb53 1e38 a5ea 6c37 8e04 4835 c2f4 6736
00000250: 75f7 9738 271a 8637 74f5 2539 8913 2037
00000260: 6877 9f37 3b6a 1438 5319 0038 e6fd 0437
00000270: a5fd a435 c99a f837 f72d a038 fba5 0c37
00000280: 459f c239 3c10 1536 af90 0a37 4144 7835
00000290: 2c57 3337 bbca 1238 c227 a736 bd1a 0c39
000002a0: 6be1 9338 01d4 b338 adfe 0637 671e 0d39
000002b0: 4b78 1137 e9ad 2c35 1ae4 e936 3de0 1539
000002c0: 2593 0c36 0dcb 9d37 01a3 4e38 dad1 0e39
000002d0: ed95 7336 1bc4 6037 129a d637 dee5 1537
000002e0: 62f3 4f38 cfee 9538 30d8 1b39 d33f b537
000002f0: bfb9 e535 0f03 5636 7bbb 0936 bae2 e436
6.9397004e-08 3.767505e-07 3.200124e-07 2.2911195e-08 2.6126809e-06 7.804717e-07 9.4519116e-08 1.1952052e-06
6.6337446e-07 1.3345556e-06 1.1445956e-07 1.3225356e-07 5.2314466e-08 3.836818e-06 2.4163967e-08 8.508618e-08
2.3630706e-07 2.8096176e-06 1.5523467e-08 5.0303886e-08 2.7677463e-06 6.304868e-07 7.873872e-08 1.4964425e-07
9.153283e-07 6.968589e-08 5.456912e-08 1.8627732e-07 1.02675575e-08 4.155945e-06 9.516682e-07 4.582045e-07
6.175128e-06 1.7667338e-07 1.9802067e-07 9.455352e-10 7.8352446e-07 9.603344e-07 1.1152549e-07 4.9608906e-07
5.2450287e-06 9.839225e-08 1.1746654e-06 3.6454494e-06 4.1952153e-09 1.4890548e-08 1.1373903e-07 2.1612425e-06
8.0519186e-08 3.3600418e-07 4.3032105e-06 3.7846348e-06 3.8284057e-08 6.0569614e-06 6.184265e-07 7.2437143e-07
3.7434975e-06 3.818136e-07 2.472152e-06 2.5627736e-08 1.9163185e-08 2.7163043e-08 1.3153351e-07 1.1179472e-08
6.663195e-11 3.8794926e-08 9.1812e-10 4.915474e-09 3.997113e-09 1.3878709e-07 2.1576595e-06 2.7841146e-08
3.0787677e-09 6.868992e-07 2.5062432e-09 3.994704e-07 4.013687e-06 1.4556461e-05 6.0752154e-07 1.0179996e-09
1.6110955e-11 2.6443092e-09 3.9060364e-08 1.5287245e-09 2.7302995e-05 1.4710507e-08 4.075278e-06 4.078624e-09
1.4811917e-08 1.2913567e-08 4.395464e-07 7.015027e-07 2.820657e-07 2.5242646e-09 1.0003877e-05 1.5230409e-06
1.4636487e-07 2.8698715e-09 3.9165034e-06 4.8961973e-10 2.6182239e-08 8.525357e-10 8.0729934e-10 1.2029456e-05
2.8244081e-05 1.244656e-08 2.2490196e-08 1.160585e-08 3.0585176e-10 5.4063953e-10 3.0725003e-09 2.5539681e-09
1.1121482e-08 1.2823076e-09 3.8678833e-09 5.6886487e-09 6.236305e-09 8.622578e-08 1.7801538e-08 1.0631716e-06
5.1749414e-08 2.6931418e-10 2.9854193e-06 1.567077e-09 4.469657e-09 4.309299e-09 2.80975e-08 2.7918817e-08
5.195884e-05 3.579999e-06 4.9738173e-06 1.9299791e-06 4.74679e-05 5.067013e-05 7.997304e-06 0.00021857371
0.00010091013 7.9396865e-05 7.0689352e-06 1.998731e-05 9.786315e-06 0.00034129407 9.637877e-06 4.3471787e-06
3.7748174e-05 1.4121329e-05 7.4512434e-07 3.456415e-06 7.2463336e-05 1.5986223e-05 0.00015827065 9.541292e-06
1.900988e-05 3.5384885e-05 3.0541163e-05 7.926928e-06 1.2292772e-06 2.9635981e-05 7.637956e-05 8.383296e-06
0.00037121229 2.221218e-06 8.259128e-06 9.248652e-07 1.0689528e-05 3.499792e-05 4.9816163e-06 0.00013361401
7.0514936e-05 8.574874e-05 8.046319e-06 0.00013458134 8.670681e-06 6.4328066e-07 6.9704956e-06 0.00014293283
2.0947275e-06 1.8810411e-05 4.9266037e-05 0.00013620351 3.629709e-06 1.33971e-05 2.5582533e-05 8.934612e-06
4.9579314e-05 7.149355e-05 0.00014862488 2.1606602e-05 1.7115889e-06 3.1890265e-06 2.0523719e-06 6.821324e-06

exp_avg f4 [192, 64]
00000000: 3f12 a0b8 6b93 c539 ebbf 81b8 d6c6 7838
00000010: ddac a1b8 1dc6 8db8 e2c3 dbb8 d0d6 b3b8
00000020: d0ba 0439 3772 6cb9 f514 0d39 c871 5739
00000030: 33f4 0eb9 3a00 85b8 206f 3db8 31c3 4639
00000040: 1047 cc37 993b 50b9 bc0f 1d38 9c1a 33b9
00000050: 56d2 e037 b0b9 3038 6c33 95b7 b4cc 6b38
00000060: 18bd a4b8 5d3e 4c39 50c7 2c37 9f60 efb9
00000070: 7b71 c9b8 9e96 ab39 550c 8738 b03d 1f39
00000080: cf98 4ab9 3fb4 0f39 6432 d8b8 b462 c0b8
00000090: 1eaa 1f39 b70f 8e37 2d3e 9738 cd53 0239
000000a0: 9104 7838 286a 0039 7894 bbb8 d5ed ad37
000000b0: 18a4 7c38 99c9 edb9 c73e 2539 6af2 6bb7
000000c0: b481 d338 ade0 4c39 891a fc38 389d 8f38
000000d0: a9fe 00b9 082d 22b8 7302 25b9 df6e 8eb9
000000e0: 6e71 aab9 dc77 8cb8 641c 0bb9 af63 ff38
000000f0: bed9 f7b5 3fd3 1839 b1f0 4cb8 907a ec38
00000100: b641 c039 b3a7 0d39 5d1b 5c39 5eac 0d3a
00000110: d0e2 b239 e705 d1b7 ac73 e139 dd88 e639
00000120: 3079 43b9 c59c 9a3a c3ae d339 a1e5 70b9
00000130: 5fff d339 5055 deb8 137c d339 dc06 303a
00000140: 9f07 47b9 46bf 9839 4323 85ba d9f8 4db7
00000150: db74 6839 0a60 563a 6f8a 5cb9 cee9 ad39
00000160: a88f 2438 7ddd 0e3a 44e0 ca39 ba2e 6a3a
00000170: 41f2 643a ffca 05ba c46a e3b8 e6bd 34ba
00000180: a50b e739 068e bf37 be47 f539 941e bb38
00000190: 107e ccb9 b1de dcb9 c998 d3b9 1103 fdb9
000001a0: 684c eb39 8452 adba 07b1 a0ba 24f5 133a
000001b0: c5af 5fb8 ae92 06ba dff1 703a 9eba f7b9
000001c0: d801 b939 af1c fbb9 c3f6 72b8 5fad 8e39
000001d0: cffe 4638 1eac 5cb8 195a 1cba 4722 913a
000001e0: bdda 45b9 48b1 933a 9ed3 28ba ddca 8639
000001f0: d712 c239 2298 d9b8 1764 b7b9 1cef 10ba
00000200: 3d95 69b9 f5bf ae3a 49c4 12b8 2ab3 8e38
00000210: ba7c 2139 32ea 0cb9 e2c0 0db9 d35e 2eb9
00000220: 6555 a139 42e4 f2b9 336f e939 3396 d039
00000230: efbc 98b9 a5a2 b9b8 cb51 eeb8 d003 423a
00000240: a169 84b8 9cd7 d6b9 77b4 47b9 2845 2839
00000250: 4b1a ccb8 8699 543a fffb 8238 d6e7 da39
00000260: 3c14 cf39 7e98 853a 16e5 2d39 f113 95ba
00000270: c819 b9b9 b02b 113a 2453 dd36 7ecf 9939
00000280: 046d 34b9 5ea7 173a 07aa 5cb9 b484 0eb9
00000290: 1ad8 b638 e427 d8b8 b0e0 7bb9 c327 8939
000002a0: 126f c3b7 9089 57b8 6c51 26ba b2db 22b8
000002b0: be17 8939 9ebc d2b9 57f8 dd3a fa1d 50b8
000002c0: 191b 1f3a c62f e539 305a c039 b78b 9d38
000002d0: dc9e b1b8 c9b9 9237 5f6d bcba 82f4 6eba
000002e0: 1544 7dba 446e 3bb9 7d7a 8eb8 7349 bc39
000002f0: 356b d639 a3ee e638 4746 f5b9 6ac9 8739
00000300: 01f7 a439 554c aab8 e790 5b38 d2fa 153a
00000310: ca39 7939 c855 7736 9b54 5439 3581 8839
00000320: dd81 b6b9 3d76 b53a 6673 f238 2581 7fb9
00000330: 13eb a4b8 9c1a dcb8 a712 7739 10b8 3cb9
00000340: 0df5 1ab9 8ddc 2737 ebd8 4ab9 423c b0b9
00000350: 4c28 063a 021e 8c39 5a8f 05b9 7e3c dd39
00000360: 2aee cf37 ee92 023a 0108 343a f499 7a3a
00000370: 4835 2e3a 00ad 43b9 6b5c fdb7 01bb 85ba
00000380: 2388 c239 2a2e d0b8 1619 143a d76b a6b7
00000390: c189 18ba 3042 9136 04d2 80b8 37de 37b9
000003a0: 4fa3 4d3a 9cc1 baba 2834 83ba 411e c239
000003b0: fa56 1db9 b239 e3b9 a551 81b9 2a68 cfb9
000003c0: fd93 bcb9 8fa9 21ba e6fb f9b9 37ba 5239
000003d0: 4f26 9839 fbff 9837 ac5d a838 77b8 043a
000003e0: a307 ba39 27f5 633a 3176 3cba 98f0 5538
000003f0: e0b1 4ab9 d6e4 c338 e3ff 00ba 14cf f6b9
-7.632793e-05 0.00037684603 -6.186947e-05 5.9312988e-05 -7.7092765e-05 -6.7603054e-05 -0.0001047922 -8.575397e-05
0.00012658094 -0.00022549262 0.00013454615 0.00020546385 -0.00013633147 -6.3419764e-05 -4.5164605e-05 0.00018955466
2.4351786e-05 -0.00019858628 3.744637e-05 -0.00017080683 2.6800826e-05 4.2134605e-05 -1.778613e-05 5.621901e-05
-7.855351e-05 0.00019478188 1.0298405e-05 -0.0004565762 -9.605564e-05 0.0003272788 6.439599e-05 0.00015186402
-0.00019321147 0.0001370469 -0.000103090686 -9.173658e-05 0.00015226795 1.6935037e-05 7.211822e-05 0.00012428984
5.913206e-05 0.00012246578 -8.944509e-05 2.0733956e-05 6.0234306e-05 -0.00045354365 0.00015759013 -1.4063533e-05
0.00010085423 0.00019538654 0.00012021239 6.848056e-05 -0.000123019 -3.866575e-05 -0.00015736539 -0.00027166956
-0.00032509438 -6.698046e-05 -0.0001326665 0.00012177915 -1.8466305e-06 0.00014574545 -4.886155e-05 0.00011276186
0.00036670052 0.0001350928 0.00020991029 0.0005404408 0.00034119794 -2.491749e-05 0.00043001527 0.0004397099
-0.00018641795 0.0011795989 0.00040375264 -0.00022973727 0.00040435322 -0.000106016756 0.000403375 0.00067148893
-0.00018980958 0.0002913421 -0.0010157604 -1.22768915e-05 0.00022168776 0.0008177763 -0.00021032405 0.0003317133
3.9234437e-05 0.00054498744 0.00038695533 0.00089333544 0.00087336084 -0.0005103796 -0.0001084409 -0.0006894752
0.0004406843 2.283511e-05 0.00046783494 8.9225505e-05 -0.00039003836 -0.00042127588 -0.0004035889 -0.00048258205
0.0004487962 -0.0013223444 -0.001225979 0.0005644134 -5.333104e-05 -0.00051335513 0.0009191315 -0.00047250552
0.00035287323 -0.00047895822 -5.792711e-05 0.00027213522 4.7444188e-05 -5.2612384e-05 -0.00059643533 0.0011072838
-0.0001886887 0.0011268044 -0.0006440225 0.00025709617 0.000370166 -0.00010375703 -0.00034979053 -0.0005528794
-0.00022276207 0.0013332354 -3.4991917e-05 6.8044596e-05 0.00015400621 -0.00013438685 -0.00013518662 -0.00016629258
0.00030771937 -0.00046327902 0.00044524073 0.0003978476 -0.00029132466 -8.851782e-05 -0.000113639595 0.0007401081
-6.3139254e-05 -0.00040977902 -0.00019045347 0.00016047491 -9.7323755e-05 0.0008110035 6.245821e-05 0.0004175293
0.00039497192 0.0010192541 0.00016583907 -0.0011373741 -0.00035305158 0.0005537821 6.595992e-06 0.00029337028
-0.00017206749 0.00057851325 -0.00021044175 -0.00013591611 8.718688e-05 -0.00010307113 -0.00024020928 0.000261603
-2.3297533e-05 -5.138811e-05 -0.000634453 -3.8828417e-05 0.00026148366 -0.00040194852 0.0016934973 -4.9618982e-05
0.00060694065 0.00043713878 0.0003668829 7.512367e-05 -8.4696076e-05 1.749107e-05 -0.0014375857 -0.0009115414
-0.0009661329 -0.00017874787 -6.793903e-05 0.00035912878 0.00040897136 0.00011011704 -0.00046782402 0.00025899272
0.0003146455 -8.12045e-05 5.234862e-05 0.0005721274 0.00023768019 3.68558e-06 0.00020249414 0.00026036208
-0.000348105 0.0013844442 0.00011560954 -0.00024366805 -7.8639154e-05 -0.00010495374 0.00023562704 -0.00017997646
-0.00014777873 1.0005327e-05 -0.0001934503 -0.00033614232 0.0005117699 0.00026725238 -0.00012737271 0.00042197475
2.4787227e-05 0.00049810007 0.0006867648 0.0009559684 0.0006645513 -0.00018661097 -3.0202986e-05 -0.0010202826
0.00037103993 -9.9268116e-05 0.000564949 -1.9838959e-05 -0.0005818867 4.329042e-06 -6.142634e-05 -0.00017535021
0.0007844464 -0.0014248374 -0.0010010051 0.00037025104 -0.00015005088 -0.000433398 -0.00024665627 -0.00039559725
-0.00035968414 -0.0006166929 -0.0004768066 0.00020096531 0.0002902024 1.8239012e-05 8.028312e-05 0.0005062888
0.00035482374 0.00086958933 -0.0007189243 5.1007228e-05 -0.00019330485 9.3409486e-05 -0.00049209426 -0.00047075062

exp_avg_sq f4 [192, 64]
00000000: 7abf 8035 2652 e336 8d71 2b34 e376 9e33
00000010: 138f ca33 dbde 4034 4a15 9934 ecc2 6634
00000020: acd1 0c35 a1dd 6136 f429 8834 f5dd 1035
00000030: f959 be34 168b 1334 fa77 9534 9f9d 3735
00000040: fe23 0734 3788 1f35 5da1 3e35 c282 2835
00000050: 35e6 8d34 4782 eb34 d9b0 4733 1eeb 7634
00000060: 5893 e634 c33b cc34 2de1 9f34 ba50 c336
00000070: 8696 8735 2c5e 0235 e1a5 4b34 ddf6 c935
00000080: 5b3c 7935 ea51 2835 a615 4a35 9827 0b34
00000090: df2e f534 0253 b533 c9af c734 5dab 5f34
000000a0: 0989 1f35 70de 9235 4bbc 3c35 f440 ef34
000000b0: c0cd 0534 afb9 c735 88ac 4636 1ae6 7e34
000000c0: c6c8 1736 a11d c535 ba49 6535 93e5 a333
000000d0: 438e 3434 5047 0c34 956d d035 2f5c 9936
000000e0: e0ca 0536 9281 6135 5776 0135 24ce ea34
000000f0: d6d8 f833 d400 f733 0768 6d34 9d55 d534
00000100: 20b3 6936 e138 7737 3cf4 0b37 ee70 5336
00000110: f6be 4537 96f0 1335 a457 1a36 aa5f 8936
00000120: aa91 3736 bfe6 8e38 5996 2c36 c454 4536
00000130: 671e ea35 d257 9e35 c35c d335 699a 1837
00000140: 715c bc36 fa25 0e37 80cb 0338 c3b7 f336
00000150: 62a5 0d37 38c2 e337 a0dc b034 f2bb a736
00000160: d1bb 9d35 a71a f836 5d14 e137 118f 5f37
00000170: 76f7 4d37 0918 d137 2d73 3036 579a 1338
00000180: 9cd6 1a37 81cc f636 2b54 2837 2879 cb35
00000190: b831 8937 121d c236 b578 5336 993d d535
000001a0: 8520 6c37 64ec cc38 a18e 7d38 05d9 8b36
000001b0: 58c7 5035 9b44 3d37 d72c 3438 6062 d936
000001c0: a461 c237 c56e f336 2101 3636 a150 5e35
000001d0: 2f86 a335 8259 c036 9ad2 0838 d446 4c37
000001e0: 88bd c135 588d 4438 1fe0 2337 5b06 1336
000001f0: b300 e136 48ff 5e35 aa9a 8936 6c0b 0237
00000200: 7222 2835 49d4 9036 3a0d a634 f658 0735
00000210: c508 4a34 2f0c 6434 f404 5334 d8f3 4a34
00000220: e001 e034 992f 2c36 c742 4835 f198 3635
00000230: edae 1a35 c043 4f35 24a3 5434 39b2 1435
00000240: 3be2 a834 79fc 5635 957e 4235 6345 e035
00000250: 56c5 7835 08ea 2a36 3a6c f833 ef84 8e35
00000260: 46b9 4435 41ef 3e36 d1fa 5035 5aed 5136
00000270: 35be 1f35 ada7 d435 be5d e234 4db4 1936
00000280: 676c 3835 a514 1b36 8b31 4835 4d9c 1a35
00000290: c0f2 7f35 eeae 8234 7a9d d334 49de 0635
000002a0: 0855 1936 ccf0 8136 5de5 6436 ad85 4f34
000002b0: 52a9 dc34 f886 6936 5d01 a136 5303 3435
000002c0: 5817 1735 03e2 3735 3cef e134 b255 1935
000002d0: d98a 9434 73ef f634 0cc6 5036 308b 0e36
000002e0: a206 1b36 9b13 a835 bc4c 2536 41e3 1235
000002f0: 31b8 4635 e158 6534 caca 9a35 ddaf 5b35
00000300: 36b2 6b35 6f7d 9036 96b3 2734 04d8 0d35
00000310: eec8 4534 2212 2533 cdc0 6134 42b4 5234
00000320: bc06 c934 4e8c a836 e84f 9034 d836 ea34
00000330: e5b8 e933 ac61 b233 fe04 6d34 2bfb 6234
00000340: 1b57 0e34 0da9 e333 22b0 0c35 96ec 4c35
00000350: 5d47 bc34 92f2 ad34 291d 3733 c15d 9a34
00000360: 2689 1235 7871 4235 3dcb 4835 b723 8336
00000370: 7b1f 0835 7ef2 d034 cbd2 df33 ec9a 3136
00000380: 78db 1235 1d9c 9035 7345 9435 a532 8934
00000390: bd3e 8935 5da9 6134 8fbd 6c34 b8ec 8a34
000003a0: c1fd c135 9944 8f36 4a3b 7b36 7733 0f35
000003b0: 9050 3c34 69d0 0a36 00ac 2236 813c df34
000003c0: 0ca1 8a35 bdb3 ab35 d15d 4435 f45e d833
000003d0: 1d18 2234 cc92 1334 e80a 8b35 3631 0336
000003e0: 1564 e134 f956 a135 fa2a 9b35 e264 0e34
000003f0: 22c7 0f34 2f87 8234 23e0 f935 bdae 2235
9.59247e-07 6.7746905e-06 1.5966926e-07 7.379074e-08 9.432383e-08 1.7962468e-07 2.851396e-07 2.1491331e-07
5.2459177e-07 3.3656618e-06 2.53625e-07 5.396717e-07 3.5455722e-07 1.3741041e-07 2.7840707e-07 6.840218e-07
1.2585949e-07 5.9430334e-07 7.101533e-07 6.2775155e-07 2.6430794e-07 4.386695e-07 4.649414e-08 2.299607e-07
4.2948045e-07 3.8041443e-07 2.9779895e-07 5.8208507e-06 1.0102092e-06 4.856581e-07 1.8966195e-07 1.5047514e-06
9.284756e-07 6.270408e-07 7.5282367e-07 1.2959788e-07 4.566891e-07 8.443568e-08 3.719454e-07 2.0830835e-07
5.943153e-07 1.0942586e-06 7.030946e-07 4.456448e-07 1.2461442e-07 1.4880696e-06 2.9604726e-06 2.3739304e-07
2.261762e-06 1.4686267e-06 8.5416434e-07 7.632038e-08 1.6815561e-07 1.306446e-07 1.55291e-06 4.570487e-06
1.9936633e-06 8.400758e-07 4.822845e-07 4.3735884e-07 1.1587842e-07 1.15019844e-07 2.211019e-07 3.9736634e-07
3.482397e-06 1.473559e-05 8.341911e-06 3.1507184e-06 1.1786577e-05 5.5111866e-07 2.2998802e-06 4.094055e-06
2.7353913e-06 6.8140675e-05 2.571751e-06 2.9404628e-06 1.7443207e-06 1.1797476e-06 1.5747722e-06 9.095857e-06
5.613598e-06 8.472702e-06 3.1422358e-05 7.263357e-06 8.442761e-06 2.7150949e-05 3.294308e-07 4.9988676e-06
1.1752073e-06 7.3940787e-06 2.6831573e-05 1.3325146e-05 1.2276569e-05 2.4925934e-05 2.6293085e-06 3.519127e-05
9.229083e-06 7.3551787e-06 1.0033177e-05 1.515994e-06 1.6354825e-05 5.785035e-06 3.151171e-06 1.5887664e-06
1.4074268e-05 9.771509e-05 6.0452734e-05 4.167787e-06 7.777612e-07 1.1281251e-05 4.2957105e-05 6.4785563e-06
2.317207e-05 7.2548596e-06 2.712077e-06 8.2818775e-07 1.2183499e-06 5.732466e-06 3.2621065e-05 1.21758385e-05
1.4434781e-06 4.6861678e-05 9.767739e-06 2.1908406e-06 6.705604e-06 8.307293e-07 4.1009234e-06 7.751263e-06
6.2635e-07 4.3162477e-06 3.0929533e-07 5.0420874e-07 1.8815906e-07 2.1238587e-07 1.9652708e-07 1.8901426e-07
4.1724616e-07 2.5657703e-06 7.460298e-07 6.802284e-07 5.762402e-07 7.72121e-07 1.9803389e-07 5.5393645e-07
3.1457043e-07 8.008861e-07 7.2454833e-07 1.6709495e-06 9.267436e-07 2.5468198e-06 1.1568086e-07 1.0618513e-06
7.32853e-07 2.845147e-06 7.7851024e-07 3.1281584e-06 5.9508903e-07 1.5844031e-06 4.2163987e-07 2.2903725e-06
6.870309e-07 2.3108817e-06 7.45779e-07 5.759692e-07 9.534815e-07 2.4341665e-07 3.9416392e-07 5.024236e-07
2.2848271e-06 3.872532e-06 3.4108155e-06 1.9327008e-07 4.110139e-07 3.4798268e-06 4.7983326e-06 6.706006e-07
5.6285853e-07 6.85017e-07 4.2083582e-07 5.7121645e-07 2.7668173e-07 4.5995293e-07 3.1109694e-06 2.1240667e-06
2.310066e-06 1.2522681e-06 2.4631581e-06 5.4719936e-07 7.402878e-07 2.1359621e-07 1.1532914e-06 8.183977e-07
8.7803653e-07 4.306137e-06 1.561842e-07 5.284094e-07 1.8420153e-07 3.8433548e-08 2.1024898e-07 1.9623351e-07
3.7444067e-07 5.023124e-06 2.688023e-07 4.36258e-07 1.088354e-07 8.306537e-08 2.2074161e-07 2.1139265e-07
1.325647e-07 1.06012614e-07 5.241037e-07 7.63402e-07 3.5069652e-07 3.2400254e-07 4.263453e-08 2.875295e-07
5.4588816e-07 7.243575e-07 7.4801557e-07 3.908262e-06 5.070976e-07 3.8919455e-07 1.042259e-07 2.6465232e-06
5.470861e-07 1.0774271e-06 1.1047072e-06 2.5555087e-07 1.0225555e-06 2.1016372e-07 2.2048174e-07 2.587674e-07
1.4453473e-06 4.269718e-06 3.7436425e-06 5.334654e-07 1.7538173e-07 2.0684913e-06 2.4239998e-06 4.158101e-07
1.0328672e-06 1.2792804e-06 7.315221e-07 1.0075556e-07 1.5096198e-07 1.3743846e-07 1.0359481e-06 1.9549166e-06
4.1982335e-07 1.2020747e-06 1.1560908e-06 1.3261482e-07 1.3390357e-07 2.4312746e-07 1.8617178e-06 6.060398e-07

exp_avg f4 [192]
00000000: c0d0 f7b9 b160 dd3a 6458 7cba 1b6f ed3a
00000010: a019 3bba 760e 143b 84a8 41ba 92fd 93ba
00000020: c936 f5ba 1bb3 00bb b2ca af39 eeec 81ba
00000030: 988e d238 15a7 e13b b419 1639 124d 86ba
00000040: 55ea 113a aa76 173b c859 1db7 3340 b939
00000050: 7bc1 b33b 7b1d 333b e6cc 873a 05a2 a43a
00000060: 5a6e 753b 8d57 44b8 1f0a 27ba 97be c3b9
00000070: dff9 8aba b56b b73a 220c bc3a 2919 523a
00000080: d836 64bb 1174 b839 8f86 6a3a 0cc7 ab38
00000090: 5d54 d5b9 4b67 dd3a 29d7 4a37 684a 443b
000000a0: f0e5 2e3c 7083 c939 5e39 4c3b c19f ebb9
000000b0: 7fe2 7db8 7b1d 0bba 6480 643a 4d42 b9ba
000000c0: 4aed f439 029b 323a 197d b3bb 9b59 58bb
000000d0: 1488 9139 3bd9 1fbb 83b3 1e3b baf6 523a
000000e0: 20bf 113b 5982 8f39 043a fe3b 9a2b 00b9
000000f0: 5b62 b7b9 c97d c23a 210e 22ba ab22 123a
00000100: 5ef6 8437 ee83 ffb9 7ce3 f7b7 2e19 273a
00000110: f7c9 d537 b6c1 e7b9 d5b5 adba bb03 4c39
00000120: 9f46 8539 7e75 b6b9 b6ae 1838 d451 baba
00000130: dcdb 083a a93f 46bc 69a8 bf3a 2c06 ec37
00000140: ac30 08b4 535c f638 1cf4 44ba 834d cdb8
00000150: 869a 62bc 7a73 4dba 024e bcbb 9839 8bb8
00000160: 1869 3e39 7b5e 3a39 947f f739 f3de bd37
00000170: a1d2 433b 64d0 6737 d632 d6bb 71bb 3dbb
00000180: 2fa2 0fba 48f5 b137 c223 28bb 8ae3 acb8
00000190: 3abc fd37 eba2 6738 cde3 6e37 c86c c4bb
000001a0: 5112 b8bc 3198 3439 0b1f 56b9 f9b8 4c39
000001b0: e4f6 1635 1f39 91b8 877a 00b9 b454 89b9
000001c0: cf2d 1439 9a2c 3236 23b6 1036 91b8 0f39
000001d0: a8c3 84b8 0498 7239 fc44 e9b9 e1bb ef3a
000001e0: 6700 95b8 25fc 9f37 945a b9bb 76ed b838
000001f0: 4acd 1437 60c5 22b9 89dd 26ba dcdb 13ba
00000200: 6d59 76bc 9263 8dbb 8cb8 e3ba 110a 573c
00000210: fa12 7dbc d252 00bc 5fb2 83bc 15f5 73bc
00000220: bc69 b53c 0137 7dbc 042d c2bb fc7b a33a
00000230: 5751 b1bc 0374 41bc 454a d63b 540d 1d3b
00000240: 864a 143c 936f 8b3b 2f73 e43a 88f3 213c
00000250: 9954 853c a2e7 a0bb 63b1 d33c 4766 f2bb
00000260: 1ccd 43bc 2c41 aebc b91d 19bc 2bad f93a
00000270: 409e 04bc 86e6 313c d5a3 973c abc9 d1b9
00000280: 9129 65bc 86f4 c63a c0d4 733b b9f5 ab3b
00000290: d305 9c3b d0cc ac3a 7ad5 4f3a 151e 20bc
000002a0: 40c6 e63a cf0a e03c f04f ad3a 4ed0 fdbc
000002b0: 97eb 0dbb 5f7c 083b 084c 4e3b 0715 143d
000002c0: 46cf 353a ea45 87bb a0d2 f43c 3730 11bd
000002d0: 3d68 b93b 75e8 ecba 8029 263b 72ad 54bb
000002e0: 723b 50bc f4c1 8cbc c281 0f3c 058c 9e3c
000002f0: cb33 feb8 00b6 9b3c 5bda ac3b bdb0 c23c
-0.00047267042 0.0016889778 -0.00096262083 0.0018114777 -0.00071373023 0.0022591627 -0.00073874765 -0.001129078
-0.0018708344 -0.0019638005 0.0003352962 -0.000991253 0.000100401405 0.006886373 0.0001431469 -0.0010246357
0.0005566229 0.00231115 -9.378833e-06 0.00035333782 0.005485711 0.0027330804 0.0010360747 0.0012560493
0.0037449808 -4.681158e-05 -0.00063720526 -0.000373353 -0.0010603032 0.0013993891 0.0014346878 0.00080146134
-0.0034822728 0.0003518169 0.00089464424 8.190991e-05 -0.0004068938 0.0016891746 1.2090234e-05 0.0029951576
0.010674939 0.00038435636 0.0031162123 -0.0004494172 -6.053084e-05 -0.0005306822 0.00087166415 -0.0014134139
0.000467161 0.0006813259 -0.0054775593 -0.0033012393 0.0002775794 -0.0024390954 0.0024215884 0.00080476294
0.0022239164 0.00027372202 0.007758381 -0.00012223274 -0.0003497776 0.0014838512 -0.0006181915 0.0005574624
1.585035e-05 -0.00048735685 -2.9550625e-05 0.00063742965 2.5485626e-05 -0.0004420408 -0.0013253043 0.00019456346
0.00025420354 -0.00034801284 3.6402336e-05 -0.001421506 0.000522075 -0.012100139 0.0014622334 2.8136266e-05
-1.2683694e-07 0.00011747391 -0.0007513182 -9.7895994e-05 -0.013830787 -0.0007837337 -0.005746604 -6.638764e-05
0.00018158962 0.00017773539 0.00047206564 2.2634375e-05 0.0029880183 1.3817193e-05 -0.006536822 -0.0028950835
-0.00054791843 2.1214262e-05 -0.002565608 -8.2439816e-05 3.02476e-05 5.522642e-05 1.42389445e-05 -0.005994413
-0.022469671 0.00017222833 -0.00020420195 0.00019523864 5.623863e-07 -6.9247784e-05 -0.00012252676 -0.00026193785
0.00014131445 2.6550028e-06 2.156369e-06 0.00013706299 -6.330694e-05 0.00023135549 -0.0004449262 0.0018290245
-7.1049486e-05 1.9071691e-05 -0.0056565497 8.818034e-05 8.869285e-06 -0.00015523052 -0.0006365409 -0.00056403666
-0.015035969 -0.004314848 -0.0017373725 0.013124959 -0.015446419 -0.007832246 -0.016076265 -0.014889975
0.022145145 -0.0154550085 -0.0059257764 0.0012472863 -0.021645231 -0.0118074445 0.0065396153 0.0023964243
0.009050971 0.004255244 0.0017429347 0.0098847225 0.01627569 -0.0049104253 0.02584142 -0.0073974463
-0.011950757 -0.02127131 -0.009345465 0.00190488 -0.00809437 0.010858184 0.018510738 -0.0004001384
-0.013986961 0.0015179075 0.0037205666 0.0052477983 0.0047614365 0.0013183597 0.0007928234 -0.009772797
0.001760669 0.027348904 0.0013222676 -0.030983116 -0.0021655315 0.0020826084 0.0031478424 0.036152866
0.0006935488 -0.0041282075 0.02988559 -0.035446372 0.005658178 -0.0018074649 0.0025354326 -0.0032452014
-0.012709485 -0.017182328 0.008758964 0.019353876 -0.00012121311 0.019007683 0.0052750534 0.023765916
