pretrained/muff_gru16_44k.ckpt (torch, 24974 bytes, 22 tensors)

model.rec.weight_ih_l0 f4 [48, 1]
00000000: 8ae3 f53f a91f 953f c74a 89bf 3b59 66bf
00000010: 329a 1940 3022 b13f 3a22 6140 337f f23e
00000020: 40e3 babf 3f51 b440 ad68 53bf dac3 723e
00000030: 0fcf 413e eb7a 47bf 6e54 eebe fc76 bb3e
00000040: 772a 673e 0009 4e3f 30ec aa40 8aff 7cbf
00000050: 8404 6740 2769 32c0 26e9 1c40 5373 ce3e
00000060: e7ca 103f 17ff febf eada 9f3f dd94 a03e
00000070: ec2d 853f 679a a03f 1838 d0be 2a43 b9be
00000080: 9636 b4bf cb88 06c0 d378 4bc0 af57 18be
00000090: 7096 c63f 927f e040 24ef f13f a944 ecbd
000000a0: 1e04 cbbf ea2d ec3e 850f 033f e30d 53bf
000000b0: 28d2 1fc0 6f05 943e c01a 72bf f3cd 2a3e
1.9210064 1.1650287 -1.0725945 -0.89979905 2.4000363 1.3838558 3.517714 0.4736267
-1.4600601 5.6349177 -0.825816 0.23707524 0.18926643 -0.7792193 -0.4654879 0.36614215
0.22574793 0.8048248 5.3413315 -0.9882742 3.6096506 -2.787668 2.4517303 0.4032236
0.56559604 -1.9921597 1.2488682 0.31363574 1.0404639 1.254712 -0.40667796 -0.36184055
-1.4079158 -2.1020992 -3.1792495 -0.14877199 1.551466 7.0155725 1.8901105 -0.115365334
-1.5860631 0.4612878 0.51195556 -0.82443064 -2.497202 0.28910396 -0.9457207 0.16680126

model.rec.weight_hh_l0 f4 [48, 16]
00000000: 3c93 1cbf ecda b6bb 6c60 26bf b9c1 98bf
00000010: 1e13 b83e 9bcd 3c3f c7e4 2dbe 82a3 0dbf
00000020: 0203 48bd 74ba 1c3f 81fe 5fbe c7e1 1ebf
00000030: ecfc 0d3e 878e 023f 2cd9 93bc a928 693e
00000040: 2cbc 0b3e 4bca 30bf 287a c3bf 78d8 73bf
00000050: 7479 4a3b e3eb 893f 6ee6 3a3e 114a 34bf
00000060: 9ee7 74be e32d 953f 8759 c53e 3ed4 35bf
00000070: 4ec3 a5bd ad98 a7be 0ae9 60bf 6287 513f
00000080: 3d7c 7cbc 4b62 24be 8f3d 52be 2aca 88c0
00000090: 8dce 2d3e dbf8 453e a8bc d6bd cc17 80bd
000000a0: bf8f eeb8 cb21 6cbf e379 c23e 6250 173f
000000b0: 3a64 8e3e 2753 7dbe 1fee b83f 2e4d 0e3f
000000c0: 53b4 093e e93b e13d c7a4 273e aed3 3d40
000000d0: 8817 be3e e236 083e 08ae 493d 0f23 45bf
000000e0: f4cc 09bd c567 ab3d 06e3 52be 41f2 06bf
000000f0: 80f9 9d3e 7ed2 ae3e bfa0 c43f 708c 6a3f
00000100: d2d1 afbf b13c 0c3f d6ad 0f3f 5654 823e
00000110: a5b1 6cbe ed34 34bf c319 0e3e 66bd c7be
00000120: 29c1 643f f393 0abe 3f2a 84be 9f19 81be
00000130: 5cfd bd3d 5454 b2be f45e 37bf d509 56bf
00000140: b1fc ff3d 94ca 8dbe 8596 69bf 7249 e9be
00000150: 6a09 e9be 5efe d83f 9ec3 5f3d 011d 0a3f
00000160: 70bf 5bbe 5c24 e1be 6fcb d73e 1f04 383e
00000170: b716 833e 8c8b 3c3d ad40 143f 1134 813d
00000180: f600 9bbf dc51 cebe bfda 94bf bda4 8640
00000190: 1b45 d43c 8eb8 ce3f 8451 d23e b33c c5bf
000001a0: 925f d5be ec9d fa3e 1589 943f f252 37c0
000001b0: d5b5 603d 65ef a53f 4e66 c6be d8db dbbf
000001c0: fff3 dcbd d340 a93e 0b26 01bf 927f a9c0
000001d0: f455 b6be 2f04 1ebe 71eb febe e1e9 303e
000001e0: a4a5 97bd cdc9 8dbd 5140 023f e704 15be
000001f0: a0fc a5bd afbf b23d 712e 9bbf 2b85 c03f
00000200: ea16 59bc d562 4abe 4adf 803f 4cff ea3f
00000210: 5281 2a3f 5252 a03e e6cc f53e 17f3 a93d
00000220: 227c 073e 4754 7c3e e955 193f e1ba 59be
00000230: 6ab1 69bf 9c4f 1e3d 0cf2 763e 4375 143f
00000240: de9f d1bf c8db b0c0 cdbe 7dc0 6e3b 9bc0
00000250: f925 9f3e 0d67 bf3e 2b33 8d3f 6a1b b3be
00000260: 2613 8fc0 7b30 a63e 33aa 953f f25f d5bf
00000270: 936c 03c1 92f4 c63d 6ce0 40bf 6b4a f13f
00000280: aa3c 4ebd 6607 ec3e 5a15 cc3e 104a 44be
00000290: f114 983d 9d21 7dbd 3a00 45be 296a c53e
000002a0: edf1 ea3e 253a 8c3e 1cd2 1d3e 2fe3 e9be
000002b0: 9f13 8f3c d9a9 973e c08c c03e 7fcc f93e
000002c0: c46e 2a3e 514b 94bd 13d0 673e 774b b83f
000002d0: ab10 6e3f 061d 903f ceea a0be 2735 ff3e
000002e0: a27a 023e 9182 66be 6289 f23f 7bb5 ebbd
000002f0: 0e88 00bf 7a37 33be 070d 63bf 0bdb 0740
00000300: ea35 143d 9df1 0d3f 9d05 dd3e e1e1 dc3f
00000310: 839a 43bf 0720 d93d c5b1 b2be bf63 c0bd
00000320: 04a6 c93e 8f99 97be 7f55 4cbf e964 8dbf
00000330: 9dc1 8d3f 68ad 09be 2f2e 28bd e17f 45bf
00000340: e04c 02be 1464 e83e d996 623f 5b6e f5bf
00000350: 7c70 a8bf 8c1d 40be ee1f bfbe 89d8 b73e
00000360: 6209 223f 81ed 90bf 98d8 98be 1ba7 8abd
00000370: f5b0 743d 9a82 473e 1306 f73e 82f6 80bf
00000380: 2979 b23e 6ebc e23e e420 9d3e ff3f 3540
00000390: 73fc 25bf 3919 913e 2b3e 32ba 8290 bb3f
000003a0: 7a33 233d 990d 2fbf 114c 023f c2ef 643f
000003b0: f3f3 663e e3e4 da3e 3495 35bf cc2b cbbf
000003c0: 61e8 723e e003 22be 9e71 8fbf f39c 86bf
000003d0: b5a8 6fbe 5bc6 b2be 700b ed3b 39d2 a6bf
000003e0: 197f c6be 978d 88be 716a 6fbd 68d2 b63f
000003f0: b99f 2b3e 6b0c 9ebe 8673 9e3f 2356 a83e
-0.6116216 -0.0055802967 -0.6499088 -1.193412 0.35952085 0.7375123 -0.16981803 -0.5532762
-0.048830993 0.61222005 -0.2187443 -0.6206326 0.13866013 0.5099873 -0.018047892 0.22769417
0.13646 -0.69058675 -1.5271654 -0.9525218 0.0030895146 1.0775112 0.18251964 -0.70425516
-0.2391648 1.1654629 0.38544866 -0.7102698 -0.08093892 -0.3273367 -0.8785559 0.818472
-0.01541048 -0.16053121 -0.20531295 -4.274678 0.16973324 0.19333212 -0.10485202 -0.06254539
-0.00011375499 -0.92239064 0.37983617 0.5910703 0.27810842 -0.24738751 1.4447669 0.55586517
0.13447694 0.10997755 0.16371451 2.966045 0.37127328 0.13302186 0.049238235 -0.7700662
-0.033642724 0.08369402 -0.20594415 -0.527134 0.30854416 0.34144968 1.5361556 0.9162054
-1.3735907 0.5478011 0.5612463 0.25454968 -0.23114641 -0.7039326 0.13877015 -0.39011687
0.8935724 -0.13533 -0.2581348 -0.2521486 0.0927684 -0.34829962 -0.7162926 -0.8360875
0.12499369 -0.27693617 -0.912453 -0.45563847 -0.45514995 1.6952627 0.054629914 0.53950506
-0.21459746 -0.43973053 0.42147395 0.17970322 0.25603268 0.04603152 0.5791119 0.06308759
-1.2109668 -0.4029683 -1.1629256 4.2076097 0.025911858 1.6150072 0.41077816 -1.5409149
-0.41674477 0.4894861 1.1604334 -2.8644376 0.05486091 1.2963682 -0.38749927 -1.7176466
-0.10788726 0.3305727 -0.50448674 -5.2968225 -0.35612452 -0.15431283 -0.49789003 0.17276718
-0.0740464 -0.06923256 0.5087939 -0.14552651 -0.08104825 0.08727967 -1.2123548 1.504064
-0.013250092 -0.19764264 1.0068142 1.835916 0.6660358 0.31312805 0.48007888 0.08298319
0.13230947 0.24641524 0.59896713 -0.21262695 -0.9128634 0.03865014 0.24115771 0.5799143
-1.6376913 -5.526829 -3.9647706 -4.8510046 0.31083658 0.3738331 1.103124 -0.34981853
-4.4710875 0.32458863 1.1692566 -1.6669905 -8.214007 0.09714617 -0.7534244 1.8850836
-0.050350823 0.46099395 0.3986004 -0.19168878 0.07425869 -0.061799634 -0.19238368 0.38557556
0.458877 0.2738811 0.15412182 -0.4568114 0.01746541 0.2962177 0.37607384 0.4878883
0.16643816 -0.07240928 0.22637968 1.439803 0.92994183 1.1258857 -0.31429142 0.4984524
0.12742093 -0.22510745 1.8948176 -0.11509224 -0.502076 -0.17501631 -0.88691753 2.1227443
0.03618423 0.554468 0.43168345 1.7256433 -0.7640764 0.10601812 -0.34901252 -0.09394025
0.39384472 -0.29609343 -0.79817957 -1.104642 1.1074711 -0.13445055 -0.04105967 -0.7714825
-0.12724638 0.45388854 0.88511425 -1.9174303 -1.3159328 -0.18761271 -0.37329048 0.3590739
0.6329557 -1.132248 -0.29852748 -0.06770154 0.059739072 0.19483414 0.48246822 -1.0075228
0.34858063 0.44284385 0.30689156 2.832031 -0.6483833 0.28339556 -0.0006799425 1.4653475
0.039844014 -0.68380123 0.5089732 0.8942834 0.22553997 0.42752752 -0.7093079 -1.5872741
0.23721458 -0.1582179 -1.1206548 -1.0516647 -0.234042 -0.34916958 0.0072340295 -1.3032905
-0.38768843 -0.26670524 -0.05845112 1.4282961 0.16760148 -0.3086885 1.2379005 0.32878217

model.rec.bias_ih_l0 f4 [48]
00000000: 4c30 333e 7c51 623f 0eef 38bf 3c07 e93e
00000010: b6ac 343a 6631 87bf 2c47 8b3f dde4 6bbe
00000020: 7ea5 41be 3f7e 45bd 278b 56be 4dc7 afbe
00000030: 99ac 603e ee3c 48be b467 ecbe a136 babd
00000040: 7a6a a03c d6be fcbc 8c69 28bf 01ba 3a40
00000050: b061 ccbd 6602 ab3e 67d5 82bf afe9 463f
00000060: 2804 0cbf a1b2 3c3f c5b1 093f 2c08 40bf
00000070: f3b7 2c3e 93a4 e63e fe14 023f 0b78 da3d
00000080: ad7b c7bc e2a4 b83d e2e2 99bc b05e 013e
00000090: e48a 293d b925 4abe 60c0 a93d 5ccc 09bf
000000a0: 66db 74bd 9202 2fbe 9ecd fe3d 8e40 443c
000000b0: 4485 7e3e 804e 5f3e 7c95 cf3b 2e73 b6bd
0.17498893 0.88405585 -0.7223977 0.45513332 0.0006892191 -1.056195 1.0881095 -0.23036523
-0.18910787 -0.0482161 -0.2095152 -0.34331742 0.21940841 -0.19554493 -0.4617287 -0.09092451
0.019582022 -0.030852716 -0.6578605 2.9176028 -0.0997957 0.33400267 -1.0221375 0.7770032
-0.5469384 0.73710066 0.5378688 -0.7501247 0.16867046 0.45047435 0.5081328 0.10667428
-0.024350965 0.09015824 -0.018784944 0.12633777 0.041392222 -0.19740953 0.08288646 -0.5382745
-0.059779547 -0.17090824 0.12441562 0.011978282 0.24855524 0.21807289 0.0063349586 -0.089086875

model.rec.bias_hh_l0 f4 [48]
00000000: 2c05 053f 26ce 113f c2d9 39bf 02cc 6d3e
00000010: 1512 90be 33ea 6cbf 4753 7c3f fe04 53be
00000020: 001b cebe 0edf e33b 2689 5cbe 6057 58be
00000030: 3a6b b43e cccd 1b3d 09be 44bf fd01 65bd
00000040: 1f61 d8bd f64d 2cbe b462 21bf cc44 4340
00000050: a004 653c 7283 113f 1276 4cbf 4753 033f
00000060: b26f f3be e270 4e3f 25b3 c43e 1646 1fbf
00000070: 5777 003e 410c 303f 84f2 953e 2e5f 193d
00000080: 9a6e 1dbf 2629 2ebd 17d2 c3bb aa44 2e3d
00000090: 05cf ba3e f901 643e 6cf0 0b3e 29f9 74be
000000a0: e026 093e 6566 a3bd 3576 04be 29ca 99be
000000b0: 4cd2 453d b9f9 843d f617 8d3c 238e 243d
0.51961017 0.5695518 -0.725979 0.23222354 -0.28138795 -0.9254486 0.9856457 -0.20607373
-0.40254974 0.0069540804 -0.21536693 -0.21127081 0.35238057 0.03803806 -0.7685247 -0.0559101
-0.105653994 -0.16826615 -0.63041234 3.051074 0.0139781535 0.56841195 -0.7986766 0.51298946
-0.47546154 0.80640996 0.38417926 -0.6221632 0.12545525 0.687687 0.29286587 0.037444286
-0.6149689 -0.04251971 -0.0059759724 0.042545952 0.36486068 0.22266378 0.13665932 -0.23923172
0.13393736 -0.079785146 -0.12935717 -0.30037048 0.048296258 0.06492943 0.01722334 0.040174615

model.linear.weight f4 [1, 16]
00000000: dd98 59bd e12e 23bd c662 ba3d 8104 51bf
00000010: 4405 a5be d770 09be c6f6 353e bf44 0cbc
00000020: e0e3 253d 907b a7be 4ab2 22bf 0320 013f
00000030: 4b24 5ebd e03e d8bd bee3 e33e b9c9 a4be
-0.053124297 -0.03983963 0.09100871 -0.816475 -0.3223058 -0.13421951 0.17769918 -0.008561312
0.04050052 -0.32711458 -0.635533 0.5043947 -0.05423383 -0.105588675 0.4450969 -0.32185152

exp_avg f4 [48, 1]
00000000: da3d 1bbb 3303 7d3a fa63 b1b7 df09 b7ba
00000010: c5f9 d3b8 d5f9 583a 285c daba d6d8 823b
00000020: bf57 5a3a b2e2 1bb8 5192 64ba e61c c53a
00000030: c7c2 89b9 99b3 74bb fbf5 7c39 d0bb 29ba
00000040: ba4d 4e3a 71d9 8d3a f77f 943a 9538 4a3c
00000050: 9e89 f738 02fc 333b b49d c839 682c 63ba
00000060: 803b a839 52f1 d0b9 8193 a137 61f9 fcb8
00000070: fc20 7cba 3fef cd3a 68fb 3238 77b2 bb37
00000080: 3f6f 84bc bbc2 0c3c 5dca 32bb 5691 3b3b
00000090: c41a 513a 2a0e 66bc 4e33 0dbb a552 053c
000000a0: db49 533a 53d9 e4b9 bc4a 973b f758 2dbb
000000b0: 1505 5d3b 335d fa3b fc89 68bc 07a8 873b
-0.002368799 0.0009651661 -2.11466e-05 -0.0013964734 -0.00010107787 0.0008276974 -0.0016659545 0.003993134
0.0008329115 -3.7166006e-05 -0.00087193126 0.001503852 -0.00026275797 -0.0037338494 0.00024124228 -0.00064748246
0.00078698585 0.0010822249 0.001132964 0.012342592 0.00011803511 0.002746344 0.0003826447 -0.000866598
0.00032087788 -0.0003985265 1.9261382e-05 -0.00012062747 -0.0009617952 0.001571156 4.2672647e-05 2.2375241e-05
-0.016166328 0.008591349 -0.0027281262 0.0028620563 0.00079767057 -0.014041463 -0.0021545473 0.00813738
0.00080600166 -0.00043649468 0.0046170633 -0.0026450732 0.0033724953 0.0076405047 -0.014193054 0.0041399035

exp_avg_sq f4 [48, 1]
00000000: 04f9 9e39 ce6b b837 9f22 d137 ef4b 1e39
00000010: 4673 7035 cbda 2b38 0f4a 0b38 4605 f839
00000020: 6f76 5539 a4fc 3432 c98d 0538 bb11 c536
00000030: 3084 5038 888b 0939 90dd 0837 dbc8 0a37
00000040: 667b d736 d0e8 5b36 7fca 9c35 e9e5 403d
00000050: da67 0a34 a9be 8236 5492 2136 54b3 f436
00000060: c03e 9135 a693 9534 7bca 8435 030d b933
00000070: cadf 4239 ef28 5038 b85e e433 044d 1a34
00000080: 902b 373c fac7 693a 8cba bf3b d6a9 5038
00000090: 5359 3438 47bc 8d39 ba55 8039 9fcc 4f3d
000000a0: 48f9 223c 7773 0b3a 11ef 0039 7a65 143c
000000b0: 7f95 d539 92ab 973c 85ab a43b 0f18 863a
0.0003032164 2.198471e-05 2.4930863e-05 0.00015096342 8.957471e-07 4.0973344e-05 3.3209155e-05 0.00047306175
0.00020357383 1.0534823e-08 3.184172e-05 5.8731216e-06 4.9714174e-05 0.00013117318 8.157818e-06 8.272206e-06
6.421865e-06 3.2769058e-06 1.168184e-06 0.04709426 1.2890033e-07 3.8964977e-06 2.4076044e-06 7.292643e-06
1.0821605e-06 2.786084e-07 9.893696e-07 8.6171006e-08 0.0001858465 4.9629187e-05 1.06343066e-07 1.4370386e-07
0.01117982 0.00089180435 0.0058510955 4.9749236e-05 4.2998534e-05 0.00027033893 0.00024477934 0.05073225
0.009947129 0.0005319635 0.0001229609 0.009057397 0.0004073791 0.018514428 0.0050253295 0.0010230559

exp_avg f4 [48, 16]
00000000: a374 c4bc cd10 ba3b a109 80ba bc2b 1dbb
00000010: 9af6 4b3c ac85 1bbd f882 263d ff11 7fbd
00000020: 21fd 6f3b 7ba2 2eba 0e30 9b3b 5cf1 74ba
00000030: a181 013d b88d e6ba 9830 85bb 7c6e 9b3c
00000040: 50b1 e0bc a863 813b 62f0 92bb 38f4 3b3b
00000050: 873f 97bb e4be 053a 1235 a8bc 53c8 83bc
00000060: de35 3cbb 4b67 51bb afcd d0ba 9250 09bb
00000070: 4db5 9d3c 600d 873c 2be8 9939 5468 0abc
00000080: a6c4 ffbd 2f07 963b 8de0 febc 94e8 abbb
00000090: fd03 a6b9 c93d 45bd 893a 20bd a161 23be
000000a0: 9cae 9dbb edab a1bc 9178 a8bb 1add 45bc
000000b0: bc65 863d 4ecd 0f3d 66be 05bc 9e64 ab3c
000000c0: 595b a1ba 34f6 043d 1bb2 0bbb 0198 1e39
000000d0: 384f 2bbc c503 63bc 8f7c b9bd 8b47 abbc
000000e0: a74f 96ba 6463 92bc fa3b 70bc 4a0d a8bb
000000f0: d237 303d cd98 2ebb e029 96ba 8c78 fabb
00000100: fd90 c6b8 16be 68bb 494f bbb9 3db9 4438
00000110: 7772 3839 806f b13a 1bc3 8e3b 5315 e33a
00000120: 3e34 62ba ee02 3e3a 7b51 133a 20ac fe39
00000130: e9e7 8bbb b6aa e038 e5d0 a139 c48c abb9
00000140: 91cc 9abc fd57 c8bc 2027 fabb b80f 02bb
00000150: 60f9 113b a60c fd3b 5522 f33c d5ff 5fbc
00000160: 50c0 03bc edf7 803b 6a7a e53b 6234 e83a
00000170: e77b 90bc d621 753b 4f76 d9ba acf2 e23b
00000180: 5bdd 0d3c bad2 5b3c d966 903b 4c9d 75b9
00000190: 924b c93a b4af 69bc 9bb2 6abc 2950 37bc
000001a0: a8e3 623b f188 3dbb b9bf 7cbb 5baf 96b9
000001b0: b46e 923c 3efa 12bc 41ec bfb9 81bc 333b
000001c0: 42c8 4fbd 1c60 1ebd 6633 8ebc ee57 18bb
000001d0: 7697 e43a 14de 9d3c 0fed 3b3d e512 dfbc
000001e0: 406b 74bc c577 e13b 67de 3c3c 79a9 b63a
000001f0: 5e45 adbc 0362 8c3c 6346 92bb 3301 e03b
00000200: ed81 643b 8283 fbbb 5691 63ba 7ac1 f83a
00000210: acb2 5abb 433d 563c 1c08 48bc 8c68 823c
00000220: e237 b5bb 419b aa3a b75d 06bb 5de1 6a3a
00000230: 4514 89bc 4b56 84ba ba61 ac3a 871b 08bc
00000240: 6cff 95bb 3d7b 03ba db57 23ba ce42 6039
00000250: 3436 653a bc7b f8ba 5cef b33b b962 b1bb
00000260: 219c 2039 da91 59b8 72e2 723a 08b0 56b8
00000270: 26ef 043b b6e1 033b d22f 14b9 ee79 383a
00000280: 3704 dcbc e927 963c a83c 53bb fbfd 3a3b
00000290: f2d5 93bb 9c6c 69bc 1baa 3bbd 2ad2 0dbd
000002a0: 8157 aebb ae34 59bc a81b c6bb 223b 82bb
000002b0: d16f 1d3d da0e 293c a66c 63ba c553 04bc
000002c0: 1111 1a3c eb4f 4dbc 117d 903a 2d5d d239
000002d0: df8d a239 6c82 873c 680a c43c b908 cd3c
000002e0: 7332 7fba 0ce0 1a3c cdeb 6b3b b2df ff3a
000002f0: 7f58 c7bc 7d50 92ba 4824 983a 000a b9ba
00000300: d9e6 b93c 4d2e 6a3c 585d 453b 453f 96ba
00000310: db90 c5bb aebe 8a3b 39cf 29bd 3ee9 8a3c
00000320: af36 4b3a 5246 bcbb 1798 b7bb f54a 97ba
00000330: 06f5 b93b 669d 0cbc 5404 38b9 2058 8cbb
00000340: 6e9d 253c ac4e c93c ab23 d53b 4902 32ba
00000350: 42ba 113b 42a2 f6bc 44e8 f8bc 6da0 d1bc
00000360: 5b40 a23b b268 f7bb a6dc f1bb a074 7eba
00000370: 73bd 153d f029 65bc 67a3 50ba 48ee 963b
00000380: f0bb 093b ce40 ccbb 432b 5939 83ab 91ba
00000390: 3833 e03a 60d9 1b3b 84d4 9e3c c525 063c
000003a0: 57a6 da3a 4b30 3c3b b78c 2b3b bb52 b539
000003b0: 2843 54bc f786 703a 4413 2ab8 c369 403b
000003c0: e48c 3b3c af4c c93b 4b0f 093b 8c38 03ba
000003d0: c5aa 01bb 4a7b adba fde1 92bc 84fc af3b
000003e0: fda2 f93a f15e a9ba 3f8f 74bb 2a0a 9338
000003f0: 97f5 8d3b bc93 bbbb 6e1f 3e3a 299f 1bba
-0.023981398 0.0056782723 -0.0009768495 -0.0023982367 0.012448931 -0.037969276 0.040652245 -0.06227302
0.0036619382 -0.0006661785 0.004735953 -0.00093438267 0.031617764 -0.0017589843 -0.0040646307 0.018973581
-0.0274283 0.0039486475 -0.0044842223 0.0028679501 -0.0046157273 0.0005101992 -0.020533118 -0.016086733
-0.002871863 -0.0031952437 -0.0015930439 -0.0020952565 0.01925149 0.01648587 0.00029355413 -0.008447725
-0.124886796 0.004578493 -0.031112934 -0.0052462313 -0.0003166496 -0.048154626 -0.039118323 -0.15955211
-0.004812075 -0.0197353 -0.0051413258 -0.0120766405 0.06562373 0.035107903 -0.00816307 0.020922001
-0.0012310549 0.03246136 -0.0021315876 0.0001512468 -0.010455899 -0.013855879 -0.09056961 -0.020908138
-0.001146783 -0.017869659 -0.014662737 -0.0051285373 0.043021984 -0.002664137 -0.0011456572 -0.007643765
-9.468382e-05 -0.003551369 -0.00035726491 4.6902558e-05 0.00017590249 0.0013537258 0.0043567545 0.0017325081
-0.00086290005 0.00072483614 0.00056197465 0.00048574898 -0.004269589 0.0001071295 0.00030863952 -0.0003272054
-0.018896373 -0.024456019 -0.0076340586 -0.0019845795 0.0022273883 0.007722455 0.029679457 -0.013671835
-0.008041456 0.003935805 0.0070031183 0.0017715807 -0.017637206 0.00374042 -0.0016591045 0.0069259014
0.008658732 0.01341694 0.0044067916 -0.00023423618 0.0015357605 -0.014263082 -0.014324809 -0.011188545
0.0034620557 -0.0028920735 -0.0038566424 -0.0002874088 0.017875053 -0.008970795 -0.00036606382 0.002742559
-0.05072809 -0.038665876 -0.017358493 -0.002324577 0.0017440158 0.019270934 0.045880374 -0.02723069
-0.0149181485 0.0068807327 0.011527634 0.0013936005 -0.02115124 0.01713658 -0.004463957 0.0068360805
0.003486748 -0.007675589 -0.00086810195 0.0018978559 -0.0033370657 0.013076129 -0.012208965 0.015918992
-0.0055303434 0.001301624 -0.0020502636 0.00089599733 -0.016733298 -0.0010096518 0.0013151683 -0.008307344
-0.004577568 -0.00050156174 -0.0006231048 0.00021387191 0.00087437336 -0.0018957774 0.0054911803 -0.00541338
0.00015316952 -5.1872667e-05 0.00092653104 -5.1185518e-05 0.0020284145 0.0020123548 -0.00014132194 0.0007037212
-0.026857479 0.018329578 -0.00322322 0.0028532732 -0.0045115883 -0.014247086 -0.045816522 -0.034624256
-0.00532049 -0.013257189 -0.0060457774 -0.0039743343 0.038436715 0.010318482 -0.00086755527 -0.008076613
0.009403483 -0.012531261 0.0011023601 0.00040123743 0.0003100475 0.016541682 0.023930743 0.025028573
-0.00097349955 0.009452831 0.0035998703 0.0019521622 -0.02433419 -0.0011162903 0.0011607492 -0.001411736
0.022693085 0.0142932655 0.0030115452 -0.0011462948 -0.006029231 0.0042341566 -0.04145739 0.016956922
0.0007751984 -0.0057456875 -0.0056028473 -0.0011542725 0.005674961 -0.008582449 -0.0001754922 -0.0042829663
0.010108335 0.024573646 0.006504496 -0.00067905016 0.0022236262 -0.030106667 -0.03038419 -0.025589192
0.0049515194 -0.0075503225 -0.0073810397 -0.00097067095 0.036557626 -0.013987049 -0.0007958919 0.004606042
0.002101656 -0.0062333113 0.00020710849 -0.0011113737 0.0017105108 0.0023780689 0.019388445 0.008187716
0.0016681653 0.0028715308 0.0026176402 0.0003458465 -0.012955464 0.0009175385 -4.05491e-05 0.0029359914
0.011447165 0.0061431746 0.0020913656 -0.00050056796 -0.0019785624 -0.0013235596 -0.017930025 0.0053706784
0.0019045767 -0.0012921972 -0.0037316827 7.0113994e-05 0.004332255 -0.0057243984 0.0007252608 -0.00059364975

exp_avg_sq f4 [48, 16]
00000000: cac9 df3a f099 ee3b 3b90 db3a 6cc9 0039
00000010: fe17 7d39 ec3f 3f3c 01fe 0d3c 404d 893c
00000020: 156f 853a 9d71 ac38 0a24 483a a328 ed37
00000030: bba9 9e3c 52d6 0c3b 5170 e338 efbe af39
00000040: 5426 303a 5b38 fd3a f9ca 3639 a82e f736
00000050: daa3 6537 cd68 9b3a 7acd ab3b 052f a33a
00000060: ad6a d738 25b7 8738 e612 a039 95f0 ad36
00000070: 1380 8b3b 9f4a 283a 040d ec36 026a f937
00000080: fe45 623c 9103 153b 1106 b23a 924d 5138
00000090: 914e b939 3e74 a83a 5a4e a03c c587 813c
000000a0: 6952 5e39 e4c4 e439 4d12 233a 4d1a 1539
000000b0: 7bf8 1d3c 0511 e23a 6eb6 8a38 91d6 073a
000000c0: 61f3 ce3b fcc8 4a3c 852f 983a f580 9d35
000000d0: e5b2 cb38 5d43 bc3b be4d d53c 2500 b939
000000e0: b873 e63a 04aa 213a 750e 983a 8159 ad38
000000f0: 889b 173c cdb1 8e3a e33b 8638 5806 8938
00000100: 44d8 0138 dfaa 2338 d267 0e37 b578 7e35
00000110: ad2c 4d36 bd23 aa37 49e3 f338 3233 9637
00000120: 775b 4237 1258 b436 c061 2837 cc2e 9135
00000130: 9b16 e437 d3b6 1237 0a02 3c35 c989 0f36
00000140: 3519 383b a6b9 f23b f3a3 e839 02ff 0537
00000150: f853 b138 76f9 473b 947c 7d3c 6897 3f3a
00000160: 3fe4 d93a 05af 043a 5dd3 343a 74ba 1739
00000170: 889c 693b cc41 4039 8f7c c637 d104 8638
00000180: fd2c cb39 85ba 443a db09 7639 3b64 0736
00000190: dec6 4c37 611d 703a 50a7 3b3a fbf5 e739
000001a0: a9b2 0e39 ccda 4237 324e 9d38 0d1d 1f36
000001b0: 7f2a a93a 56f0 e139 1c71 a536 6473 0738
000001c0: 9dbe a23c 1123 a83c 30ee 903b eb09 c836
000001d0: 8b8f f837 6e51 4c3c 6ec2 ca3c 9455 853b
000001e0: 7358 c63b c2d9 6b3a 7112 c73a bc7d d138
000001f0: d566 9b3b c1d9 233b 3b7f 8439 b568 b038
00000200: 4ae9 ae3c 43cf 793c 132a 323b 0807 4938
00000210: ad9e f438 8beb cf3b 5e34 e73c b636 693c
00000220: a4d8 af3b bd24 a73a 606c b53a 8e3a 8739
00000230: ae64 3b3a 8ca9 8a3a 942f 5439 580e 2139
00000240: f215 9137 1c9d be34 99d4 a534 ce67 2834
00000250: b47c e234 ca36 0536 1f07 ae37 b6fc a637
00000260: cecd 9b34 d0af aa34 bdd0 0335 e0ea 6933
00000270: f9c8 cf35 3a83 6736 01af c433 de27 f734
00000280: cfc1 7a3a b8aa c43a a0f7 7f39 0d37 ab36
00000290: 96d5 7237 07c2 b93a 592b ff3a 2e7f 4e3a
000002a0: 9afe 5739 5837 5738 dd5b 0f39 9412 0237
000002b0: 0198 093b c923 dd39 0a81 0737 4419 cb37
000002c0: c306 753a ed02 d939 162f e738 1df5 a236
000002d0: 3fc4 3b36 8f9b 4939 2c7f 603a 6407 e03a
000002e0: aae0 a939 6731 2738 c48d 9337 6f45 8337
000002f0: 979b c739 a2f7 b037 acd9 3237 3da2 4637
00000300: eb7a 053b 3f30 013b 2504 363a 9c4d e737
00000310: 9274 3338 c737 9d3a 30c5 b93a 2382 b03a
00000320: 8a0c 6c3a 2264 4938 82cd 8038 3492 ff36
00000330: 110d 1a39 af3a d338 fb0a 5938 7995 bf38
00000340: 90df 2f3a 84b1 d33b 61ca 1e3a ad38 1c38
00000350: 6704 c837 766c db3b 2bd4 523c 4ee9 1d3c
00000360: 35f9 5e39 d741 f338 970e 6e3a d9a5 0937
00000370: 9f16 953c 4954 0a3b 5f74 e737 4847 e738
00000380: 8420 f038 27c7 6439 3ea0 6838 c9de 2636
00000390: e4fe fb36 8aed 2939 3d1d f339 4491 0d39
000003a0: ec5f 4038 02f2 3737 3497 d937 4f0d ae36
000003b0: 21d3 b139 237a b938 1be3 4636 e9b3 ad37
000003c0: 2826 ea39 5a7d 6b39 1a09 a538 75b8 eb35
000003d0: d687 6736 2547 0b39 7d13 123a d928 6639
000003e0: 15d1 8238 a3c5 5037 09ad bb37 80ef 5e35
000003f0: 0acf 2339 b42f ce38 19c5 8636 9d61 7d37
0.0017073688 0.0072815344 0.0016751358 0.00012282067 0.00024136898 0.011672955 0.008666516 0.016760468
0.00101802 8.222761e-05 0.0007634765 2.8271525e-05 0.019368043 0.002149005 0.00010845124 0.00033520858
0.00067195785 0.0019319163 0.00017432486 7.366605e-06 1.3687613e-05 0.0011856795 0.0052430006 0.0012449926
0.00010271869 6.471415e-05 0.0003053166 5.183809e-06 0.004257211 0.0006419811 7.0348633e-06 2.9732477e-05
0.013810633 0.0022737721 0.001358213 4.9901726e-05 0.00035344486 0.0012852026 0.019568611 0.01581181
0.0002120227 0.00043634244 0.00062206836 0.00014219545 0.009641762 0.0017247504 6.614333e-05 0.0005181814
0.006315634 0.01237702 0.0011610842 1.1734943e-06 9.713116e-05 0.005745335 0.026038047 0.00035286057
0.0017582094 0.0006166997 0.0011600988 8.265954e-05 0.00925339 0.0010886729 6.400773e-05 6.533851e-05
3.095741e-05 3.9021365e-05 8.488032e-06 9.4798025e-07 3.0573385e-06 2.0282221e-05 0.00011629478 1.7905233e-05
1.1584597e-05 5.3746708e-06 1.00363395e-05 1.0816962e-06 2.7190245e-05 8.744845e-06 7.0038425e-07 2.1388862e-06
0.0028091196 0.007407385 0.0004437264 7.986791e-06 8.455658e-05 0.003051368 0.015471596 0.0007308633
0.0016623809 0.00050614803 0.00068979507 0.00014469941 0.0035646278 0.00018335058 2.3661441e-05 6.390515e-05
0.00038752696 0.00075046 0.0002346406 2.017491e-06 1.220565e-05 0.0009159651 0.00071584154 0.00044243023
0.00013608731 1.1614244e-05 7.5009084e-05 2.3709756e-06 0.0012906342 0.00043094408 4.930551e-06 3.2293974e-05
0.019866282 0.020524533 0.0044229254 5.961619e-06 2.9630746e-05 0.012470586 0.024750914 0.0040690396
0.0060530244 0.0008996987 0.0015187991 9.9893165e-05 0.004742483 0.0025001618 0.00025271796 8.411837e-05
0.021351475 0.015247169 0.0027185723 4.7928683e-05 0.00011664382 0.0063452176 0.028223213 0.0142342355
0.0053664017 0.0012752038 0.0013841502 0.00025792833 0.00071484863 0.0010579093 0.0002023562 0.000153595
1.7295566e-05 3.550457e-07 3.088833e-07 1.5683983e-07 4.2186514e-07 1.9850436e-06 2.0745732e-05 1.990642e-05
2.9020742e-07 3.1792888e-07 4.9105057e-07 5.4463158e-08 1.5481193e-06 3.4498066e-06 9.158794e-08 4.6036342e-07
0.0009565623 0.0015004491 0.00024410943 5.102606e-06 1.4474053e-05 0.0014172205 0.0019467875 0.00078772276
0.00020598844 5.1311537e-05 0.00013671764 7.752929e-06 0.0020995142 0.00042179067 8.076671e-06 2.4211251e-05
0.0009347016 0.00041391645 0.00011023709 4.856511e-06 2.7979402e-06 0.00019226804 0.0008563872 0.0017092046
0.0003240158 3.9861912e-05 1.758978e-05 1.564875e-05 0.0003807216 2.1096148e-05 1.0660307e-05 1.1839494e-05
0.0020367454 0.0019712595 0.00069433666 2.7573486e-05 4.278549e-05 0.0011994772 0.0014173146 0.0013466518
0.0009004554 4.801539e-05 6.1417944e-05 7.6166125e-06 0.00014691452 0.00010072195 5.1747058e-05 9.135431e-05
0.00067090336 0.0064603705 0.00060573785 3.724608e-05 2.3843908e-05 0.006696279 0.012867968 0.009638144
0.00021264407 0.000115994066 0.00090811535 8.204451e-06 0.018199263 0.0021107367 2.7591535e-05 0.000110282155
0.00011450148 0.00021817964 5.5462348e-05 2.4865606e-06 7.510056e-06 0.00016205586 0.00046370356 0.00013500924
4.58657e-05 1.0963997e-05 2.5938825e-05 5.1871534e-06 0.00033917374 8.844237e-05 2.9636492e-06 2.0706984e-05
0.00044660387 0.00022458044 7.8695084e-05 1.7562548e-06 3.450075e-06 0.00013282576 0.0005572362 0.00021949726
6.2378276e-05 1.2443782e-05 2.2372713e-05 8.3049963e-07 0.0001562202 9.831731e-05 4.0164564e-06 1.51027025e-05

exp_avg f4 [48]
00000000: 5de4 c03d 8394 1a3d 3d59 6d3e d609 123d
00000010: 2f1a 5bbb b528 303c 0d35 953c c390 0a3d
00000020: fdd0 bbbc 3a3a 183c 3ec4 8e3d c056 25bd
00000030: fb05 f2bc e852 2a3d 1aae 8abc 7cea 34bc
00000040: 1e41 be3b f049 a0bc 3722 8abc 2b0a 7dbe
00000050: e871 30bb 9eb9 533c d560 0e3c f96d 8c3c
00000060: b11d c5ba 473e 7dbb 2893 87bb 0a2b ad3a
00000070: 8336 523c 3ecc 2f3c 2d9d f53a 2c8a a4bb
00000080: dc98 71be b396 4cbf 7747 23c0 61b2 49bf
00000090: 0f24 11be 9dc9 b03f d8eb 6f3e 7c54 f8bc
000000a0: 10f7 0abe e210 33be d11a 15bf 3eb7 2f3f
000000b0: dce3 38bf d6ba 7fbe 0e59 c13e 9f37 85be
0.09418557 0.037739288 0.23178573 0.03565391 -0.0033432355 0.010751893 0.018213773 0.03382946
-0.022926802 0.009291226 0.06971024 -0.040365934 -0.029543867 0.04158297 -0.016928721 -0.011042234
0.0058061024 -0.019566506 -0.016862018 -0.2471091 -0.0026923362 0.012922673 0.008690079 0.017142283
-0.0015038756 -0.0038641857 -0.0041374154 0.0013211679 0.012830379 0.0107298475 0.0018738859 -0.005021354
-0.23593467 -0.7991745 -2.5512369 -0.7878781 -0.14173912 1.3811527 0.23429811 -0.030313723
-0.1357081 -0.17486909 -0.58244044 0.6863898 -0.72222686 -0.24973616 0.37763256 -0.26018998

exp_avg_sq f4 [48]
00000000: 7e51 5d3d ff43 7d3b b788 113d 7a97 613a
00000010: 9f3f 6138 1665 fe3a 04c8 ab3a e14d 173c
00000020: 9ee7 1b3d d2f3 7938 36c1 1e3b b94b 9d3b
00000030: 4d3e 2b3b 94e5 ef3c 4a43 d439 7516 0e3a
00000040: 3a28 8739 4cda 2e3b c603 e03b 6af6 533d
00000050: fd7f 7738 a3c8 393c 76b1 cd3a 5769 6c3a
00000060: 416a 0439 6b2b df39 562a 8e39 693c 2738
00000070: 01be 293d c1a7 e73b 0c92 3037 9007 2d38
00000080: 7d45 193e 4cf0 5940 ea45 6f41 339c 553f
00000090: d6b4 9d3c 1f83 1f41 a5d9 e63d a869 d43e
000000a0: 56e7 023e 23e8 a63c f374 6e3e 753a dc3d
000000b0: 0504 813f 0b0e 0d3e f54d 313e 0919 6f3e
0.054032795 0.0038645265 0.035530772 0.00086056406 5.3703432e-05 0.0019408788 0.0013105874 0.009234876
0.038062684 5.95933e-05 0.002422405 0.0048002866 0.0026129663 0.029284276 0.00040485925 0.00054202165
0.00025779178 0.0026680408 0.0068363873 0.05174867 5.9008587e-05 0.011339339 0.0015693146 0.00090183824
0.00012628084 0.00042566223 0.00027115893 3.9872164e-05 0.041440967 0.0070695584 1.0524422e-05 4.1253457e-05
0.14967914 3.4052916 14.954569 0.83441466 0.019251268 9.969512 0.11271981 0.4148686
0.1278356 0.020374363 0.232868 0.10753337 1.0079352 0.13774888 0.17314894 0.23349394

exp_avg f4 [48]
00000000: 5de4 c03d 8394 1a3d 3d59 6d3e d609 123d
00000010: 2f1a 5bbb b528 303c 0d35 953c c390 0a3d
00000020: fdd0 bbbc 3a3a 183c 3ec4 8e3d c056 25bd
00000030: fb05 f2bc e852 2a3d 1aae 8abc 7cea 34bc
00000040: 1e41 be3b f049 a0bc 3722 8abc 2b0a 7dbe
00000050: e871 30bb 9eb9 533c d560 0e3c f96d 8c3c
00000060: b11d c5ba 473e 7dbb 2893 87bb 0a2b ad3a
00000070: 8336 523c 3ecc 2f3c 2d9d f53a 2c8a a4bb
00000080: 7535 81be e191 3cbf 14ff 10bf df3e 1abf
00000090: ff0e b5bd 922e d03d 6074 703e 7135 b83b
000000a0: 59f7 eebd fd23 8ebc 912d 69be f2eb 163e
000000b0: a0e9 ebbe 679d 90be 8db9 c13d aa05 0ebe
0.09418557 0.037739288 0.23178573 0.03565391 -0.0033432355 0.010751893 0.018213773 0.03382946
-0.022926802 0.009291226 0.06971024 -0.040365934 -0.029543867 0.04158297 -0.016928721 -0.011042234
0.0058061024 -0.019566506 -0.016862018 -0.2471091 -0.0026923362 0.012922673 0.008690079 0.017142283
-0.0015038756 -0.0038641857 -0.0041374154 0.0013211679 0.012830379 0.0107298475 0.0018738859 -0.005021354
-0.25236097 -0.73660094 -0.5663922 -0.60252184 -0.08840751 0.101651326 0.23481894 0.005621605
-0.116682716 -0.017351145 -0.22771288 0.14738443 -0.4607668 -0.28245088 0.09459219 -0.13869348

exp_avg_sq f4 [48]
00000000: 7e51 5d3d ff43 7d3b b788 113d 7a97 613a
00000010: 9f3f 6138 1665 fe3a 04c8 ab3a e14d 173c
00000020: 9ee7 1b3d d2f3 7938 36c1 1e3b b94b 9d3b
00000030: 4d3e 2b3b 94e5 ef3c 4a43 d439 7516 0e3a
00000040: 3a28 8739 4cda 2e3b c603 e03b 6af6 533d
00000050: fd7f 7738 a3c8 393c 76b1 cd3a 5769 6c3a
00000060: 416a 0439 6b2b df39 562a 8e39 693c 2738
00000070: 01be 293d c1a7 e73b 0c92 3037 9007 2d38
00000080: 564e 973d 5dc5 0a40 b08f d53e 8a7c fe3e
00000090: 9679 053c e3da fc3c 0b2f 0b3e deb0 af3c
000000a0: 4a77 093d 9705 e03b bc21 db3c 494f 0d3d
000000b0: 35de ea3e 87a2 3f3d 3e10 613b 93db d73d
0.054032795 0.0038645265 0.035530772 0.00086056406 5.3703432e-05 0.0019408788 0.0013105874 0.009234876
0.038062684 5.95933e-05 0.002422405 0.0048002866 0.0026129663 0.029284276 0.00040485925 0.00054202165
0.00025779178 0.0026680408 0.0068363873 0.05174867 5.9008587e-05 0.011339339 0.0015693146 0.00090183824
0.00012628084 0.00042566223 0.00027115893 3.9872164e-05 0.041440967 0.0070695584 1.0524422e-05 4.1253457e-05
0.07387988 2.168296 0.41711187 0.4970439 0.008146664 0.030866092 0.13592164 0.021446642
0.03356103 0.006836604 0.026749484 0.03449944 0.45872656 0.046785858 0.0034341956 0.10539927

exp_avg f4 [1, 16]
00000000: b3bf 72bf 1431 073c bf34 2ebe 7707 043d
00000010: d777 713d 5bd5 9abe 8a8f fa3d f806 7cbf
00000020: 79bd cdbd 68fe 53be ba29 7a3d 0d77 a2bd
00000030: f91d e53e c28c b93e bdf8 47bd 30e4 be3c
-0.9482376 0.008251447 -0.17012309 0.03223368 0.05895218 -0.30240902 0.12234409 -0.98448133
-0.10045905 -0.20702517 0.06107495 -0.079328634 0.4474943 0.36240202 -0.0488212 0.023302168

exp_avg_sq f4 [1, 16]
00000000: 8455 2d3e 1c87 943b 5fdf b23b 96d9 be39
00000010: ffa7 183b 4402 9b3c 4abf e93c 61c4 663e
00000020: e82a 943b 7e1b dd3b c3e2 2a3a c389 7b3a
00000030: 0f76 833d 8e57 a53c 6866 fe39 a30b 1d3a
0.16927153 0.004532708 0.005458757 0.00036401738 0.0023293493 0.018921979 0.028533597 0.2253585
0.0045217164 0.006747662 0.00065187755 0.0009595418 0.06419002 0.02018335 0.00048522954 0.0005990809

weight_ih_l0 f4 [48, 1]
00000000: 8ae3 f53f a91f 953f c74a 89bf 3b59 66bf
00000010: 329a 1940 3022 b13f 3a22 6140 337f f23e
00000020: 40e3 babf 3f51 b440 ad68 53bf dac3 723e
00000030: 0fcf 413e eb7a 47bf 6e54 eebe fc76 bb3e
00000040: 772a 673e 0009 4e3f 30ec aa40 8aff 7cbf
00000050: 8404 6740 2769 32c0 26e9 1c40 5373 ce3e
00000060: e7ca 103f 17ff febf eada 9f3f dd94 a03e
00000070: ec2d 853f 679a a03f 1838 d0be 2a43 b9be
00000080: 9636 b4bf cb88 06c0 d378 4bc0 af57 18be
00000090: 7096 c63f 927f e040 24ef f13f a944 ecbd
000000a0: 1e04 cbbf ea2d ec3e 850f 033f e30d 53bf
000000b0: 28d2 1fc0 6f05 943e c01a 72bf f3cd 2a3e
1.9210064 1.1650287 -1.0725945 -0.89979905 2.4000363 1.3838558 3.517714 0.4736267
-1.4600601 5.6349177 -0.825816 0.23707524 0.18926643 -0.7792193 -0.4654879 0.36614215
0.22574793 0.8048248 5.3413315 -0.9882742 3.6096506 -2.787668 2.4517303 0.4032236
0.56559604 -1.9921597 1.2488682 0.31363574 1.0404639 1.254712 -0.40667796 -0.36184055
-1.4079158 -2.1020992 -3.1792495 -0.14877199 1.551466 7.0155725 1.8901105 -0.115365334
-1.5860631 0.4612878 0.51195556 -0.82443064 -2.497202 0.28910396 -0.9457207 0.16680126

weight_hh_l0 f4 [48, 16]
00000000: 3c93 1cbf ecda b6bb 6c60 26bf b9c1 98bf
00000010: 1e13 b83e 9bcd 3c3f c7e4 2dbe 82a3 0dbf
00000020: 0203 48bd 74ba 1c3f 81fe 5fbe c7e1 1ebf
00000030: ecfc 0d3e 878e 023f 2cd9 93bc a928 693e
00000040: 2cbc 0b3e 4bca 30bf 287a c3bf 78d8 73bf
00000050: 7479 4a3b e3eb 893f 6ee6 3a3e 114a 34bf
00000060: 9ee7 74be e32d 953f 8759 c53e 3ed4 35bf
00000070: 4ec3 a5bd ad98 a7be 0ae9 60bf 6287 513f
00000080: 3d7c 7cbc 4b62 24be 8f3d 52be 2aca 88c0
00000090: 8dce 2d3e dbf8 453e a8bc d6bd cc17 80bd
000000a0: bf8f eeb8 cb21 6cbf e379 c23e 6250 173f
000000b0: 3a64 8e3e 2753 7dbe 1fee b83f 2e4d 0e3f
000000c0: 53b4 093e e93b e13d c7a4 273e aed3 3d40
000000d0: 8817 be3e e236 083e 08ae 493d 0f23 45bf
000000e0: f4cc 09bd c567 ab3d 06e3 52be 41f2 06bf
000000f0: 80f9 9d3e 7ed2 ae3e bfa0 c43f 708c 6a3f
00000100: d2d1 afbf b13c 0c3f d6ad 0f3f 5654 823e
00000110: a5b1 6cbe ed34 34bf c319 0e3e 66bd c7be
00000120: 29c1 643f f393 0abe 3f2a 84be 9f19 81be
00000130: 5cfd bd3d 5454 b2be f45e 37bf d509 56bf
00000140: b1fc ff3d 94ca 8dbe 8596 69bf 7249 e9be
00000150: 6a09 e9be 5efe d83f 9ec3 5f3d 011d 0a3f
00000160: 70bf 5bbe 5c24 e1be 6fcb d73e 1f04 383e
00000170: b716 833e 8c8b 3c3d ad40 143f 1134 813d
00000180: f600 9bbf dc51 cebe bfda 94bf bda4 8640
00000190: 1b45 d43c 8eb8 ce3f 8451 d23e b33c c5bf
000001a0: 925f d5be ec9d fa3e 1589 943f f252 37c0
000001b0: d5b5 603d 65ef a53f 4e66 c6be d8db dbbf
000001c0: fff3 dcbd d340 a93e 0b26 01bf 927f a9c0
000001d0: f455 b6be 2f04 1ebe 71eb febe e1e9 303e
000001e0: a4a5 97bd cdc9 8dbd 5140 023f e704 15be
000001f0: a0fc a5bd afbf b23d 712e 9bbf 2b85 c03f
00000200: ea16 59bc d562 4abe 4adf 803f 4cff ea3f
00000210: 5281 2a3f 5252 a03e e6cc f53e 17f3 a93d
00000220: 227c 073e 4754 7c3e e955 193f e1ba 59be
00000230: 6ab1 69bf 9c4f 1e3d 0cf2 763e 4375 143f
00000240: de9f d1bf c8db b0c0 cdbe 7dc0 6e3b 9bc0
00000250: f925 9f3e 0d67 bf3e 2b33 8d3f 6a1b b3be
00000260: 2613 8fc0 7b30 a63e 33aa 953f f25f d5bf
00000270: 936c 03c1 92f4 c63d 6ce0 40bf 6b4a f13f
00000280: aa3c 4ebd 6607 ec3e 5a15 cc3e 104a 44be
00000290: f114 983d 9d21 7dbd 3a00 45be 296a c53e
000002a0: edf1 ea3e 253a 8c3e 1cd2 1d3e 2fe3 e9be
000002b0: 9f13 8f3c d9a9 973e c08c c03e 7fcc f93e
000002c0: c46e 2a3e 514b 94bd 13d0 673e 774b b83f
000002d0: ab10 6e3f 061d 903f ceea a0be 2735 ff3e
000002e0: a27a 023e 9182 66be 6289 f23f 7bb5 ebbd
000002f0: 0e88 00bf 7a37 33be 070d 63bf 0bdb 0740
00000300: ea35 143d 9df1 0d3f 9d05 dd3e e1e1 dc3f
00000310: 839a 43bf 0720 d93d c5b1 b2be bf63 c0bd
00000320: 04a6 c93e 8f99 97be 7f55 4cbf e964 8dbf
00000330: 9dc1 8d3f 68ad 09be 2f2e 28bd e17f 45bf
00000340: e04c 02be 1464 e83e d996 623f 5b6e f5bf
00000350: 7c70 a8bf 8c1d 40be ee1f bfbe 89d8 b73e
00000360: 6209 223f 81ed 90bf 98d8 98be 1ba7 8abd
00000370: f5b0 743d 9a82 473e 1306 f73e 82f6 80bf
00000380: 2979 b23e 6ebc e23e e420 9d3e ff3f 3540
00000390: 73fc 25bf 3919 913e 2b3e 32ba 8290 bb3f
000003a0: 7a33 233d 990d 2fbf 114c 023f c2ef 643f
000003b0: f3f3 663e e3e4 da3e 3495 35bf cc2b cbbf
000003c0: 61e8 723e e003 22be 9e71 8fbf f39c 86bf
000003d0: b5a8 6fbe 5bc6 b2be 700b ed3b 39d2 a6bf
000003e0: 197f c6be 978d 88be 716a 6fbd 68d2 b63f
000003f0: b99f 2b3e 6b0c 9ebe 8673 9e3f 2356 a83e
-0.6116216 -0.0055802967 -0.6499088 -1.193412 0.35952085 0.7375123 -0.16981803 -0.5532762
-0.048830993 0.61222005 -0.2187443 -0.6206326 0.13866013 0.5099873 -0.018047892 0.22769417
0.13646 -0.69058675 -1.5271654 -0.9525218 0.0030895146 1.0775112 0.18251964 -0.70425516
-0.2391648 1.1654629 0.38544866 -0.7102698 -0.08093892 -0.3273367 -0.8785559 0.818472
-0.01541048 -0.16053121 -0.20531295 -4.274678 0.16973324 0.19333212 -0.10485202 -0.06254539
-0.00011375499 -0.92239064 0.37983617 0.5910703 0.27810842 -0.24738751 1.4447669 0.55586517
0.13447694 0.10997755 0.16371451 2.966045 0.37127328 0.13302186 0.049238235 -0.7700662
-0.033642724 0.08369402 -0.20594415 -0.527134 0.30854416 0.34144968 1.5361556 0.9162054
-1.3735907 0.5478011 0.5612463 0.25454968 -0.23114641 -0.7039326 0.13877015 -0.39011687
0.8935724 -0.13533 -0.2581348 -0.2521486 0.0927684 -0.34829962 -0.7162926 -0.8360875
0.12499369 -0.27693617 -0.912453 -0.45563847 -0.45514995 1.6952627 0.054629914 0.53950506
-0.21459746 -0.43973053 0.42147395 0.17970322 0.25603268 0.04603152 0.5791119 0.06308759
-1.2109668 -0.4029683 -1.1629256 4.2076097 0.025911858 1.6150072 0.41077816 -1.5409149
-0.41674477 0.4894861 1.1604334 -2.8644376 0.05486091 1.2963682 -0.38749927 -1.7176466
-0.10788726 0.3305727 -0.50448674 -5.2968225 -0.35612452 -0.15431283 -0.49789003 0.17276718
-0.0740464 -0.06923256 0.5087939 -0.14552651 -0.08104825 0.08727967 -1.2123548 1.504064
-0.013250092 -0.19764264 1.0068142 1.835916 0.6660358 0.31312805 0.48007888 0.08298319
0.13230947 0.24641524 0.59896713 -0.21262695 -0.9128634 0.03865014 0.24115771 0.5799143
-1.6376913 -5.526829 -3.9647706 -4.8510046 0.31083658 0.3738331 1.103124 -0.34981853
-4.4710875 0.32458863 1.1692566 -1.6669905 -8.214007 0.09714617 -0.7534244 1.8850836
-0.050350823 0.46099395 0.3986004 -0.19168878 0.07425869 -0.061799634 -0.19238368 0.38557556
0.458877 0.2738811 0.15412182 -0.4568114 0.01746541 0.2962177 0.37607384 0.4878883
0.16643816 -0.07240928 0.22637968 1.439803 0.92994183 1.1258857 -0.31429142 0.4984524
0.12742093 -0.22510745 1.8948176 -0.11509224 -0.502076 -0.17501631 -0.88691753 2.1227443
0.03618423 0.554468 0.43168345 1.7256433 -0.7640764 0.10601812 -0.34901252 -0.09394025
0.39384472 -0.29609343 -0.79817957 -1.104642 1.1074711 -0.13445055 -0.04105967 -0.7714825
-0.12724638 0.45388854 0.88511425 -1.9174303 -1.3159328 -0.18761271 -0.37329048 0.3590739
0.6329557 -1.132248 -0.29852748 -0.06770154 0.059739072 0.19483414 0.48246822 -1.0075228
0.34858063 0.44284385 0.30689156 2.832031 -0.6483833 0.28339556 -0.0006799425 1.4653475
0.039844014 -0.68380123 0.5089732 0.8942834 0.22553997 0.42752752 -0.7093079 -1.5872741
0.23721458 -0.1582179 -1.1206548 -1.0516647 -0.234042 -0.34916958 0.0072340295 -1.3032905
-0.38768843 -0.26670524 -0.05845112 1.4282961 0.16760148 -0.3086885 1.2379005 0.32878217

bias_ih_l0 f4 [48]
00000000: 4c30 333e 7c51 623f 0eef 38bf 3c07 e93e
00000010: b6ac 343a 6631 87bf 2c47 8b3f dde4 6bbe
00000020: 7ea5 41be 3f7e 45bd 278b 56be 4dc7 afbe
00000030: 99ac 603e ee3c 48be b467 ecbe a136 babd
00000040: 7a6a a03c d6be fcbc 8c69 28bf 01ba 3a40
00000050: b061 ccbd 6602 ab3e 67d5 82bf afe9 463f
00000060: 2804 0cbf a1b2 3c3f c5b1 093f 2c08 40bf
00000070: f3b7 2c3e 93a4 e63e fe14 023f 0b78 da3d
00000080: ad7b c7bc e2a4 b83d e2e2 99bc b05e 013e
00000090: e48a 293d b925 4abe 60c0 a93d 5ccc 09bf
000000a0: 66db 74bd 9202 2fbe 9ecd fe3d 8e40 443c
000000b0: 4485 7e3e 804e 5f3e 7c95 cf3b 2e73 b6bd
0.17498893 0.88405585 -0.7223977 0.45513332 0.0006892191 -1.056195 1.0881095 -0.23036523
-0.18910787 -0.0482161 -0.2095152 -0.34331742 0.21940841 -0.19554493 -0.4617287 -0.09092451
0.019582022 -0.030852716 -0.6578605 2.9176028 -0.0997957 0.33400267 -1.0221375 0.7770032
-0.5469384 0.73710066 0.5378688 -0.7501247 0.16867046 0.45047435 0.5081328 0.10667428
-0.024350965 0.09015824 -0.018784944 0.12633777 0.041392222 -0.19740953 0.08288646 -0.5382745
-0.059779547 -0.17090824 0.12441562 0.011978282 0.24855524 0.21807289 0.0063349586 -0.089086875

bias_hh_l0 f4 [48]
00000000: 2c05 053f 26ce 113f c2d9 39bf 02cc 6d3e
00000010: 1512 90be 33ea 6cbf 4753 7c3f fe04 53be
00000020: 001b cebe 0edf e33b 2689 5cbe 6057 58be
00000030: 3a6b b43e cccd 1b3d 09be 44bf fd01 65bd
00000040: 1f61 d8bd f64d 2cbe b462 21bf cc44 4340
00000050: a004 653c 7283 113f 1276 4cbf 4753 033f
00000060: b26f f3be e270 4e3f 25b3 c43e 1646 1fbf
00000070: 5777 003e 410c 303f 84f2 953e 2e5f 193d
00000080: 9a6e 1dbf 2629 2ebd 17d2 c3bb aa44 2e3d
00000090: 05cf ba3e f901 643e 6cf0 0b3e 29f9 74be
000000a0: e026 093e 6566 a3bd 3576 04be 29ca 99be
000000b0: 4cd2 453d b9f9 843d f617 8d3c 238e 243d
0.51961017 0.5695518 -0.725979 0.23222354 -0.28138795 -0.9254486 0.9856457 -0.20607373
-0.40254974 0.0069540804 -0.21536693 -0.21127081 0.35238057 0.03803806 -0.7685247 -0.0559101
-0.105653994 -0.16826615 -0.63041234 3.051074 0.0139781535 0.56841195 -0.7986766 0.51298946
-0.47546154 0.80640996 0.38417926 -0.6221632 0.12545525 0.687687 0.29286587 0.037444286
-0.6149689 -0.04251971 -0.0059759724 0.042545952 0.36486068 0.22266378 0.13665932 -0.23923172
0.13393736 -0.079785146 -0.12935717 -0.30037048 0.048296258 0.06492943 0.01722334 0.040174615

weight f4 [1, 16]
00000000: dd98 59bd e12e 23bd c662 ba3d 8104 51bf
00000010: 4405 a5be d770 09be c6f6 353e bf44 0cbc
00000020: e0e3 253d 907b a7be 4ab2 22bf 0320 013f
00000030: 4b24 5ebd e03e d8bd bee3 e33e b9c9 a4be
-0.053124297 -0.03983963 0.09100871 -0.816475 -0.3223058 -0.13421951 0.17769918 -0.008561312
0.04050052 -0.32711458 -0.635533 0.5043947 -0.05423383 -0.105588675 0.4450969 -0.32185152

state f4 [1, 15, 16]
00000000: a569 0bbf 5775 c83d bd3f e5bd 7c97 233c
00000010: c199 5cbc c64c 3abe e3e7 edbe 5fe4 16bf
00000020: ba05 89bd 3bd1 64be 2ec6 e4bc 2b3f b1bd
00000030: f7c7 713e c640 683e aa7e 14bd b0a7 44bd
00000040: 0f91 dd3e 6682 3c3f bd11 8a3e dd09 f23c
00000050: e27b 063d 0f33 38bf db46 75bf 4c19 09bf
00000060: ad80 353e a7e0 1ebd c3b9 8dbe 3dfa 913a
00000070: 5e8d 7f3f b114 dabe 49f7 bd3c cb0a dd3b
00000080: b44f 0abf 8b58 173e 1baa e3bd 78b3 7d3c
00000090: afbc 36bd 5a80 34be ae92 38bf db42 12bf
000000a0: 4691 94bd 6ebc 54be c1b5 9ebd 6d8f bcbd
000000b0: 3cfc 873e 8eef 733e 4a3a c3bc 85e8 cabd
000000c0: b511 09bf cb02 5e3d 6564 c7bd 78a0 553c
000000d0: 5ee9 b73c 0fee 35be 445c 04be 6054 14bf
000000e0: ec44 67bd f0aa 4bbe eb55 a93c fb14 8fbd
000000f0: 8dda 613e 4b1f 613e 0559 26bd d76c 1dbc
00000100: f694 76bf 3aad 3dbf b9ba 18be 7db0 ff3c
00000110: 0338 b23d ed15 3a3e 8aa6 793f f43c 12bf
00000120: 2dcc a1be 639f 763e f845 6a3e 959b 933d
00000130: fa3c a5be db78 873e 3b3e f8bc 5bc4 263d
00000140: 5b0d 7dbf 07c6 60bf b281 70be f01d 863d
00000150: b5e0 5c3d e178 f83e d1be 703f 0dde 06bf
00000160: 3eaa 00bf 4ce1 883e 4e35 773e 69cf ca3d
00000170: 7f6c d0be 859c 853e c8db 05bd a268 8cbd
00000180: c5fa 7dbf 72f8 69bf f267 5fbe 6ae6 083d
00000190: f777 3d3c 3a89 163f 1108 763f 4a8a 11bf
000001a0: 9d63 07bf 5845 853e 62d6 813e df5c 0a3e
000001b0: cbf6 acbe d040 873e f58b 54bd 2544 20bc
000001c0: 37de 66bf 5390 4cbf 689d 97be 445e d43e
000001d0: 377b 863d c208 2b3f 61fc 7f3f a8b3 f5be
000001e0: 90dd 2bbf 5370 db3e 894f 6b3e 29ba 393e
000001f0: 2f27 36bf ecdb d13e 4062 8e3e 3dca 09bf
00000200: bd00 f3be 9c21 de3d 2ab1 78bd 5785 6f3e
00000210: 0ade 8e3d cc52 bc3c 0c61 af3e e4eb ccbe
00000220: d7ea a5bd 524d ebbd 38b5 7dbd 7330 a7bc
00000230: 7705 afbe 1700 d53e 08fa 513e f514 c6be
00000240: 129e 07bf ca60 f73c 61f4 babd bd9a 6d3c
00000250: cb67 163d 022b 35be 01d0 033d 297d 14bf
00000260: 8828 55bd 1f37 2dbe b549 423d 9039 6cbd
00000270: d846 753e d2e0 543e ec69 28bd ba2e c83c
00000280: 2543 08bf 5b43 313d 945b c1bd acaf 6f3c
00000290: c06c ef3c e874 34be 38a4 5fbd 1321 14bf
000002a0: f519 62bd c89e 3bbe f81f 113d 1774 83bd
000002b0: 619d 6e3e cf4d 593e 9d12 29bd 6c40 1c3c
000002c0: ac5d 7dbf 4cea 73bf 4ab8 6bbe 7073 093d
000002d0: 7df5 1bbd 7190 4e3f 169f 783f 747d 10bf
000002e0: 3173 17bf 55b8 833e d0df 853e db98 353e
000002f0: b217 9ebe 66ea 883e f9e8 c3bd 028f 3bbd
00000300: 76e0 09bf fe6a 38bd c6fb eabd eedc 83bc
00000310: 7929 1a3d b03f 61be 4a9a 873e d87c 2bbf
00000320: a9fd 40bd 323b 1fbe b793 843d 574b 19bd
00000330: e242 a13e 8f93 333e f2dc 16bd a950 013e
00000340: a4f6 08bf 0bb9 543d 1a53 c8bd 9a60 653c
00000350: de81 b73c c4d4 34be 48c1 fabd 00ae 14bf
00000360: 7bf6 6dbd 865b 46be 5140 d33c b4c0 8cbd
00000370: 7973 6d3e eec4 5a3e 5c4e 29bd 9e57 c33a
00000380: e6e5 6abf 220f 20bf 26f4 f2bd 84fd 9b3d
00000390: ea33 023e bbcf ea3d 3c84 7c3f 6496 00bf
000003a0: dcab 77be cf5f 813e d07b 533e 2c22 6b3d
000003b0: e47e b6be 1a26 933e dffb d7bb ca64 34bd
-0.54458076 0.09788006 -0.11193798 0.009984847 -0.013464392 -0.18193349 -0.46465978 -0.58942217
-0.066905454 -0.2234544 -0.02792653 -0.086546265 0.23611437 0.22680959 -0.03625361 -0.04801148
0.43274733 0.7363647 0.26966658 0.029545719 0.032832988 -0.7195291 -0.9581124 -0.53554225
0.17724867 -0.038788464 -0.27680787 0.0011137199 0.99825084 -0.4259391 0.023189204 0.0067456714
-0.5402787 0.1477987 -0.111164294 0.015484683 -0.044613536 -0.17627087 -0.72098815 -0.57133263
-0.07254271 -0.20775005 -0.077495106 -0.09207044 0.26559627 0.23821852 -0.023831505 -0.09907631
-0.53542644 0.054201882 -0.097359456 0.013038747 0.022450145 -0.17766593 -0.12925822 -0.57941246
-0.056462213 -0.19889426 0.020670852 -0.069864236 0.22056027 0.21984594 -0.04061224 -0.009608469
-0.96321046 -0.7409245 -0.14914979 0.031212086 0.0870209 0.18172427 0.97519743 -0.5712426
-0.31601086 0.24084239 0.22878253 0.07207409 -0.32273084 0.26459393 -0.030303111 0.040714603
-0.98848504 -0.87802166 -0.23486975 0.06548679 0.053925235 0.48529723 0.9404116 -0.5268257
-0.5025977 0.26734388 0.24141428 0.099028416 -0.40707776 0.26095977 -0.032680303 -0.068558946
-0.9921077 -0.9139472 -0.21816996 0.033422865 0.011564246 0.5880314 0.9610606 -0.5685164
-0.5288637 0.26029468 0.25358874 0.1351199 -0.33782038 0.26416636 -0.051891286 -0.009781872
-0.9018282 -0.7990772 -0.2961228 0.4147817 0.0656647 0.6681024 0.99994475 -0.4798863
-0.6713495 0.42859134 0.22979559 0.1813742 -0.7115354 0.409881 0.27809334 -0.53824216
-0.474615 0.10846254 -0.06071583 0.23390709 0.06975944 0.0229887 0.34253728 -0.4002372
-0.08101433 -0.11489357 -0.0619404 -0.020408845 -0.34183857 0.4160163 0.20505536 -0.38687864
-0.5297557 0.03019752 -0.09128643 0.0145022245 0.03672008 -0.17692187 0.03218079 -0.5800348
-0.052040607 -0.16915558 0.047433574 -0.057672083 0.23952806 0.20788887 -0.04111664 0.024436343
-0.53227454 0.043277126 -0.09441295 0.014629286 0.02922666 -0.17622721 -0.05459997 -0.5786297
-0.055200536 -0.18322289 0.03543088 -0.06418627 0.23302223 0.21221088 -0.041277517 0.009536844
-0.98971057 -0.95279384 -0.2301952 0.033557355 -0.038075913 0.8068915 0.97117746 -0.56441426
-0.59160143 0.25726572 0.26147318 0.17734091 -0.30877453 0.26741332 -0.095659204 -0.04579068
-0.53858125 -0.04502391 -0.11473803 -0.016096558 0.037637208 -0.21996951 0.264849 -0.6698737
-0.04711691 -0.15549925 0.06473487 -0.037425365 0.3149634 0.17536758 -0.036831804 0.12628426
-0.53501344 0.051934283 -0.09781475 0.014000082 0.022400793 -0.17659289 -0.12243897 -0.58078
-0.05809639 -0.19370851 0.025787504 -0.06872693 0.2318858 0.21364185 -0.041334495 0.0014903431
-0.9175705 -0.6252309 -0.11862974 0.07616714 0.12715116 0.11465403 0.98639274 -0.5022948
-0.24186653 0.2526841 0.206527 0.057405636 -0.35643685 0.28740007 -0.0065913047 -0.044041432

hpf_coeffs f4 [1, 1, 2]
00000000: 9a99 59bf 0000 803f
-0.85 1.0
