pretrained/muff_gru16_88k_epoch=339-step=314160.ckpt (torch, 24974 bytes, 22 tensors)

model.rec.weight_ih_l0 f4 [48, 1]
000000 af b6 e6 3f cb ba 8d 3f f3 d6 31 40 32 11 51 bf
       1.8024501 1.107263 2.7787445 -0.8166686
000010 d2 ba 9f 3f 48 cb aa 3f 0c e1 e7 3f ba 0f 68 3f
       1.2478888 1.3343287 1.8115554 0.90648997
000020 1e ce c0 bf ec d7 97 40 66 6d ce be b3 9e 61 bf
       -1.5062902 4.7451077 -0.4031784 -0.8813278
000030 40 bf c1 be 87 3a 54 be a2 aa e5 3d 1a 0b 82 bf
       -0.37841225 -0.20725451 0.11214186 -1.0159638
000040 e3 aa 96 3e 78 89 a9 bf 06 4f 32 40 4f 58 a9 bf
       0.2942725 -1.3245077 2.7860732 -1.3230075
000050 ea 30 88 bf 5d dd 36 bf 1b ea 77 3f 03 ea 30 be
       -1.0639927 -0.71431524 0.9684159 -0.17276768
000060 d8 8a f1 bf 05 60 96 3f 00 96 79 c0 da 9c 0d c0
       -1.8870497 1.1748053 -3.8997803 -2.2126985
000070 7d 54 5e bf 1f 4f d2 bd 92 f5 97 3f 06 2c 82 bf
       -0.8684767 -0.102689974 1.1871817 -1.0169685
000080 4a 5a b2 bf 5a f3 4c c0 62 b5 31 c0 f6 cf 75 bf
       -1.3933804 -3.202353 -2.7766957 -0.9602045
000090 e4 40 00 3e 34 ed 52 40 18 f4 a6 3f 88 f9 1f 3e
       0.12524754 3.2957277 1.3043242 0.15622532
0000a0 a0 f9 88 bf 92 21 b4 3e f5 ab 89 3f f3 95 8e bf
       -1.070118 0.35181862 1.0755602 -1.1139511
0000b0 51 13 a0 bf 6b b7 24 3e 57 44 88 3d 2b 93 36 3f
       -1.2505895 0.16085593 0.0665366 0.7131831

model.rec.weight_hh_l0 f4 [48, 16]
000000 74 73 e5 be 98 7e 95 3e ac 09 93 bf ad 75 a0 3e
       -0.44814646 0.29198146 -1.1487327 0.3133978
000010 9a f1 68 3e 1e 4c 8e 3f 5e 3d 8b 3d f3 33 48 3c
       0.22748414 1.1116979 0.06798814 0.012219417
000020 02 c3 e7 bf f8 f0 aa 3e 32 d2 f1 be de 1f ad be
       -1.8106387 0.3338697 -0.4723068 -0.33813375
000030 e5 0f 9c 3d 10 cc cb bd 9a b5 84 3e c9 74 9a 3e
       0.07620219 -0.09951031 0.259198 0.30167225
000040 8b bc 83 be 14 77 90 bf 68 b7 ca bf e4 dc d3 3e
       -0.25729784 -1.128634 -1.5837221 0.41379464
000050 e9 bf 78 3f a4 65 98 3f 93 eb f2 3d 8d 6e 5d bf
       0.9716783 1.1906018 0.118613385 -0.8649681
000060 c7 4b 8b bc 41 48 8d 3f 29 cc e1 3e dc f7 35 bf
       -0.017003907 1.1037675 0.44101074 -0.7108133
000070 22 65 f4 be 60 a0 ab 3d 48 02 8a 3e c6 1f 3c 3f
       -0.47733408 0.083801985 0.26954865 0.7348598
000080 7a 06 8e be 19 1b 32 3f 4e 2e 96 be f2 3c b2 bf
       -0.27739316 0.695726 -0.29332203 -1.3924849
000090 df b0 b8 3f 63 d7 83 3f 37 f9 78 be c7 16 f5 be
       1.4428977 1.0300106 -0.24313818 -0.4786894
0000a0 ea f8 18 3f 7d f1 ce 3e e3 0c 42 3f 78 c6 11 3e
       0.5975481 0.40418616 0.75800914 0.14235866
0000b0 ac 97 51 3f b5 42 42 3f 6c 75 c4 b9 39 e8 e9 3e
       0.8187206 0.75883037 -0.0003747152 0.45684984
0000c0 aa 36 1a bf 3c bf 33 3d 8b 83 b7 be fa b8 3e be
       -0.6023966 0.043883547 -0.35842547 -0.1862525
0000d0 58 8e 54 3e 28 b9 aa bd 3a e0 7f 3d f3 31 69 bf
       0.20757425 -0.08336097 0.0624697 -0.9109184
0000e0 34 de 3d 3f 61 6a 21 3e 87 99 a5 3c 88 bd 1a bf
       0.7416718 0.15763237 0.02021481 -0.6044545
0000f0 fd 6e 23 3e 6b e9 23 3f 3e ad 90 bf f2 2f 00 3f
       0.15960307 0.6402804 -1.1302869 0.5007316
000100 47 0b 19 bf c2 17 ad 3f 1b 63 80 3e d9 d6 55 be
       -0.5978283 1.3522875 0.2507561 -0.20882739
000110 a5 f1 94 bf 12 73 74 3e 64 d0 d8 be fa 2b 9d 3e
       -1.1636244 0.23872021 -0.4234649 0.30697614
000120 75 dc 84 3d f6 fd 3f be 16 e7 98 be ae d1 84 be
       0.06487361 -0.18749222 -0.29863805 -0.25941223
000130 52 50 f4 bc a8 24 47 be cc af a7 3f 05 23 79 bf
       -0.029823456 -0.19447577 1.3100524 -0.9731906
000140 fb 10 a0 be ed d2 aa be 79 2e 8d be 0c 16 fc be
       -0.31262955 -0.3336405 -0.27574518 -0.4923557
000150 a5 5a e9 3c 34 0f 5c 3f 99 92 6e 3e 43 e9 99 3e
       0.028485605 0.859607 0.2329811 0.30060777
000160 3b 39 28 bf 8e 73 13 bd a2 99 bb 3e 90 e6 91 3e
       -0.65712327 -0.035998873 0.3664065 0.28496218
000170 82 3d 71 3d c2 79 26 be 8e 50 1b 3f 65 de 15 3e
       0.05889655 -0.16257384 0.6066979 0.14635618
000180 30 34 47 bf d8 79 0e bf f7 92 35 bf 43 2c 16 3e
       -0.77814007 -0.5565467 -0.70927376 0.14665322
000190 e0 96 bd 3f 6d 57 8e 3f 31 d3 0d 3f 18 00 93 bf
       1.4811668 1.112043 0.5540038 -1.1484404
0001a0 40 b3 08 3f 83 08 aa be cd 63 99 3f b4 5a 51 bf
       0.53398514 -0.3320962 1.1983582 -0.81779027
0001b0 85 28 a1 bd a7 27 36 3f 12 f1 07 40 37 60 b9 3f
       -0.078690566 0.71154255 2.1240888 1.4482487
0001c0 93 95 ab be 8f 2d 8c 3e e3 43 22 bf 79 8b e1 bf
       -0.33512554 0.27378508 -0.63384837 -1.7620689
0001d0 41 33 46 3d f7 96 ba 3e 8d c5 bc be 08 a0 e5 be
       0.048388723 0.36443302 -0.3686947 -0.44848657
0001e0 3f 2f c3 be 35 71 01 3e 78 3c 07 3f 54 45 34 3d
       -0.38121983 0.12640841 0.52826643 0.04401143
0001f0 de 46 8c 3e 15 61 5e be 33 a0 b4 3e e0 41 aa 3e
       0.27397817 -0.21716721 0.35278472 0.33253384
000200 63 60 a2 3f cf 51 68 be f8 95 5c 3f 0e 92 5c be
       1.2685665 -0.22687458 0.86166334 -0.2154009
000210 37 7b 88 bc af b6 4d bf a6 19 fa 3e 9d 38 36 3d
       -0.016660316 -0.8035688 0.48847693 0.044487584
000220 be da c6 3e fd 23 a4 3f 15 f2 2e 3e ef c7 39 3f
       0.38838762 1.2823483 0.17084534 0.725707
000230 96 e8 53 bd b1 9b 3d be 71 b5 93 bd e7 2d 13 3e
       -0.051735483 -0.18516423 -0.072123416 0.14372979
000240 ab d1 16 bf 4e df 5d bf 6e 8e fe bf 54 f4 02 40
       -0.5891368 -0.8666886 -1.9887216 2.0461626
000250 31 14 89 3f 61 6e d2 3f cd f0 ce 3e 5a 11 dd 3d
       1.0709287 1.6439935 0.4041809 0.10794325
000260 d8 18 12 bf 8b 0b d4 3f ce c2 5b bd a6 22 56 3e
       -0.5706916 1.6566023 -0.053652577 0.20911655
000270 e2 85 c3 bf b0 ff 08 3f 39 56 e3 be 54 64 1b 3f
       -1.5275233 0.5351515 -0.4440172 0.60699964
000280 d2 62 6d 3f 93 89 95 3e 6d e2 2d 3e f3 b0 df 3e
       0.9272891 0.29206523 0.16980906 0.4368969
000290 1d 4e c4 3c 65 b3 87 bf 6d 46 1b 3f fa aa f9 3d
       0.023963029 -1.0601622 0.60654336 0.12190814
0002a0 14 8d 8e 3e 1c 91 aa 3e ce 39 78 3f c9 df e2 3e
       0.2784201 0.33313835 0.969632 0.4431136
0002b0 a1 55 03 3f 87 12 5a be e9 f4 6d 3e 19 4c 76 3f
       0.51302534 -0.2129613 0.23237957 0.96209866
0002c0 51 c7 e9 be 3a 0c 93 3e c5 74 7b bf df 11 8d 3e
       -0.4565988 0.28720266 -0.9822505 0.27552697
0002d0 75 0f 5c 3f e6 27 cb 3e 02 79 82 be ac 2d c7 3e
       0.85961086 0.39678878 -0.25482947 0.38902032
0002e0 7d 24 a1 3b 1c 0a d3 3e f2 db 14 3f ad dd 89 be
       0.00491768 0.4121865 0.5814811 -0.26926938
0002f0 a5 9b cc be e9 56 54 bd e1 b5 57 3d 30 15 9e 3e
       -0.39962497 -0.051840696 0.052663688 0.3087554
000300 67 cb 34 be 87 f3 0d 3f 80 a9 9a 3e e0 13 6f 3f
       -0.17655717 0.5544972 0.30207443 0.933897
000310 29 7c c1 bd 7c 30 57 be df 9c 2f 3e d2 5e b8 3d
       -0.0944751 -0.21014589 0.17149685 0.090024605
000320 d0 9c 61 3e e9 84 45 bf 8b 20 2c be 4f 7a ac be
       0.22032475 -0.7715593 -0.16809289 -0.33687064
000330 be 1e 2d 3f c6 be 22 3e c6 80 ed 3e 84 54 00 bf
       0.67625034 0.15893087 0.4638731 -0.5012896
000340 62 6d 8d be ba 44 a2 3d cd af 2a 3b 6a 1a 17 bf
       -0.27622515 0.07923265 0.0026044727 -0.5902468
000350 71 ab be bd 68 3f a5 be 05 75 57 3e 7f 3c 31 be
       -0.093100436 -0.32274938 0.21040733 -0.17308234
000360 d0 ad be 3d 57 0c ef be 14 89 6c bc 57 b8 af bd
       0.09310496 -0.46689102 -0.014436979 -0.08580082
000370 03 9a 2e 3e af 18 41 3f c8 d7 5a 3f 39 ff b3 3e
       0.17050938 0.7542829 0.85485506 0.35155657
000380 b5 0b cf bf 1c 25 81 3e 87 43 0b bf 91 2f a3 3f
       -1.6175448 0.25223625 -0.54399914 1.2748891
000390 01 8d 65 be e2 fd 7e 3f 0d 3b 3c bf 9e f0 53 3f
       -0.2241707 0.99606144 -0.73527604 0.8278903
0003a0 1a 37 df bf dc 6f b7 3f c8 83 58 bf 35 4b d7 bd
       -1.7438691 1.4331012 -0.8457608 -0.105123915
0003b0 e1 84 a7 bd 17 f9 7b be 5f c6 06 bf ee c6 c7 be
       -0.081796415 -0.24606739 -0.5264644 -0.3901896
0003c0 1e 26 0a bf 9f cd 24 3e 4a 16 51 be e7 5e 17 bf
       -0.5396441 0.16094063 -0.20418659 -0.59129184
0003d0 39 e3 77 3e c5 87 8c 3e b5 0c 22 be 2d a1 95 3e
       0.24207772 0.27447334 -0.1582516 0.2922453
0003e0 70 b9 2c bf d8 97 13 3d 23 82 91 be a9 9d d9 3e
       -0.67470455 0.03603348 -0.284196 0.42503098
0003f0 22 99 8a be 58 07 6b be 93 0d dd be 33 98 5b bd
       -0.27069956 -0.2295202 -0.4317442 -0.053611945

model.rec.bias_ih_l0 f4 [48]
000000 d5 11 4e be 73 dd 77 3f 3c fd da be a0 c5 45 3e
       -0.2012399 0.9682228 -0.42771327 0.19313669
000010 be b6 3d 3e 84 8d 13 bf 3d db 05 3f f9 ce a4 be
       0.18526742 -0.5763781 0.52287656 -0.32189158
000020 37 d7 17 be 87 cd 1b be 8b 93 4b be fe e7 44 be
       -0.14828192 -0.15215121 -0.19880502 -0.19229123
000030 89 38 68 be ea b9 2c 3e a3 55 76 be 83 62 6a bd
       -0.22677816 0.16867796 -0.24056105 -0.057222854
000040 91 d0 11 be 45 57 b7 3e f1 63 73 bd 24 29 29 40
       -0.14239718 0.3580877 -0.059421483 2.643136
000050 53 05 03 bf 68 78 e9 3e e2 db 1a bf e4 0f 9f bd
       -0.5118 0.45599675 -0.60491765 -0.07766703
000060 08 65 a2 be 79 f5 4b 3f ed 35 45 3e b7 7a 11 3d
       -0.31717706 0.79671437 0.19258852 0.03551742
000070 f4 3d 13 3f 5f 4a 09 3f 74 8b b6 3e ea 0e 6d 3f
       0.5751641 0.53629106 0.3565327 0.9260088
000080 1d 5e 1d 3e 14 4f 12 3d 6a 11 fd 3c c9 c1 3c 3d
       0.15367933 0.035719946 0.030892093 0.046083245
000090 cc 9f 8c 3d c4 42 ee bd 61 38 0b bd 95 cd 32 be
       0.06866416 -0.11633828 -0.033989314 -0.17461236
0000a0 71 44 b0 bc 7e dd 1e be a9 a6 a6 3d eb 95 27 be
       -0.02151701 -0.1551418 0.08137257 -0.16365783
0000b0 f6 a6 b3 3d 9f 14 f1 3e 91 fd 57 3b ca 45 c3 3c
       0.0877208 0.47086045 0.0032957534 0.023836989

model.rec.bias_hh_l0 f4 [48]
000000 f4 cd 12 3e a8 5a 27 3f 98 d2 dc be 65 d9 f3 bc
       0.14336377 0.65372705 -0.4312942 -0.029766748
000010 9b 47 c6 bd 0f 29 e4 be 22 41 d7 3e 29 5f 98 be
       -0.096816264 -0.44562575 0.4204188 -0.297601
000020 c9 33 b9 be a6 9d c6 bd ba 91 51 be e2 be 76 bd
       -0.3617232 -0.09698038 -0.20465747 -0.060240634
000030 6b 21 c0 bd 05 f6 cd 3e 5b 1f 0c bf 0e f1 b5 bc
       -0.09381374 0.4022676 -0.54735345 -0.02220967
000040 f4 07 89 be 72 f6 61 3e 83 f7 02 bd 04 b4 31 40
       -0.2676388 0.22066668 -0.031974327 2.7766123
000050 3e c6 cb be 15 be 30 3f 16 51 c3 be cc ee ae be
       -0.39799684 0.6904004 -0.381478 -0.34166563
000060 e5 9c 7b be ca b3 5d 3f c5 56 1f 3d 53 68 27 3e
       -0.2457157 0.8660246 0.03890111 0.1634839
000070 e3 2d 08 3f be 04 46 3f 92 aa 10 3e f0 55 5b 3f
       0.5319502 0.77350986 0.14127567 0.85678005
000080 a5 ca a2 be 23 44 c5 bd ff 23 ad 3d f3 1d b7 bd
       -0.3179523 -0.09632137 0.08454131 -0.08941259
000090 26 d2 fe 3e c1 1c 89 3e 56 3d 1e 3e 72 61 08 be
       0.49769706 0.2677975 0.15453085 -0.13318422
0000a0 80 2a 8e 3e db 93 38 be f1 51 b6 be cc 3e 11 be
       0.277668 -0.18025152 -0.3560939 -0.14184111
0000b0 b0 b6 32 bd 05 77 1c 3e 95 f4 a9 3c 3d 7f dc 3d
       -0.043631256 0.15279777 0.020746509 0.10766456

model.linear.weight f4 [1, 16]
000000 4b 57 d8 3d 79 24 f2 3d da f6 b0 3e a7 d3 4e be
       0.10563525 0.11823363 0.34563333 -0.20197926
000010 28 79 33 be f7 52 de 3d cb 02 3c 3e 31 f8 cb 3b
       -0.17526686 0.10855668 0.1836044 0.006224655
000020 63 37 43 3c 55 1f f3 bc 04 1b c8 be b3 b0 b4 3e
       0.011915061 -0.029678026 -0.3908311 0.3529106
000030 f3 a6 5f be b4 36 ea bc 7f 9b f4 bd 55 a1 6f bf
       -0.2184103 -0.028590538 -0.11943721 -0.9360555

exp_avg f4 [48, 1]
000000 81 e6 f7 ba a7 5e 88 ba 3b 3c 6c b8 94 bb 85 3b
       -0.00189133 -0.0010404185 -5.632288e-05 0.004081199
000010 b7 97 81 b9 10 2e 87 39 3e 5b dc 3a 40 19 38 bb
       -0.00024717834 0.00025783526 0.001681186 -0.0028091222
000020 80 27 df ba 15 88 31 b9 60 01 3c ba 83 69 fc b8
       -0.0017025322 -0.0001693073 -0.0007171836 -0.000120359495
000030 9a d4 52 3b 18 87 a8 3b 14 10 9c b9 78 ce bb 39
       0.0032170177 0.0051430576 -0.00029766618 0.0003582125
000040 f2 77 f4 b8 45 e4 5b 3a f9 77 a3 b9 ec ce 2c bd
       -0.00011657168 0.0008388202 -0.0003117917 -0.042189524
000050 d1 c9 8c b9 4c 2b 0f 39 54 e9 3b b9 a6 88 3b ba
       -0.00026853246 0.00013653672 -0.00017920631 -0.0007153846
000060 0d 49 00 38 0a 90 7c bb 51 c3 60 b6 73 82 98 b9
       3.0585612e-05 -0.0038538002 -3.349229e-06 -0.00029088891
000070 0c da 71 38 0f 49 08 3b 51 34 4e b8 ab 58 e7 b8
       5.766195e-05 0.00207955 -4.916295e-05 -0.00011031454
000080 d0 ad c3 3c 36 30 c1 3a bd 53 cc bb 65 83 30 3b
       0.023886591 0.00147391 -0.0062355683 0.0026933786
000090 25 87 b5 bc 9a be 2f bc 8b 46 dd bb c4 8e 81 3d
       -0.022159168 -0.010726595 -0.006752794 0.063260585
0000a0 4d 8b 3c bc 7f fa 4a 3c dd ad 9a 3b 6e 1a e2 3c
       -0.011507821 0.0123888245 0.004720433 0.027600493
0000b0 8f 1c 80 bb 28 9c 01 bd e2 df 2a bc 99 18 d3 ba
       -0.0039096544 -0.031643063 -0.010429354 -0.0016105353

exp_avg_sq f4 [48, 1]
000000 e4 5a c1 38 7b cc 24 37 5e 12 c4 35 e2 52 a3 39
       9.219887e-05 9.822771e-06 1.4608484e-06 0.00031151535
000010 b5 71 3f 37 de 49 62 36 fa b0 bc 38 e9 dc d4 38
       1.1410962e-05 3.371962e-06 8.997503e-05 0.000101500955
000020 b5 ef b6 38 c3 2b d1 34 8a a1 10 36 a1 44 66 37
       8.723085e-05 3.8961124e-07 2.15517e-06 1.3725047e-05
000030 05 15 8a 39 16 74 09 3a 34 72 0e 36 bf dd bc 35
       0.00026337072 0.00052434334 2.1226124e-06 1.4071628e-06
000040 e8 f1 03 35 1d 79 70 37 41 21 35 35 25 28 db 3c
       4.915332e-07 1.4333314e-05 6.7476145e-07 0.02675254
000050 35 88 ca 36 fb 70 ed 35 bc a9 8a 36 b0 d4 f2 36
       6.0359257e-06 1.7690758e-06 4.13248e-06 7.236922e-06
000060 33 5d 33 34 1b e8 3e 39 44 45 c3 34 15 3f be 35
       1.670458e-07 0.00018206278 3.6371978e-07 1.4174462e-06
000070 02 04 ff 35 68 c1 c0 38 08 ae c3 34 75 20 23 35
       1.9000147e-06 9.191298e-05 3.6448205e-07 6.0769463e-07
000080 87 5d 39 3c c3 52 37 3a 6e fe 50 3a ea 1e 07 39
       0.011313803 0.00069932285 0.0007972483 0.0001288612
000090 90 52 94 3b 32 43 54 3b c9 6e b5 39 3d 30 7c 3d
       0.004526444 0.0032388684 0.00034605552 0.06156944
0000a0 43 4a 76 3b 4c 32 7e 3b d7 83 0c 39 8e dd 77 3c
       0.0037580885 0.0038787303 0.00013400555 0.015128506
0000b0 c3 85 0c 3b e5 6c d8 3c 52 43 c1 39 ad 79 3f 39
       0.0021442033 0.026419112 0.00036861986 0.00018260507

exp_avg f4 [48, 16]
000000 5a 06 70 3c 3b fc 98 bb 17 59 9c 3b 58 75 1f 3b
       0.014649952 -0.00466874 0.0047713625 0.0024331417
000010 c4 b9 26 bb 94 90 87 bb a1 56 ad 3c b6 78 b9 3a
       -0.0025440315 -0.004137108 0.021159472 0.0014150355
000020 06 a8 a2 3b e9 b3 39 3b dc dd 4d 3b ec b0 25 3c
       0.0049638776 0.0028335995 0.0031412756 0.010112982
000030 82 50 c6 3b 9d 67 a9 bc b6 7c ec bb 55 ae a0 3b
       0.0060520777 -0.02067929 -0.007217015 0.0049035945
000040 96 2d 16 bc e7 9e fb 3c fe f0 91 39 4c 4e 07 bb
       -0.009166142 0.030715419 0.00027836108 -0.0020646034
000050 e6 6a 3f bc 79 07 16 bc 27 0a 55 bd 0d d0 f4 bb
       -0.011683201 -0.009157055 -0.052011635 -0.0074710906
000060 33 f2 0e bb 85 45 10 bc b0 9e 38 bc d5 e0 7d bc
       -0.0021811842 -0.008805637 -0.011268303 -0.015495499
000070 5c 56 8c 3c ea 28 61 3c 6f 3d cd 3b bc e1 e4 bb
       0.017131023 0.013742665 0.006263427 -0.0069849174
000080 95 3c 71 3b 3a a7 6b bb a3 29 2c 39 08 f8 78 3a
       0.0036809791 -0.003595783 0.00016418709 0.0009497409
000090 26 30 96 b8 70 b5 99 39 2c 97 dd 3b 96 4b 89 3a
       -7.161526e-05 0.00029317616 0.006762406 0.0010474797
0000a0 81 0b 4b 3a c4 9c bf 3a d9 fe ba 3a 26 f4 4c 3b
       0.00077455497 0.0014618863 0.0014266624 0.0031273453
0000b0 00 58 dd b9 71 d8 a5 bb e8 82 d2 ba 41 f5 ce 3a
       -0.0004221797 -0.005061202 -0.0016060742 0.0015789644
0000c0 72 29 96 39 31 b4 20 bd 81 c7 d3 bb 2a f4 20 39
       0.0002864111 -0.039234344 -0.0064629917 0.00015349747
0000d0 e4 d6 54 3c 07 34 8b 3c 28 39 54 3d 57 14 a8 3a
       0.012990687 0.016992582 0.05181232 0.0012823445
0000e0 33 ae 70 39 96 50 fc 3b 1b be 01 3c ec 84 f7 3b
       0.00022953078 0.0077000363 0.00791886 0.0075536873
0000f0 12 c1 99 bc e2 6d e9 3b d8 0f d7 ba 2c f4 04 3c
       -0.01876882 0.0071236948 -0.001640792 0.008114856
000100 74 25 1f 3b ea c4 28 bb 17 c8 59 ba 44 e0 88 3a
       0.0024283798 -0.0025752136 -0.0008307709 0.0010442813
000110 26 0a 51 39 9b 4a 33 39 06 77 8d 3b a0 56 2f 3b
       0.00019935574 0.00017098563 0.004317167 0.0026754513
000120 d5 f8 4b ba 76 cc 2b 3b 83 f4 07 38 dd 75 57 3b
       -0.00077809143 0.0026214398 3.2414227e-05 0.0032876648
000130 21 be 2d bb 0a 63 b3 bb 60 a2 f0 b9 8f ce b8 39
       -0.002651103 -0.005474453 -0.00045897346 0.00035249113
000140 b3 86 8d 3c 09 89 fb bc a1 e5 8b 39 ac e1 5e 39
       0.017276144 -0.030704992 0.00026683233 0.00021255639
000150 a0 8e aa 3b 25 b4 a5 3b aa 12 5a 3d 88 78 2e ba
       0.0052049905 0.0050568753 0.053240456 -0.0006655534
000160 72 ab de 3b c0 a8 ee 3b a6 2a c9 3b a9 5e 77 3c
       0.00679534 0.0072833 0.0061391173 0.015098252
000170 f8 a2 88 bb 13 ab 83 bc 75 60 e4 bb 84 78 26 3c
       -0.004169818 -0.016072785 -0.0069695064 0.010160569
000180 56 17 7f bb 43 66 db bb 31 b5 82 bb e8 7d 00 3a
       -0.0038923821 -0.00669554 -0.003988885 0.0004901574
000190 ee b9 1f 3b b2 b6 ce 3b 6b 2f 70 3b c1 70 64 3b
       0.0024372297 0.0063084 0.0036649357 0.0034857246
0001a0 66 b6 cc bb b5 e3 10 3b c0 64 77 3a 09 f3 83 3a
       -0.0062473295 0.002210838 0.0009437315 0.0010066937
0001b0 d2 6d 06 bc 7c ea 5b ba eb ed 90 3a 5c 2c 77 b8
       -0.008204894 -0.0008389128 0.0011057233 -5.8930702e-05
0001c0 d6 93 33 3c d8 2b 30 3b 34 8e af 3b 81 92 03 ba
       0.01096054 0.0026881602 0.005357528 -0.0005019084
0001d0 30 b2 1d bb fc 5e 00 bc 5d 49 b4 3b df 65 2a bb
       -0.0024062507 -0.007835146 0.0055019096 -0.0026000661
0001e0 ce 67 14 3c 5b 48 f4 3a 6b d7 31 ba 7a 21 b2 3b
       0.009057952 0.0018637286 -0.0006784114 0.0054361196
0001f0 ae 7a 08 3c 46 86 3c bc 9a 6a cd ba 95 a7 c4 3a
       0.00833003 -0.011506623 -0.0015672029 0.0015003557
000200 5e 79 44 3b fa ae 96 3c 7c 89 a3 3b cf e2 25 bb
       0.0029979567 0.018393982 0.0049907546 -0.002531219
000210 51 64 ae bb a1 3a d7 bb 51 a0 7a bc 08 2b ba 3a
       -0.0053220172 -0.0065682684 -0.0152970115 0.0014203498
000220 9e 16 67 ba d2 d2 76 bb 57 11 5e 3a f8 7e 8a 3b
       -0.0008815321 -0.003766228 0.0008471212 0.0042265616
000230 a5 11 f2 3b b4 50 a9 bc 6c 25 ea b8 ca 44 f5 ba
       0.0073873573 -0.020668365 -0.0001116496 -0.0018712517
000240 7c d7 80 3b e4 63 58 bb 7b d1 01 3a 6e 91 0a 3a
       0.0039319377 -0.0033018524 0.00049521745 0.0005285953
000250 18 8e d3 b9 21 4a b1 39 4b f8 f2 3b 80 0a 14 3a
       -0.00040350924 0.000338153 0.0074148527 0.00056473166
000260 c2 53 8e 3a 54 81 c2 3a b9 8d 50 3a 04 e4 60 3b
       0.0010858702 0.0014839568 0.00079556886 0.0034315595
000270 f3 1f 11 3a 40 89 b8 bb 7d a4 c4 ba 4f b7 ff 3a
       0.0005536072 -0.005631596 -0.0015002635 0.0019509586
000280 ef 62 c3 ba e8 dc 4e 3c b5 3b 26 3a 80 64 d9 b9
       -0.0014906804 0.01262591 0.00063412945 -0.00041464344
000290 c9 21 92 bb 4c bb 91 bb 6f 05 9c bc df 1f d9 ba
       -0.004459594 -0.0044473764 -0.01904556 -0.0016565284
0002a0 01 83 16 ba 76 3f 35 bb 6a 03 6f bb 62 56 83 bb
       -0.0005741567 -0.0027656234 -0.003647054 -0.0040081004
0002b0 53 e4 d3 3b e0 6d c2 3a d7 22 d1 3a 7a bd 0f bb
       0.0064664274 0.0014833771 0.0015955818 -0.0021933005
0002c0 28 34 00 3a 58 b1 15 3b 91 7e ef 3a 40 40 14 ba
       0.00048905844 0.00228413 0.0018271973 -0.0005655326
0002d0 54 d7 9a ba 12 e3 e0 b9 b2 18 a8 39 76 58 04 bb
       -0.001181344 -0.0004289379 0.00032061856 -0.0020194328
0002e0 58 71 85 3a 8e 83 ec ba 6b c1 72 3a a2 6c f6 b9
       0.0010180874 -0.0018044577 0.0009260389 -0.00047001714
0002f0 66 e2 8f 3b 87 b5 c5 ba 45 94 83 ba 2b 1b 72 3a
       0.0043910025 -0.0015084007 -0.0010038695 0.0009235616
000300 56 4c 81 3b 9d 51 0a bd 72 00 b5 bb 69 e7 21 bb
       0.0039458675 -0.03376924 -0.0055237347 -0.0024704582
000310 a0 55 e5 3b 3b 37 58 3c 03 2d 33 3d d9 45 b0 bb
       0.0069987327 0.013196762 0.0437441 -0.0053794202
000320 7a a2 1e 3b 1f 82 95 3b 11 9f 9e 3b 02 f8 be 3b
       0.002420573 0.004562631 0.0048407395 0.0058279047
000330 b4 c0 04 bc 6e 16 84 3b 7b 9b b2 ba 5e cb 13 3c
       -0.008102585 0.004030994 -0.0013626659 0.0090206545
000340 3a 6f d4 bb 6e 36 d5 bc 1e 7d 26 bc d6 42 af 3b
       -0.006482986 -0.02602693 -0.010161666 0.0053485436
000350 25 a0 2d 3c 86 d6 98 3c d9 86 f6 3c 47 a7 4a 3c
       0.010597263 0.01865698 0.030093597 0.012368984
000360 9c 2f 5c bc 53 65 12 3c 0c c7 c6 3b 04 2c ca 3b
       -0.013439085 0.00893529 0.0060662087 0.006169798
000370 4f e5 cf bc 71 09 1f 3b db 7b 97 ba cd 6a 6f 3b
       -0.025377898 0.0024267102 -0.0011557298 0.0036532164
000380 d2 c9 e2 3a 33 36 93 39 68 31 fa b8 72 3a 34 ba
       0.0017302579 0.00028078406 -0.000119301316 -0.0006875164
000390 f0 93 4e b8 e2 de ca ba 57 84 c1 b7 c3 5a ce ba
       -4.9252005e-05 -0.0015477801 -2.3069018e-05 -0.0015743602
0003a0 9f b5 9c 3a 45 01 f6 b8 9f e9 36 ba af 0e 4d b9
       0.0011955983 -0.000117304306 -0.0006977561 -0.00019555794
0003b0 49 e8 9c 3a eb c3 24 3a 5d 07 8f 38 98 f8 40 b7
       0.0011971082 0.00062852976 6.820143e-05 -1.1501972e-05
0003c0 9e be 11 3a d6 48 c5 bb 65 7c 5d ba 2d 10 1f 3a
       0.0005559715 -0.0060206456 -0.0008449017 0.0006067779
0003d0 fc c9 d6 3a e2 91 d7 3a c3 e5 eb 3b c0 36 be b9
       0.00163871 0.0016446675 0.0071990206 -0.00036280416
0003e0 e9 37 cc 3a 54 88 cf 3a 13 d0 21 3a 82 07 e5 39
       0.0015580627 0.0015833476 0.0006172668 0.00043683877
0003f0 9d 5c 0a bb c0 97 56 3b 57 e9 2d b9 c9 f6 9f 3a
       -0.002111233 0.0032744259 -0.00016585492 0.0012204285

exp_avg_sq f4 [48, 16]
000000 d6 7e f3 3a 7a 3a 52 3b 2e d9 02 3a ae e3 86 39
       0.0018577229 0.0032078312 0.0004991469 0.00025728106
000010 89 5c 73 3a 74 a3 b7 3a 40 22 b9 3b 41 3e ec 38
       0.0009283503 0.0014010505 0.005649835 0.000112649526
000020 09 a4 ab 39 43 27 58 39 50 d1 72 39 76 57 6b 3a
       0.00032737877 0.00020613991 0.00023156893 0.0008977571
000030 1d f8 57 3b b0 72 57 3b 79 fc fb 39 7b f9 53 39
       0.0032954284 0.0032874756 0.00048062557 0.00020215467
000040 e4 8f 6a 3a 7d 39 01 3c e7 b2 ea 37 75 52 20 39
       0.0008947833 0.007887241 2.7978282e-05 0.00015289507
000050 a1 c3 aa 3a 89 e4 34 3a 5b ef b0 3c 77 65 ba 39
       0.0013028273 0.00069005095 0.021598509 0.00035552282
000060 c1 b3 95 39 81 41 31 3a c1 06 6f 3a 8f a3 eb 3a
       0.00028553422 0.0006761775 0.0009118133 0.0017977821
000070 40 87 31 3b 75 1d fa 3a e7 0c 6e 39 89 09 d7 39
       0.0027088672 0.0019082265 0.00022702255 0.000410151
000080 cd fe 20 39 77 30 3e 39 5e ff 67 37 35 6c 87 38
       0.0001535371 0.00018137867 1.382813e-05 6.457457e-05
000090 03 ae 25 38 a5 60 f9 37 97 ae c1 3a 3c f7 a1 37
       3.9501127e-05 2.9728117e-05 0.0014776763 1.9307823e-05
0000a0 96 9b 45 39 48 0a 38 38 82 ad c6 37 10 0a 90 38
       0.00018845344 4.3878594e-05 2.3684235e-05 6.8683294e-05
0000b0 7d 53 03 38 2a 58 f7 39 f8 d0 08 38 07 b4 20 38
       3.131059e-05 0.000471772 3.2619544e-05 3.8314636e-05
0000c0 1f 20 e6 39 fb 06 fe 3c 4b 91 8a 3a c8 c8 b4 37
       0.0004389295 0.031009188 0.0010571865 2.1551168e-05
0000d0 61 a8 81 3b 2b e7 b2 3b ea 6a 4a 3d ef a2 77 38
       0.00395684 0.0054596863 0.049418367 5.9041133e-05
0000e0 5f f2 9d 39 d6 62 ad 3a 8e 37 a5 3a aa b4 3a 3a
       0.00030125954 0.0013228308 0.0012605058 0.0007122258
0000f0 64 ef 0d 3c 63 d2 76 3b 2f e5 93 38 f9 fc 82 3a
       0.008663032 0.0037662021 7.052195e-05 0.0009993605
000100 1d 42 25 39 64 e7 6b 39 61 27 e8 38 9c 40 81 39
       0.00015760255 0.00022497546 0.00011069957 0.00024652935
000110 ea 35 93 38 45 4b 9f 39 de 74 bf 3a e7 58 3e 39
       7.0195485e-05 0.00030382923 0.0014606973 0.0001815293
000120 5e b9 86 3a d5 f4 51 38 ca 67 12 38 c0 c5 50 39
       0.0010278632 5.00575e-05 3.4905774e-05 0.00019910093
000130 43 69 3b 3a 6e 2f 43 3b 04 d3 a3 38 1c cf 62 38
       0.0007149169 0.002978291 7.8117504e-05 5.4075485e-05
000140 5a fd fe 3a 30 2d c1 3b 74 4e 9b 37 2e 16 a6 38
       0.0019454167 0.0058952793 1.8513972e-05 7.919628e-05
000150 9f 1e b1 39 39 6f 1e 39 b0 e7 9b 3c 4f ec 2a 38
       0.00033782885 0.00015109488 0.019031376 4.0751238e-05
000160 22 23 01 3a 07 84 b7 39 f6 ae 9b 39 fd f6 c0 3a
       0.00049261947 0.00035002848 0.0002969426 0.0014722046
000170 4f 7b 4d 39 58 4e 1d 3b 45 b7 95 39 18 e4 28 3a
       0.0001959626 0.0024002995 0.0002855604 0.000644268
000180 7a 28 0d 3a ad ac 2b 3b 82 1f f7 39 88 08 00 39
       0.00053847546 0.0026195452 0.00047134986 0.0001221021
000190 bc 36 55 3a 41 24 c6 3a 45 96 07 3b e5 27 9e 39
       0.0008133461 0.0015117006 0.0020688933 0.00030165832
0001a0 8a e2 31 3a df c9 4f 39 8a 1a 97 39 bf df 03 39
       0.0006785771 0.00019816261 0.00028820737 0.00012576485
0001b0 a0 f7 71 3b 6e f1 d0 39 4a e3 59 38 1b 34 b0 36
       0.0036921278 0.0003985273 5.194851e-05 5.2512746e-06
0001c0 56 5a ee 39 4e 3f bd 3b fb b9 b2 39 f4 53 00 38
       0.00045462203 0.005775369 0.00034089372 3.0595766e-05
0001d0 ee c4 46 3a 32 06 b2 3a d6 5c 0a 3c 5f 1b 8d 38
       0.00075824454 0.0013582169 0.008444985 6.728502e-05
0001e0 5e 48 b5 39 b6 87 c4 39 98 17 31 39 99 0f 28 39
       0.00034576928 0.00037485146 0.00016888825 0.00016027539
0001f0 9d a2 d0 3a 41 cc 94 3a f2 80 0c 38 3d e6 67 39
       0.0015917603 0.0011352376 3.349869e-05 0.00022115647
000200 93 10 7f 3a cc ee 70 3b a1 84 00 3a 3b 79 0f 39
       0.0009729948 0.0036763428 0.0004902576 0.00013682705
000210 03 5c 3f 39 21 75 c0 3a 09 11 23 3b 8f ca 96 38
       0.00018249456 0.0014683345 0.002488198 7.190287e-05
000220 0d 9a e9 3a 89 f1 a6 38 12 ef 4e 38 1d 80 2c 39
       0.00178224 7.960486e-05 4.933688e-05 0.00016450924
000230 77 7e aa 3a f0 93 31 3b e0 c1 05 38 dd 69 69 38
       0.001300766 0.0027096234 3.189023e-05 5.565012e-05
000240 28 36 ca 38 4b d8 fc 38 b1 f1 cf 36 88 72 22 38
       9.642198e-05 0.00012056584 6.1972173e-06 3.8730475e-05
000250 71 d5 66 37 a5 70 41 37 97 b9 04 3a 6a 15 15 38
       1.3758764e-05 1.15299235e-05 0.00050630554 3.554431e-05
000260 1c bd 80 38 ff c6 50 37 f3 88 27 37 a1 53 b3 38
       6.13874e-05 1.24440985e-05 9.985862e-06 8.550962e-05
000270 34 85 cf 36 cd e0 ef 39 69 2e 48 37 85 54 bb 37
       6.1845876e-06 0.00045753122 1.1931735e-05 2.2331495e-05
000280 f4 4a 2d 38 19 57 3c 3a b4 ae 18 36 24 f7 67 37
       4.131622e-05 0.00071846094 2.2751456e-06 1.3826215e-05
000290 a4 8f dc 38 8f 58 af 38 20 a3 db 3a 38 20 ba 37
       0.000105171726 8.3611456e-05 0.0016756989 2.218793e-05
0002a0 44 1a 14 37 59 3b 1f 38 85 01 6f 38 79 c8 d0 38
       8.827603e-06 3.7963826e-05 5.6983456e-05 9.955554e-05
0002b0 c6 ac 59 39 46 ad d9 38 4e 0e 82 37 6c e2 f4 37
       0.00020759096 0.00010379641 1.5503869e-05 2.9192503e-05
0002c0 ef 99 50 39 87 56 1a 3a 93 63 05 39 c5 a1 93 39
       0.0001989377 0.00058875274 0.00012720963 0.00028158553
0002d0 42 e9 ce 38 b7 17 8c 39 0d 12 23 3b 7b a0 58 39
       9.866293e-05 0.0002672055 0.0024882585 0.00020659149
0002e0 50 e3 46 3a 94 30 6c 38 b1 ed 2a 38 ba 5c 5d 39
       0.0007586973 5.6312027e-05 4.0752526e-05 0.00021110746
0002f0 e2 1b 6a 3a 9c 70 2e 3b 90 be 2d 39 1f ad bc 38
       0.00089305465 0.0026617413 0.00016569556 8.996785e-05
000300 86 01 3a 3a 83 5c 98 3c 4a aa 32 3a bb da 87 38
       0.0007095564 0.0185988 0.0006815536 6.478043e-05
000310 5f ed c5 3a aa e3 90 3b 2d d8 da 3c 72 af 30 39
       0.0015100649 0.004421671 0.026714409 0.00016850026
000320 40 85 99 39 b1 f6 e8 39 e3 7a f7 39 9d cd 87 39
       0.00029281713 0.00044434288 0.0004720307 0.000259024
000330 ce 79 44 3b 13 33 3a 3b 04 9f aa 38 06 23 59 3a
       0.0029979828 0.002841179 8.135851e-05 0.0008283112
000340 bc 7c 65 3a 76 3b b8 3c 41 07 38 3b 2b 1c 48 3a
       0.00087542436 0.02248929 0.0028080496 0.0007633592
000350 7e 03 ac 3b de af 0f 3c a7 f1 fa 3c c3 87 0d 3b
       0.0052494397 0.008769957 0.030632807 0.0021595813
000360 84 97 24 3b cc a7 0e 3b 2c cf 33 3b 1d 06 16 3b
       0.0025114724 0.0021767495 0.0027436716 0.0022891827
000370 b0 aa b7 3c 60 1c 44 3a 4b fd 26 39 40 8c c7 39
       0.022420257 0.0007481035 0.00015925353 0.00038060732
000380 62 b2 36 37 e6 3f 16 39 88 5f 98 36 d1 46 65 38
       1.0889578e-05 0.00014328919 4.5410743e-06 5.4663808e-05
000390 98 6a 62 37 4e d5 10 38 ca 09 c9 39 c6 21 02 38
       1.3495468e-05 3.453093e-05 0.00038345 3.102587e-05
0003a0 76 33 2c 38 e6 76 f1 37 a4 33 83 37 66 78 dc 37
       4.1055922e-05 2.8784805e-05 1.5640464e-05 2.6282109e-05
0003b0 3d 12 21 38 b7 60 ac 39 cd 7a bd 37 5a e6 33 37
       3.8402377e-05 0.00032878455 2.258774e-05 1.0722864e-05
0003c0 9e 7b 05 39 ef a3 8b 3a 99 dd 54 36 d1 4e b9 36
       0.0001272992 0.0010653714 3.1719449e-06 5.522605e-06
0003d0 11 ec bb 38 8c 00 a5 37 ec 56 68 3b 1c 48 5a 37
       8.960826e-05 1.9669787e-05 0.00354522 1.3010602e-05
0003e0 be 98 65 39 23 f0 05 38 59 63 14 38 5e 2e 6c 38
       0.00021896043 3.1933316e-05 3.5378474e-05 5.6309967e-05
0003f0 3e c5 72 38 07 85 93 39 4a c4 b6 36 d6 90 82 38
       5.7880992e-05 0.00028137138 5.4468737e-06 6.225861e-05

exp_avg f4 [48]
000000 db e0 01 bd 9e 07 71 3d da 18 32 bc 42 2d 64 bc
       -0.03170858 0.058845155 -0.010870183 -0.013926806
000010 0a 0a 8d bc c8 d7 0f bd 22 8b 73 bc ee ee ac bb
       -0.017216701 -0.035117894 -0.014864715 -0.005277506
000020 a1 f2 d7 bc 07 53 1c bc 6a 4f 55 3c c8 6a e9 3b
       -0.026360812 -0.00954128 0.013019422 0.007123325
000030 b5 1a 8f 3b b2 14 3e bd a4 cc 32 3b a2 26 32 3b
       0.0043671974 -0.046406455 0.002728262 0.0027183671
000040 38 e9 6b 3c 58 38 ab 3d e8 84 04 3c 58 5e ae 3b
       0.014398865 0.08360356 0.008088328 0.0053213052
000050 49 92 54 3c 87 80 2c 3d 86 f0 00 3b 31 3c 02 bb
       0.01297433 0.04211476 0.0019674613 -0.0019872303
000060 de af b2 3b 33 db 38 bc 8c 20 d3 3b 3e b7 2b 3c
       0.005453094 -0.01128273 0.006443089 0.0104807
000070 c8 8b f5 3c 4a 70 b1 3c 87 2d 1a ba cd ce 80 3a
       0.02997388 0.021659989 -0.0005881418 0.0009827256
000080 d5 f0 b8 3d e4 a7 2d 3f 60 05 88 3e b6 9e 65 3e
       0.0903031 0.67834306 0.265666 0.22423825
000090 8d fc 0d bd ee 69 6e bf 42 7f ca bd cc 7b d1 ba
       -0.03466468 -0.93130386 -0.09887554 -0.0015982329
0000a0 a0 3f 60 3d b5 99 a5 be e3 1a 60 bd f6 24 ed bc
       0.054748178 -0.32343832 -0.05471314 -0.028948288
0000b0 33 aa 49 3e 69 ca a6 3d de 37 c3 bd b6 83 0a 3e
       0.19693832 0.081440754 -0.0953214 0.13526806

exp_avg_sq f4 [48]
000000 a4 7b 2f 3c 6d ff c4 3c 0d 7b 95 3a b2 ad 1f 3b
       0.010710631 0.024047578 0.001140447 0.0024365005
000010 0b 78 71 3c d6 84 21 3c e5 41 0b 3c bc bf 80 3a
       0.014738093 0.009858331 0.008499597 0.0009822766
000020 0e d3 d0 3b 15 e1 a1 3a fd 5a 8d 3a 18 2d 81 3c
       0.006372816 0.0012350405 0.0010784563 0.015768573
000030 05 4b 30 3b 2a 16 a1 3d 46 fd a4 3a 5a e9 e9 39
       0.0026900184 0.078655556 0.0012587688 0.00044615084
000040 eb 96 bd 3a f6 d2 bf 3c f7 b3 e1 3b c5 00 26 3d
       0.0014464533 0.023416024 0.0068879086 0.040528078
000050 27 07 e7 3a 1c 7b 35 3c f3 6d 84 3b 93 02 a9 38
       0.0017626033 0.011076715 0.0040414273 8.0590275e-05
000060 f6 32 09 39 bf 5e 17 3c 44 6f 7d 39 0f 2e 8a 3a
       0.00013084323 0.009238898 0.0002416941 0.0010542291
000070 78 da 54 3b 9f a7 35 3c 19 4c 01 38 e4 c8 65 39
       0.003247885 0.011087327 3.0826868e-05 0.0002191398
000080 16 c6 0d 3e c0 01 fd 40 f8 44 70 40 5b 61 5d 3f
       0.13845095 7.9064636 3.7542095 0.8647668
000090 f5 aa a9 3e 4a 0d 43 41 7d 9f 5c 3e 19 e5 68 3e
       0.33138242 12.190744 0.21545215 0.22743644
0000a0 99 30 54 3e 87 13 3c 3f 2a aa 5c 3d 38 92 b0 3e
       0.20721664 0.73467296 0.05387322 0.34486556
0000b0 44 6d 5a 3f 4b 8b b8 3e 85 48 e3 3d 37 4a 8c 3f
       0.85322976 0.36043772 0.110978164 1.0960149

exp_avg f4 [48]
000000 db e0 01 bd 9e 07 71 3d da 18 32 bc 42 2d 64 bc
       -0.03170858 0.058845155 -0.010870183 -0.013926806
000010 0a 0a 8d bc c8 d7 0f bd 22 8b 73 bc ee ee ac bb
       -0.017216701 -0.035117894 -0.014864715 -0.005277506
000020 a1 f2 d7 bc 07 53 1c bc 6a 4f 55 3c c8 6a e9 3b
       -0.026360812 -0.00954128 0.013019422 0.007123325
000030 b5 1a 8f 3b b2 14 3e bd a4 cc 32 3b a2 26 32 3b
       0.0043671974 -0.046406455 0.002728262 0.0027183671
000040 38 e9 6b 3c 58 38 ab 3d e8 84 04 3c 58 5e ae 3b
       0.014398865 0.08360356 0.008088328 0.0053213052
000050 49 92 54 3c 87 80 2c 3d 86 f0 00 3b 31 3c 02 bb
       0.01297433 0.04211476 0.0019674613 -0.0019872303
000060 de af b2 3b 33 db 38 bc 8c 20 d3 3b 3e b7 2b 3c
       0.005453094 -0.01128273 0.006443089 0.0104807
000070 c8 8b f5 3c 4a 70 b1 3c 87 2d 1a ba cd ce 80 3a
       0.02997388 0.021659989 -0.0005881418 0.0009827256
000080 de 0b d0 3d 26 70 f6 3e 2b e3 07 3e 1d 7e 1c 3e
       0.101585135 0.48132437 0.13270251 0.15282483
000090 e9 64 4b bb 61 ca 2c be 48 55 d3 bd 3e 0b ce bc
       -0.003103549 -0.16874076 -0.103190005 -0.025151845
0000a0 e5 52 2e bd 67 65 1b bd d5 9d 7c bb eb cb a4 3c
       -0.042559523 -0.0379385 -0.0038546224 0.020116767
0000b0 98 97 1b 3e 8f 20 26 3d 70 e0 1b bd ee 77 4d 3d
       0.15194547 0.040558394 -0.038055837 0.050163202

exp_avg_sq f4 [48]
000000 a4 7b 2f 3c 6d ff c4 3c 0d 7b 95 3a b2 ad 1f 3b
       0.010710631 0.024047578 0.001140447 0.0024365005
000010 0b 78 71 3c d6 84 21 3c e5 41 0b 3c bc bf 80 3a
       0.014738093 0.009858331 0.008499597 0.0009822766
000020 0e d3 d0 3b 15 e1 a1 3a fd 5a 8d 3a 18 2d 81 3c
       0.006372816 0.0012350405 0.0010784563 0.015768573
000030 05 4b 30 3b 2a 16 a1 3d 46 fd a4 3a 5a e9 e9 39
       0.0026900184 0.078655556 0.0012587688 0.00044615084
000040 eb 96 bd 3a f6 d2 bf 3c f7 b3 e1 3b c5 00 26 3d
       0.0014464533 0.023416024 0.0068879086 0.040528078
000050 27 07 e7 3a 1c 7b 35 3c f3 6d 84 3b 93 02 a9 38
       0.0017626033 0.011076715 0.0040414273 8.0590275e-05
000060 f6 32 09 39 bf 5e 17 3c 44 6f 7d 39 0f 2e 8a 3a
       0.00013084323 0.009238898 0.0002416941 0.0010542291
000070 78 da 54 3b 9f a7 35 3c 19 4c 01 38 e4 c8 65 39
       0.003247885 0.011087327 3.0826868e-05 0.0002191398
000080 a0 13 67 3d ac c8 a5 40 ba 81 23 3f 37 dd d0 3e
       0.0564152 5.180746 0.6386982 0.40793774
000090 b0 1e 1f 3d 23 c7 0e 3f d4 da 64 3e 4f 8d 08 3d
       0.038847625 0.5577261 0.22349101 0.033337887
0000a0 91 02 27 3d 95 8f 2f 3d f3 0f f6 3b e0 f0 d4 3d
       0.040773932 0.04286154 0.0075092255 0.10397506
0000b0 c3 b8 9e 3e fd b7 fe 3d 35 1e 17 3c ca ca 25 3e
       0.31000337 0.12437437 0.0092235105 0.16190639

exp_avg f4 [1, 16]
000000 e1 96 d0 3c 2d 59 62 3c c1 d2 6e bc d0 de 1b bc
       0.02546257 0.0138152065 -0.014576615 -0.009513572
000010 1b 4c c6 bc 31 19 f5 3b 2a 91 11 be 40 ab f3 3c
       -0.024206212 0.0074798097 -0.14215532 0.029744744
000020 53 d6 e9 bc 53 44 81 3c 7e f1 76 3c 0d 08 4c 3d
       -0.02854458 0.01577965 0.015072225 0.049812365
000030 08 92 8b bc ab 4c 14 be 9c fb ca bb 5b ad 11 3b
       -0.017037407 -0.14482372 -0.006194545 0.0022228572

exp_avg_sq f4 [1, 16]
000000 c2 5b 03 3c 5c 3f 9d 3c e2 27 2c 3b ed 6e 23 3b
       0.008017482 0.019195251 0.002626889 0.0024937943
000010 00 c7 c3 3b 3a ec f4 3b 52 dc 3d 3d 76 6c 13 3c
       0.0059746504 0.0074744495 0.046352692 0.008998027
000020 89 69 32 3c eb c3 b9 3b b4 72 52 3b d5 1d 17 3d
       0.010889419 0.005669107 0.0032111825 0.036893684
000030 f1 4e 15 3c 79 0d 86 3e 4e 9c d0 3a ec e6 76 3a
       0.009113059 0.26182154 0.0015915723 0.00094185653

weight_ih_l0 f4 [48, 1]
000000 af b6 e6 3f cb ba 8d 3f f3 d6 31 40 32 11 51 bf
       1.8024501 1.107263 2.7787445 -0.8166686
000010 d2 ba 9f 3f 48 cb aa 3f 0c e1 e7 3f ba 0f 68 3f
       1.2478888 1.3343287 1.8115554 0.90648997
000020 1e ce c0 bf ec d7 97 40 66 6d ce be b3 9e 61 bf
       -1.5062902 4.7451077 -0.4031784 -0.8813278
000030 40 bf c1 be 87 3a 54 be a2 aa e5 3d 1a 0b 82 bf
       -0.37841225 -0.20725451 0.11214186 -1.0159638
000040 e3 aa 96 3e 78 89 a9 bf 06 4f 32 40 4f 58 a9 bf
       0.2942725 -1.3245077 2.7860732 -1.3230075
000050 ea 30 88 bf 5d dd 36 bf 1b ea 77 3f 03 ea 30 be
       -1.0639927 -0.71431524 0.9684159 -0.17276768
000060 d8 8a f1 bf 05 60 96 3f 00 96 79 c0 da 9c 0d c0
       -1.8870497 1.1748053 -3.8997803 -2.2126985
000070 7d 54 5e bf 1f 4f d2 bd 92 f5 97 3f 06 2c 82 bf
       -0.8684767 -0.102689974 1.1871817 -1.0169685
000080 4a 5a b2 bf 5a f3 4c c0 62 b5 31 c0 f6 cf 75 bf
       -1.3933804 -3.202353 -2.7766957 -0.9602045
000090 e4 40 00 3e 34 ed 52 40 18 f4 a6 3f 88 f9 1f 3e
       0.12524754 3.2957277 1.3043242 0.15622532
0000a0 a0 f9 88 bf 92 21 b4 3e f5 ab 89 3f f3 95 8e bf
       -1.070118 0.35181862 1.0755602 -1.1139511
0000b0 51 13 a0 bf 6b b7 24 3e 57 44 88 3d 2b 93 36 3f
       -1.2505895 0.16085593 0.0665366 0.7131831

weight_hh_l0 f4 [48, 16]
000000 74 73 e5 be 98 7e 95 3e ac 09 93 bf ad 75 a0 3e
       -0.44814646 0.29198146 -1.1487327 0.3133978
000010 9a f1 68 3e 1e 4c 8e 3f 5e 3d 8b 3d f3 33 48 3c
       0.22748414 1.1116979 0.06798814 0.012219417
000020 02 c3 e7 bf f8 f0 aa 3e 32 d2 f1 be de 1f ad be
       -1.8106387 0.3338697 -0.4723068 -0.33813375
000030 e5 0f 9c 3d 10 cc cb bd 9a b5 84 3e c9 74 9a 3e
       0.07620219 -0.09951031 0.259198 0.30167225
000040 8b bc 83 be 14 77 90 bf 68 b7 ca bf e4 dc d3 3e
       -0.25729784 -1.128634 -1.5837221 0.41379464
000050 e9 bf 78 3f a4 65 98 3f 93 eb f2 3d 8d 6e 5d bf
       0.9716783 1.1906018 0.118613385 -0.8649681
000060 c7 4b 8b bc 41 48 8d 3f 29 cc e1 3e dc f7 35 bf
       -0.017003907 1.1037675 0.44101074 -0.7108133
000070 22 65 f4 be 60 a0 ab 3d 48 02 8a 3e c6 1f 3c 3f
       -0.47733408 0.083801985 0.26954865 0.7348598
000080 7a 06 8e be 19 1b 32 3f 4e 2e 96 be f2 3c b2 bf
       -0.27739316 0.695726 -0.29332203 -1.3924849
000090 df b0 b8 3f 63 d7 83 3f 37 f9 78 be c7 16 f5 be
       1.4428977 1.0300106 -0.24313818 -0.4786894
0000a0 ea f8 18 3f 7d f1 ce 3e e3 0c 42 3f 78 c6 11 3e
       0.5975481 0.40418616 0.75800914 0.14235866
0000b0 ac 97 51 3f b5 42 42 3f 6c 75 c4 b9 39 e8 e9 3e
       0.8187206 0.75883037 -0.0003747152 0.45684984
0000c0 aa 36 1a bf 3c bf 33 3d 8b 83 b7 be fa b8 3e be
       -0.6023966 0.043883547 -0.35842547 -0.1862525
0000d0 58 8e 54 3e 28 b9 aa bd 3a e0 7f 3d f3 31 69 bf
       0.20757425 -0.08336097 0.0624697 -0.9109184
0000e0 34 de 3d 3f 61 6a 21 3e 87 99 a5 3c 88 bd 1a bf
       0.7416718 0.15763237 0.02021481 -0.6044545
0000f0 fd 6e 23 3e 6b e9 23 3f 3e ad 90 bf f2 2f 00 3f
       0.15960307 0.6402804 -1.1302869 0.5007316
000100 47 0b 19 bf c2 17 ad 3f 1b 63 80 3e d9 d6 55 be
       -0.5978283 1.3522875 0.2507561 -0.20882739
000110 a5 f1 94 bf 12 73 74 3e 64 d0 d8 be fa 2b 9d 3e
       -1.1636244 0.23872021 -0.4234649 0.30697614
000120 75 dc 84 3d f6 fd 3f be 16 e7 98 be ae d1 84 be
       0.06487361 -0.18749222 -0.29863805 -0.25941223
000130 52 50 f4 bc a8 24 47 be cc af a7 3f 05 23 79 bf
       -0.029823456 -0.19447577 1.3100524 -0.9731906
000140 fb 10 a0 be ed d2 aa be 79 2e 8d be 0c 16 fc be
       -0.31262955 -0.3336405 -0.27574518 -0.4923557
000150 a5 5a e9 3c 34 0f 5c 3f 99 92 6e 3e 43 e9 99 3e
       0.028485605 0.859607 0.2329811 0.30060777
000160 3b 39 28 bf 8e 73 13 bd a2 99 bb 3e 90 e6 91 3e
       -0.65712327 -0.035998873 0.3664065 0.28496218
000170 82 3d 71 3d c2 79 26 be 8e 50 1b 3f 65 de 15 3e
       0.05889655 -0.16257384 0.6066979 0.14635618
000180 30 34 47 bf d8 79 0e bf f7 92 35 bf 43 2c 16 3e
       -0.77814007 -0.5565467 -0.70927376 0.14665322
000190 e0 96 bd 3f 6d 57 8e 3f 31 d3 0d 3f 18 00 93 bf
       1.4811668 1.112043 0.5540038 -1.1484404
0001a0 40 b3 08 3f 83 08 aa be cd 63 99 3f b4 5a 51 bf
       0.53398514 -0.3320962 1.1983582 -0.81779027
0001b0 85 28 a1 bd a7 27 36 3f 12 f1 07 40 37 60 b9 3f
       -0.078690566 0.71154255 2.1240888 1.4482487
0001c0 93 95 ab be 8f 2d 8c 3e e3 43 22 bf 79 8b e1 bf
       -0.33512554 0.27378508 -0.63384837 -1.7620689
0001d0 41 33 46 3d f7 96 ba 3e 8d c5 bc be 08 a0 e5 be
       0.048388723 0.36443302 -0.3686947 -0.44848657
0001e0 3f 2f c3 be 35 71 01 3e 78 3c 07 3f 54 45 34 3d
       -0.38121983 0.12640841 0.52826643 0.04401143
0001f0 de 46 8c 3e 15 61 5e be 33 a0 b4 3e e0 41 aa 3e
       0.27397817 -0.21716721 0.35278472 0.33253384
000200 63 60 a2 3f cf 51 68 be f8 95 5c 3f 0e 92 5c be
       1.2685665 -0.22687458 0.86166334 -0.2154009
000210 37 7b 88 bc af b6 4d bf a6 19 fa 3e 9d 38 36 3d
       -0.016660316 -0.8035688 0.48847693 0.044487584
000220 be da c6 3e fd 23 a4 3f 15 f2 2e 3e ef c7 39 3f
       0.38838762 1.2823483 0.17084534 0.725707
000230 96 e8 53 bd b1 9b 3d be 71 b5 93 bd e7 2d 13 3e
       -0.051735483 -0.18516423 -0.072123416 0.14372979
000240 ab d1 16 bf 4e df 5d bf 6e 8e fe bf 54 f4 02 40
       -0.5891368 -0.8666886 -1.9887216 2.0461626
000250 31 14 89 3f 61 6e d2 3f cd f0 ce 3e 5a 11 dd 3d
       1.0709287 1.6439935 0.4041809 0.10794325
000260 d8 18 12 bf 8b 0b d4 3f ce c2 5b bd a6 22 56 3e
       -0.5706916 1.6566023 -0.053652577 0.20911655
000270 e2 85 c3 bf b0 ff 08 3f 39 56 e3 be 54 64 1b 3f
       -1.5275233 0.5351515 -0.4440172 0.60699964
000280 d2 62 6d 3f 93 89 95 3e 6d e2 2d 3e f3 b0 df 3e
       0.9272891 0.29206523 0.16980906 0.4368969
000290 1d 4e c4 3c 65 b3 87 bf 6d 46 1b 3f fa aa f9 3d
       0.023963029 -1.0601622 0.60654336 0.12190814
0002a0 14 8d 8e 3e 1c 91 aa 3e ce 39 78 3f c9 df e2 3e
       0.2784201 0.33313835 0.969632 0.4431136
0002b0 a1 55 03 3f 87 12 5a be e9 f4 6d 3e 19 4c 76 3f
       0.51302534 -0.2129613 0.23237957 0.96209866
0002c0 51 c7 e9 be 3a 0c 93 3e c5 74 7b bf df 11 8d 3e
       -0.4565988 0.28720266 -0.9822505 0.27552697
0002d0 75 0f 5c 3f e6 27 cb 3e 02 79 82 be ac 2d c7 3e
       0.85961086 0.39678878 -0.25482947 0.38902032
0002e0 7d 24 a1 3b 1c 0a d3 3e f2 db 14 3f ad dd 89 be
       0.00491768 0.4121865 0.5814811 -0.26926938
0002f0 a5 9b cc be e9 56 54 bd e1 b5 57 3d 30 15 9e 3e
       -0.39962497 -0.051840696 0.052663688 0.3087554
000300 67 cb 34 be 87 f3 0d 3f 80 a9 9a 3e e0 13 6f 3f
       -0.17655717 0.5544972 0.30207443 0.933897
000310 29 7c c1 bd 7c 30 57 be df 9c 2f 3e d2 5e b8 3d
       -0.0944751 -0.21014589 0.17149685 0.090024605
000320 d0 9c 61 3e e9 84 45 bf 8b 20 2c be 4f 7a ac be
       0.22032475 -0.7715593 -0.16809289 -0.33687064
000330 be 1e 2d 3f c6 be 22 3e c6 80 ed 3e 84 54 00 bf
       0.67625034 0.15893087 0.4638731 -0.5012896
000340 62 6d 8d be ba 44 a2 3d cd af 2a 3b 6a 1a 17 bf
       -0.27622515 0.07923265 0.0026044727 -0.5902468
000350 71 ab be bd 68 3f a5 be 05 75 57 3e 7f 3c 31 be
       -0.093100436 -0.32274938 0.21040733 -0.17308234
000360 d0 ad be 3d 57 0c ef be 14 89 6c bc 57 b8 af bd
       0.09310496 -0.46689102 -0.014436979 -0.08580082
000370 03 9a 2e 3e af 18 41 3f c8 d7 5a 3f 39 ff b3 3e
       0.17050938 0.7542829 0.85485506 0.35155657
000380 b5 0b cf bf 1c 25 81 3e 87 43 0b bf 91 2f a3 3f
       -1.6175448 0.25223625 -0.54399914 1.2748891
000390 01 8d 65 be e2 fd 7e 3f 0d 3b 3c bf 9e f0 53 3f
       -0.2241707 0.99606144 -0.73527604 0.8278903
0003a0 1a 37 df bf dc 6f b7 3f c8 83 58 bf 35 4b d7 bd
       -1.7438691 1.4331012 -0.8457608 -0.105123915
0003b0 e1 84 a7 bd 17 f9 7b be 5f c6 06 bf ee c6 c7 be
       -0.081796415 -0.24606739 -0.5264644 -0.3901896
0003c0 1e 26 0a bf 9f cd 24 3e 4a 16 51 be e7 5e 17 bf
       -0.5396441 0.16094063 -0.20418659 -0.59129184
0003d0 39 e3 77 3e c5 87 8c 3e b5 0c 22 be 2d a1 95 3e
       0.24207772 0.27447334 -0.1582516 0.2922453
0003e0 70 b9 2c bf d8 97 13 3d 23 82 91 be a9 9d d9 3e
       -0.67470455 0.03603348 -0.284196 0.42503098
0003f0 22 99 8a be 58 07 6b be 93 0d dd be 33 98 5b bd
       -0.27069956 -0.2295202 -0.4317442 -0.053611945

bias_ih_l0 f4 [48]
000000 d5 11 4e be 73 dd 77 3f 3c fd da be a0 c5 45 3e
       -0.2012399 0.9682228 -0.42771327 0.19313669
000010 be b6 3d 3e 84 8d 13 bf 3d db 05 3f f9 ce a4 be
       0.18526742 -0.5763781 0.52287656 -0.32189158
000020 37 d7 17 be 87 cd 1b be 8b 93 4b be fe e7 44 be
       -0.14828192 -0.15215121 -0.19880502 -0.19229123
000030 89 38 68 be ea b9 2c 3e a3 55 76 be 83 62 6a bd
       -0.22677816 0.16867796 -0.24056105 -0.057222854
000040 91 d0 11 be 45 57 b7 3e f1 63 73 bd 24 29 29 40
       -0.14239718 0.3580877 -0.059421483 2.643136
000050 53 05 03 bf 68 78 e9 3e e2 db 1a bf e4 0f 9f bd
       -0.5118 0.45599675 -0.60491765 -0.07766703
000060 08 65 a2 be 79 f5 4b 3f ed 35 45 3e b7 7a 11 3d
       -0.31717706 0.79671437 0.19258852 0.03551742
000070 f4 3d 13 3f 5f 4a 09 3f 74 8b b6 3e ea 0e 6d 3f
       0.5751641 0.53629106 0.3565327 0.9260088
000080 1d 5e 1d 3e 14 4f 12 3d 6a 11 fd 3c c9 c1 3c 3d
       0.15367933 0.035719946 0.030892093 0.046083245
000090 cc 9f 8c 3d c4 42 ee bd 61 38 0b bd 95 cd 32 be
       0.06866416 -0.11633828 -0.033989314 -0.17461236
0000a0 71 44 b0 bc 7e dd 1e be a9 a6 a6 3d eb 95 27 be
       -0.02151701 -0.1551418 0.08137257 -0.16365783
0000b0 f6 a6 b3 3d 9f 14 f1 3e 91 fd 57 3b ca 45 c3 3c
       0.0877208 0.47086045 0.0032957534 0.023836989

bias_hh_l0 f4 [48]
000000 f4 cd 12 3e a8 5a 27 3f 98 d2 dc be 65 d9 f3 bc
       0.14336377 0.65372705 -0.4312942 -0.029766748
000010 9b 47 c6 bd 0f 29 e4 be 22 41 d7 3e 29 5f 98 be
       -0.096816264 -0.44562575 0.4204188 -0.297601
000020 c9 33 b9 be a6 9d c6 bd ba 91 51 be e2 be 76 bd
       -0.3617232 -0.09698038 -0.20465747 -0.060240634
000030 6b 21 c0 bd 05 f6 cd 3e 5b 1f 0c bf 0e f1 b5 bc
       -0.09381374 0.4022676 -0.54735345 -0.02220967
000040 f4 07 89 be 72 f6 61 3e 83 f7 02 bd 04 b4 31 40
       -0.2676388 0.22066668 -0.031974327 2.7766123
000050 3e c6 cb be 15 be 30 3f 16 51 c3 be cc ee ae be
       -0.39799684 0.6904004 -0.381478 -0.34166563
000060 e5 9c 7b be ca b3 5d 3f c5 56 1f 3d 53 68 27 3e
       -0.2457157 0.8660246 0.03890111 0.1634839
000070 e3 2d 08 3f be 04 46 3f 92 aa 10 3e f0 55 5b 3f
       0.5319502 0.77350986 0.14127567 0.85678005
000080 a5 ca a2 be 23 44 c5 bd ff 23 ad 3d f3 1d b7 bd
       -0.3179523 -0.09632137 0.08454131 -0.08941259
000090 26 d2 fe 3e c1 1c 89 3e 56 3d 1e 3e 72 61 08 be
       0.49769706 0.2677975 0.15453085 -0.13318422
0000a0 80 2a 8e 3e db 93 38 be f1 51 b6 be cc 3e 11 be
       0.277668 -0.18025152 -0.3560939 -0.14184111
0000b0 b0 b6 32 bd 05 77 1c 3e 95 f4 a9 3c 3d 7f dc 3d
       -0.043631256 0.15279777 0.020746509 0.10766456

weight f4 [1, 16]
000000 4b 57 d8 3d 79 24 f2 3d da f6 b0 3e a7 d3 4e be
       0.10563525 0.11823363 0.34563333 -0.20197926
000010 28 79 33 be f7 52 de 3d cb 02 3c 3e 31 f8 cb 3b
       -0.17526686 0.10855668 0.1836044 0.006224655
000020 63 37 43 3c 55 1f f3 bc 04 1b c8 be b3 b0 b4 3e
       0.011915061 -0.029678026 -0.3908311 0.3529106
000030 f3 a6 5f be b4 36 ea bc 7f 9b f4 bd 55 a1 6f bf
       -0.2184103 -0.028590538 -0.11943721 -0.9360555
