pretrained/muff_gru64_epoch=625-step=578424.ckpt (torch, 171918 bytes, 22 tensors)

model.rec.weight_ih_l0 f4 [192, 1]
-0.9623479 0.13754697 0.36613017 0.43443602 0.08952536 0.5428622 0.9235275 0.93523633
0.32276925 -0.6826615 0.50828934 0.0077559846 1.2686186 0.7362464 0.1796814 1.0436984
-1.954143 0.27137595 -0.73821276 -0.71961445 -0.016133672 -0.5474105 -2.3976698 2.272072
1.1925129 0.99262404 1.1892743 1.454042 0.42869547 0.1810221 -0.48016006 -1.0141785
-0.46700233 0.8360111 -0.91720396 -0.8323058 -0.30232438 0.37323734 -0.12902313 -0.07078674
0.8199701 0.82395285 0.51326096 1.0277141 -0.7928132 -0.8104648 1.9553443 -0.83977467
3.4480445 0.8134926 -0.33902115 0.7091774 -0.022730984 0.45157227 0.1328104 -4.3764334
0.6911068 -0.9482832 0.12981176 -0.14139573 -0.7364367 -1.0623517 0.13706724 -1.3221645
2.8986328 -0.74089134 0.4138766 -0.9489543 -0.78431207 0.25312442 -0.39627716 -0.060012765
0.49308679 -1.0903844 -0.75145924 -1.1888794 2.657406 -0.60786396 -0.44648227 -0.013905693
0.11305119 -0.16321573 1.1324165 -0.15678568 -0.64326245 0.82363737 -5.7888246 3.0851562
1.6558124 0.42116797 -1.7623461 3.0536296 -5.985723 1.0695142 0.0065642307 -0.47085136
0.15111046 0.6698425 -0.7262012 -0.5617644 -0.15026514 -0.45508322 -0.6708645 0.04295808
6.23992 -0.76543784 -1.0523465 0.16889249 -0.20220098 0.47776562 0.81794715 1.6770688
-0.3310612 1.8910381 0.16007246 -0.68852013 0.19662364 -0.11653366 0.13916984 3.0306227
-0.16939472 -0.20454484 1.0781558 1.802927 -0.34751052 -0.33816123 1.5080298 0.96050525
-0.0026446977 -1.2418112 -0.78925496 0.47456834 -0.8604353 6.818317 -0.43789485 -0.12939715
0.13371943 -0.69654083 2.4334028 0.4712958 1.3970761 -0.58351606 -0.8306434 0.01767714
0.009987655 0.33891678 0.856904 0.22418366 0.47611716 -1.268813 -1.831045 -0.84291035
0.11072718 0.025631124 -0.19210783 0.37359643 0.7113279 -0.5000977 0.6601966 0.17862085
-0.19774473 -0.37394994 0.75615454 -0.19468237 -1.0706819 -0.66034585 -0.29598927 -0.9165226
0.31017992 -0.5997005 5.3018146 -0.65418553 0.29251313 -6.616557 -0.19097462 1.63466
-3.8025134 -0.8234853 0.7448748 -1.1332313 -0.11950164 0.082669824 2.6398137 -0.7446591
-0.041673947 0.27835754 1.3300304 -0.5997613 -0.69904053 0.93759406 5.110832 1.6464404
00000000: 6f5c 76bf 1dd9 0c3e 6a75 bb3e 666e de3e
00000010: 1259 b73d 04f9 0a3f 4c6c 6c3f a66b 6f3f
00000020: 0342 a53e e7c2 2ebf 401f 023f ea25 fe3b
00000030: 1862 a23f a57a 3c3f 67fe 373e e997 853f
00000040: 5c21 fabf caf1 8a3e 83fb 3cbf a738 38bf
00000050: c32a 84bc 1823 0cbf 6c73 19c0 a169 1140
00000060: 43a4 983f 9c1c 7e3f 243a 983f 0c1e ba3f
00000070: f97d db3e db5d 393e 8ad7 f5be 9ad0 81bf
00000080: ee1a efbe d304 563f e1cd 6abf fe11 55bf
00000090: 43ca 9abe f718 bf3e a41e 04be a3f8 90bd
000000a0: 8fe9 513f 93ee 523f 1265 033f 238c 833f
000000b0: cef5 4abf 9f7a 4fbf b948 fa3f 79fb 56bf
000000c0: c3ac 5c40 0d41 503f 2e94 adbe a68c 353f
000000d0: 5436 babc 7b34 e73e 73ff 073e be0b 8cc0
000000e0: 60ec 303f b0c2 72bf 60ed 043e 0bca 10be
000000f0: 1e87 3cbf 24fb 87bf 5b5b 0c3e b03c a9bf
00000100: 3383 3940 0eab 3dbf a2e7 d33e abee 72bf
00000110: adc8 48bf 8699 813e d7e4 cabe f2cf 75bd
00000120: df75 fc3e b791 8bbf a25f 40bf 332d 98bf
00000130: f112 2a40 f99c 1bbf 5399 e4be b4d4 63bc
00000140: 6287 e73d 0622 27be 06f3 903f 6d8c 20be
00000150: d9ac 24bf e6d9 523f 0d3e b9c0 3373 4540
00000160: a9f1 d33f 54a3 d73e 8f94 e1bf ab6e 4340
00000170: 0b8b bfc0 d7e5 883f c218 d73b 6e13 f1be
00000180: b3bc 1a3e cc7a 2b3f 52e8 39bf cbcf 0fbf
00000190: 1bdf 19be ab00 e9be c7bd 2bbf d0f4 2f3d
000001a0: 6dad c740 bcf3 43bf 4ab3 86bf 27f2 2c3e
000001b0: c60d 4fbe b29d f43e fc64 513f 31aa d63f
000001c0: db80 a9be 890d f23f 09ea 233e db42 30bf
000001d0: b557 493e 33a9 eebd 8a82 0e3e b9f5 4140
000001e0: cf75 2dbe 3474 51be 0201 8a3f 50c6 e63f
000001f0: e6ec b1be 7823 adbe 1f07 c13f ace3 753f
00000200: aa52 2dbb abf3 9ebf 9d0c 4abf 9ffa f23e
00000210: 7d45 5cbf a72f da40 c133 e0be b080 04be
00000220: bfed 083e 8050 32bf dfbc 1b40 af4d f13e
00000230: 64d3 b23f 4f61 15bf 0ca5 54bf a6cf 903c
00000240: 43a3 233c 8086 ad3e 0f5e 5b3f 6790 653e
00000250: a1c5 f33e 7768 a2bf af5f eabf f9c8 57bf
00000260: efc4 e23d 5df8 d13c eab7 44be 0848 bf3e
00000270: 9619 363f 6706 00bf a502 293f 62e8 363e
00000280: 987d 4abe 5e76 bfbe 5893 413f d15a 47be
00000290: 1b0c 89bf 6d0c 29bf e88b 97be 3aa1 6abf
000002a0: e7cf 9e3e f985 19bf 77a8 a940 b478 27bf
000002b0: 48c4 953e d6ba d3c0 da8e 43be 8a3c d13f
000002c0: 615c 73c0 efcf 52bf 1db0 3e3f b90d 91bf
000002d0: 47bd f4bd cc4e a93d b5f2 2840 fba1 3ebf
000002e0: 4db2 2abd e184 8e3e 703e aa3f f589 19bf
000002f0: 52f4 32bf 2a06 703f f08b a340 8fbe d23f

model.rec.weight_hh_l0 f4 [192, 64]
-0.08338744 0.38925403 0.045099728 0.13302292 0.6096121 -0.8139117 -0.357831 -0.6791208
0.36215207 0.4775352 -1.446902 -1.1095936 -0.07430202 -0.36881334 0.2994994 1.0337168
0.81049645 -0.117773086 0.18497846 -0.17587736 0.27829465 -0.129572 0.047847558 -0.020386351
0.36524493 1.0967776 0.46567336 0.54371583 -0.35209674 0.7569981 -0.5244777 -0.09539889
-0.23850515 -0.26905373 0.2122379 -0.7083844 -1.1856843 -0.8480262 0.19046512 0.17577317
-0.22479342 -0.14238442 -0.07018598 0.105601095 -0.08314544 -0.45862788 -0.17287348 0.10527029
0.35146287 0.7935587 0.21479537 0.70082 -0.7022416 -0.123161234 -0.514342 -0.30983245
0.126309 -0.9162457 0.7381244 -1.2803632 0.79366386 -0.9678936 -0.15416862 -0.2754194
-1.0636133 0.10970065 1.1840264 -0.942902 -0.14331505 0.11699939 0.29933158 1.9543163
1.1744857 0.0036957988 -0.24818444 0.43772906 -0.3483379 -0.1926546 -0.40856096 -0.36795717
-0.088645 -1.042644 -1.0357367 -0.20742528 1.0962205 0.28611082 -0.02268444 0.00994715
0.24746796 -0.13722223 -1.5605794 -0.8015652 0.02355668 0.9850155 0.15827651 0.53033924
-0.9689177 -0.39826244 -0.24709824 0.6955254 -0.65227294 -0.6560529 0.9571508 -0.92802095
0.16400914 0.028587142 0.3274108 0.0013162175 2.429428 -0.15515113 0.18508886 -1.1184016
0.13140547 1.2916615 -0.7883466 0.44607648 -0.32036853 -0.25152606 -0.67913216 -0.6903726
-1.0730991 -0.44077638 -0.055640034 -0.034340434 0.33057314 -0.48065683 0.2685448 -0.97573227
-1.646464 0.11053258 0.08569502 -0.16381456 1.156123 -0.52973723 -1.1670091 0.35609475
0.09996122 0.68033326 -1.2527806 -0.35006374 0.23974337 0.71171796 -0.3123693 1.0331342
0.6596718 0.9327014 1.521795 1.0049077 0.3088042 0.2644451 -0.3695742 0.7787037
0.52632695 0.49866253 0.75283784 0.53997594 0.19790915 -0.09570226 -0.13552642 0.41686383
-0.7226013 -0.6795228 -0.061068103 -0.92980087 -0.3781594 -0.13024262 -0.09863694 -0.22474498
0.20431818 -1.6446916 -0.43897402 0.66227883 -0.5567264 0.252132 0.63564223 -0.5217099
0.28817734 -1.0546346 -0.35460964 0.9363218 -1.1953223 -1.907584 -0.79492104 0.14065136
-1.8109628 0.5785434 0.0931463 -0.49986884 -0.10609151 0.4564101 -0.17745987 -0.4195106
0.61183196 -0.7136405 0.32425195 -0.17084906 0.6388818 -0.30022424 -0.6051024 0.84321874
0.4290837 0.5617453 -0.13385199 -0.7935101 0.03152618 1.5243474 0.10640447 -0.16102448
0.27913097 -1.699907 0.77707726 0.4708432 -0.2915419 -0.49369198 0.14817491 0.15203741
0.36913565 0.09411452 -1.2299335 0.8562133 0.7983268 -0.3128776 1.3952354 0.38407385
-0.62353903 0.8022784 0.29641935 0.057758637 -0.19313763 -1.0506762 0.13023788 -0.313276
-0.67722636 0.29059285 -0.14299698 -0.24196264 0.950352 0.20395939 0.036883954 -0.775866
0.26452905 -0.86734617 0.6143389 0.9286271 -0.12977728 -0.40245005 0.30206758 0.9270231
-0.5365405 -0.3144103 -0.18731558 -0.37483016 -1.232766 -0.7419942 -0.6961426 0.6815913
00000000: 09c7 aabd 4e4c c73e 7eba 383d 2937 083e
00000010: 8a0f 1c3f 845c 50bf a035 b7be dcda 2dbf
00000020: ff6b b93e 7e7f f43e 1634 b9bf 2a07 8ebf
00000030: a82b 98bd 1ad5 bcbe fc57 993e d550 843f
00000040: b27c 4f3f 0433 f1bd fe6a 3d3e 3219 34be
00000050: a37c 8e3e 86ae 04be cdfb 433d 4701 a7bc
00000060: 6201 bb3e 3563 8c3f bd6c ee3e f630 0b3f
00000070: 0646 b4be a1ca 413f 2c44 06bf 7e60 c3bd
00000080: b23a 74be 69c1 89be e454 593e ae58 35bf
00000090: 81c4 97bf 3f18 59bf 4a09 433e e2fd 333e
000000a0: 3f30 66be 39cd 11be abbd 8fbd 6345 d83d
000000b0: 2848 aabd 46d1 eabe bf05 31be f397 d73d
000000c0: f1f2 b33e aa26 4b3f 51f3 5b3e f168 333f
000000d0: 1bc6 33bf f53b fcbd ebab 03bf 5ca2 9ebe
000000e0: 2657 013e 148f 6abf b8f5 3c3f f1e2 a3bf
000000f0: 8e2d 4b3f e0c7 77bf 61de 1dbe c603 8dbe
00000100: 7b24 88bf bcaa e03d 2d8e 973f 0762 71bf
00000110: 2ec1 12be 609d ef3d fd41 993e 0927 fa3f
00000120: 8c55 963f 3735 723b 1024 7ebe 061e e03e
00000130: 5859 b2be 3f47 45be e72e d1be e264 bcbe
00000140: 828b b5bd 5c75 85bf 0593 84bf 4b67 54be
00000150: f450 8c3f 1e7d 923e b8d4 b9bc 5ff9 223c
00000160: 3e68 7d3e fc83 0cbe 11c1 c7bf 6033 4dbf
00000170: f0f9 c03c fa29 7c3f 3d13 223e 50c4 073f
00000180: fe0a 78bf 0ee9 cbbe 5207 7dbe f40d 323f
00000190: 5cfb 26bf 15f3 27bf d607 753f c892 6dbf
000001a0: 03f2 273e 952f ea3c 63a2 a73e ee84 ac3a
000001b0: c07b 1b40 f0df 1ebe ef87 3d3e c927 8fbf
000001c0: 288f 063e 2a55 a53f 15d1 49bf 2364 e43e
000001d0: 5807 a4be 06c8 80be 9bdb 2dbf 42bc 30bf
000001e0: 505b 89bf 71ad e1be cee6 63bd 8ea8 0cbd
000001f0: e240 a93e a718 f6be b47e 893e 97c9 79bf
00000200: 55bf d2bf e85e e23d df80 af3d 01bf 27be
00000210: d7fb 933f dc9c 07bf 8e60 95bf 0d52 b63e
00000220: 78b8 cc3d 522a 2e3f 1d5b a0bf 8e3b b3be
00000230: 497f 753e 2633 363f deee 9fbe be3d 843f
00000240: 40e0 283f 85c5 6e3f 2eca c23f d1a0 803f
00000250: 961b 9e3e 5965 873e d438 bdbe 2059 473f
00000260: 5dbd 063f b250 ff3e fbb9 403f dd3b 0a3f
00000270: b2a8 4a3e 8cff c3bd 70c7 0abe 2d6f d53e
00000280: 66fc 38bf 35f5 2dbf 8c22 7abd 6e07 6ebf
00000290: 1c9e c1be 525e 05be 2a02 cabd 8c23 66be
000002a0: c938 513e 4185 d2bf 34c1 e0be 1b8b 293f
000002b0: 9f85 0ebf 7217 813e 73b9 223f c88e 05bf
000002c0: fb8b 933e 44fe 86bf 658f b5be c9b2 6f3f
000002d0: 5200 99bf b62b f4bf f27f 4bbf e906 103e
000002e0: a1cd e7bf 6c1b 143f 7dc3 be3d cfee ffbe
000002f0: 8146 d9bd 96ae e93e 0ab8 35be 18ca d6be
00000300: 05a1 1c3f 25b1 36bf 5a04 a63e 0ef3 2ebe
00000310: c28d 233f feb6 99be fee7 1abf 2fdd 573f
00000320: dcb0 db3e 8ace 0f3f 7f10 09be 7a23 4bbf
00000330: 9921 013d d11d c33f 96ea d93d 9ae3 24be
00000340: 41ea 8e3e 8d96 d9bf 89ee 463f 5c12 f13e
00000350: fb44 95be 32c5 fcbe 2abb 173e b2af 1b3e
00000360: 59ff bc3e 1dbf c03d 766e 9dbf cb30 5b3f
00000370: 255f 4c3f 7e31 a0be 1397 b23f 54a5 c43e
00000380: 41a0 1fbf 1e62 4d3f 47c4 973e 5294 6c3d
00000390: dfc5 45be 8f7c 86bf 145d 053e b665 a0be
000003a0: b55e 2dbf 96c8 943e cd6d 12be 0ec5 77be
000003b0: 454a 733f bbda 503e a113 173d 279f 46bf
000003c0: 5a70 873e 660a 5ebf 5045 1d3f 81ba 6d3f
000003d0: 56e4 04be ef0d cebe 9aa8 9a3e 6351 6d3f
000003e0: b85a 09bf 63fa a0be a8cf 3fbe bde9 bfbe
000003f0: 47cb 9dbf 55f3 3dbf 6736 32bf c47c 2e3f

model.rec.bias_ih_l0 f4 [192]
-0.34397924 -0.74041605 -0.51558113 -0.2982805 -0.07674928 -1.4388126 -0.33852914 -0.25484416
-0.8174622 -0.3805729 -0.07573004 -0.5493055 0.17436706 -0.037055902 0.19920167 -0.52818334
-0.7001108 0.25878385 -0.29857445 -0.53863317 -0.81715363 -1.7544459 -0.03441688 -0.015366896
-0.51303303 -0.26771498 -0.3319411 -0.060415056 -0.1255337 -1.2523799 -0.5568011 -0.2708694
0.18872193 -0.97139657 -0.39256135 -0.09748265 -0.259592 -0.49669203 -0.32955456 -0.5575143
0.011556178 -0.44779074 0.7467754 -0.29448074 -0.1874717 -1.762009 -0.53398806 -0.12228303
0.10399664 -0.28110418 -0.5402104 -0.45417854 -0.3443062 -0.066140234 -0.52403164 -0.44141868
-0.27441934 -0.61039555 -0.8947662 -0.38029024 -0.84455174 -0.55009097 -0.5505148 -0.5909111
0.2707488 0.3243948 -0.1257498 -0.6906877 -0.49137563 0.42460942 -0.2924939 1.3192332
0.12561451 -0.17947492 -0.08731255 -0.08290386 -0.8491386 0.57775706 0.68233365 -0.041917954
0.38392246 1.9788611 0.4579502 0.93808824 0.49968526 0.35807356 0.525412 -0.105008945
-1.3122518 0.4524639 0.5811927 -0.1408142 0.35175315 -0.6573549 -0.85968035 0.6807337
1.2556349 0.43359876 0.08805386 0.7272174 0.14951415 0.22525084 0.26880658 -0.23304513
-0.04634616 0.48330957 0.019592432 0.08165003 1.6834801 0.4140993 0.2704936 -0.8900386
-0.20711266 -0.4089794 -0.87513125 0.1914038 0.4011446 0.57665795 0.53222185 -0.6221475
0.30054638 1.0943319 0.115267426 0.29361495 0.71658516 -0.390128 0.14953697 -0.30435756
-0.00064572756 0.01198082 -0.028543806 -0.062788345 0.025958695 -0.020118997 0.08791266 0.0013964466
0.0027010816 0.0028216215 -0.04379612 -0.007558195 0.108456194 -0.18567576 0.5727883 0.02826595
-0.0069538434 0.028757578 -0.26832923 0.0284292 -0.0073939776 -0.035504915 0.0019935977 -0.08679039
0.013251492 0.029898722 0.08266245 -0.10543572 -0.20810328 0.019485667 -0.0011454058 -0.44927016
0.46367928 0.019661002 0.13507421 -0.031065369 0.023415975 0.011555476 -0.11164809 0.27403778
-0.123825416 -0.025007384 -0.36206752 -0.011061929 0.12295964 0.012377902 0.00814716 0.11904786
0.06192043 0.053943276 -0.012774426 0.08733132 -0.020616164 -0.04653049 -0.03206408 0.09236061
0.004303043 0.004376897 0.0021019517 -0.06471464 0.013577351 0.109710716 -0.09177739 0.04531311
00000000: 0c1e b0be e88b 3dbf 20fd 03bf 39b8 98be
00000010: ba2e 9dbd 032b b8bf b153 adbe ef7a 82be
00000020: 3445 51bf 73da c2be 5a18 9bbd 499f 0cbf
00000030: 478d 323e eec7 17bd 86fb 4b3e 0637 07bf
00000040: 763a 33bf 517f 843e c0de 98be dde3 09bf
00000050: fb30 51bf af91 e0bf b7f8 0cbd 6fc5 7bbc
00000060: 2256 03bf f011 89be 2ff4 a9be c775 77bd
00000070: e88b 00be fc4d a0bf 848a 0ebf 65af 8abe
00000080: 5240 413e 72ad 78bf cdfd c8be fca4 c7bd
00000090: 3ee9 84be 6b4e febe 60bb a8be 42b9 0ebf
000000a0: 2056 3d3c d444 e5be ac2c 3f3f 2ec6 96be
000000b0: 95f8 3fbe 8389 e1bf 71b3 08bf 866f fabd
000000c0: 31fc d43d e3ec 8fbe 3b4b 0abf 178a e8be
000000d0: e748 b0be 8874 87bd f026 06bf a101 e2be
000000e0: b180 8cbe e242 1cbf 660f 65bf 67b5 c2be
000000f0: 8b34 58bf c3d2 0cbf 8aee 0cbf f345 17bf
00000100: 969f 8a3e 1317 a63e 8ec4 00be e9d0 30bf
00000110: 9695 fbbe 6866 d93e c3c1 95be a2dc a83f
00000120: 17a1 003e 46c8 37be ecd0 b2bd 80c9 a9bd
00000130: 2661 59bf e3e7 133f 6bad 2e3f 29b2 2bbd
00000140: 7c91 c43e 524b fd3f 7378 ea3e 8d26 703f
00000150: bfd6 ff3e 6b55 b73e 6781 063f ee0e d7bd
00000160: def7 a7bf 59a9 e73e 0bc9 143f 9931 10be
00000170: fd18 b43e 6948 28bf 0314 5cbf 9044 2e3f
00000180: a5b8 a03f a800 de3e 9555 b43d eb2a 3a3f
00000190: 3d1a 193e 28a8 663e 04a1 893e 62a3 6ebe
000001a0: 79d5 3dbd 5a74 f73e 4f80 a03c 2238 a73d
000001b0: 477c d73f d304 d43e 237e 8a3e 92d9 63bf
000001c0: 5715 54be bf65 d1be 9a08 60bf 5cff 433e
000001d0: d362 cd3e db9f 133f b13f 083f 0f45 1fbf
000001e0: 37e1 993e 1113 8c3f 5411 ec3d b354 963e
000001f0: 2072 373f dbbe c7be 3820 193e c1d4 9bbe
00000200: 0b46 29ba 344b 443c b3d4 e9bc 2d97 80bd
00000210: 54a7 d43c 98d0 a4bc 8d0b b43d f908 b73a
00000220: a104 313b f4ea 383b 8f63 33bd bcaa f7bb
00000230: 481e de3d c921 3ebe 41a2 123f fe8d e73c
00000240: 11dd e3bb 0395 eb3c 7362 89be 5be4 e83c
00000250: 2e49 f2bb 9a6d 11bd 05a7 023b 29bf b1bd
00000260: c91c 593c 2aee f43c ee4a a93d afee d7bd
00000270: 0719 55be 68a0 9f3c 7121 96ba bd06 e6be
00000280: 5f67 ed3e 1c10 a13c e550 0a3e cd7c febc
00000290: dcd2 bf3c 2e53 3d3c c1a7 e4bd ae4e 8c3e
000002a0: 2e98 fdbd 49dc ccbc ea60 b9be 183d 35bc
000002b0: 44d2 fb3d afcc 4a3c aa7b 053c 5dcf f33d
000002c0: 47a0 7d3d a0f3 5c3d d34b 51bc c3da b23d
000002d0: 3be3 a8bc c196 3ebd a055 03bd 8f27 bd3d
000002e0: 8a00 8d3b 136c 8f3b e6c0 093b 1c89 84bd
000002f0: 8a73 5e3c 03b0 e03d c9f5 bbbd 3d9a 393d

model.rec.bias_hh_l0 f4 [192]
-0.2922919 -0.91765946 -0.37014806 -0.22831935 0.115427524 -1.2494361 -0.25751704 -0.2518573
-0.7639307 -0.58680737 -0.07841024 -0.30640137 0.14039268 -0.13816875 0.09956108 -0.5214191
-0.6569711 0.18377197 -0.2970733 -0.42878363 -0.9000242 -1.9231721 -0.011057846 -0.23615618
-0.33471936 -0.42147425 -0.12223624 0.08047145 -0.15108465 -1.2785779 -0.37635818 -0.29086158
-0.05588887 -0.8265473 -0.16641533 -0.11294103 -0.46229863 -0.4491067 -0.27776533 -0.505201
-0.12355166 -0.44007188 0.8357103 -0.2756531 -0.23808861 -1.9591262 -0.61475325 -0.05683677
0.12665215 -0.166253 -0.63506067 -0.41455084 -0.1706791 -0.11947789 -0.45735127 -0.25149947
-0.30147138 -0.83722323 -0.8759617 -0.48777843 -0.8192146 -0.3896546 -0.61647666 -0.37580895
0.04816013 0.54793876 -0.14745602 -0.6869602 -0.3100845 0.30198413 -0.28079855 1.3214375
0.15443926 -0.18826978 0.034957353 -0.06961269 -0.78215533 0.58849674 0.54007757 0.054505445
0.47977084 2.0464022 0.31254703 0.8667899 0.65934324 0.3576023 0.3805674 -0.2636297
-1.2828745 0.46023536 0.7344113 -0.0046617663 0.40566698 -0.69839585 -0.724998 0.7923409
1.2931905 0.30945882 0.14973038 0.7995536 0.2965712 0.40573257 0.34146383 -0.23994774
-0.048330426 0.35904482 -0.1315055 -0.14727104 1.6761975 0.48720622 0.29680932 -1.0590879
-0.094386056 -0.24020165 -0.78887755 -0.035308767 0.4821406 0.42044792 0.5706029 -0.6149513
0.28381124 0.943712 0.09056271 0.28453416 0.66978246 -0.47289017 0.14256513 -0.43187666
-0.030123867 -0.16770156 0.3133401 0.08589345 0.14032277 -0.1218118 0.0055470904 -0.17380616
-0.102701485 0.339677 0.13052039 0.22616985 0.34809685 0.033130642 0.7305975 -0.35473853
-0.15076974 0.015679203 0.20646967 -0.119714 -0.19060333 -0.37777644 0.029134726 0.25717068
0.030784864 0.2784316 0.119273104 0.06611012 -0.020378776 -0.3800553 -0.32679057 -0.33849663
0.3361383 -0.38162994 0.28431985 0.19168831 0.339224 -0.2857091 -0.32697815 0.22734065
0.13635333 0.12610658 -0.037015703 0.1810301 -0.049260397 0.19773738 -0.07967246 -0.090902135
-0.10578359 -0.404462 -0.1277972 0.13211061 0.048647836 -0.088022456 -0.045896787 0.09638238
-0.13490497 -0.13299385 -0.20677453 -0.050317038 -0.032946393 -0.25335968 -0.13273513 -0.065415405
00000000: 49a7 95be bbeb 6abf 0c84 bdbe 8ccc 69be
00000010: 4465 ec3d 86ed 9fbf 46d9 83be 71f3 80be
00000020: f690 43bf 0239 16bf 8c95 a0bd a4e0 9cbe
00000030: 19c3 0f3e 1c7c 0dbe aee6 cb3d b97b 05bf
00000040: 422f 28bf b82e 3c3e fe19 98be 8789 dbbe
00000050: fc67 66bf 812a f6bf f82b 35bc edd2 71be
00000060: 5660 abbe 79cb d7be fe56 fabd 37ce a43d
00000070: efb5 1abe 71a8 a3bf 05b2 c0be cfeb 94be
00000080: baeb 64bd 9b98 53bf c868 2abe a04d e7bd
00000090: 68b2 ecbe 50f1 e5be 4237 8ebe da54 01bf
000000a0: a708 fdbd 1a51 e1be 1cf1 553f 6722 8dbe
000000b0: 80cd 73be a6c4 fabf 7860 1dbf accd 68bd
000000c0: 1ab1 013e 3a3e 2abe 5693 22bf 0240 d4be
000000d0: 81c6 2ebe d3b0 f4bd f229 eabe 8ac4 80be
000000e0: 755a 9abe 4354 56bf 073f 60bf 18be f9be
000000f0: 0cb8 51bf cf80 c7be 6ad1 1dbf 086a c0be
00000100: 8e43 453d b745 0c3f b6fe 16be a0dc 2fbf
00000110: 65c3 9ebe aa9d 9a3e d4c4 8fbe dd24 a93f
00000120: 5325 1e3e cbc9 40be 712f 0f3d 1991 8ebd
00000130: 553b 48bf b9a7 163f 8642 0a3f 1a41 5f3d
00000140: 86a4 f53e 41f8 0240 2a06 a03e f1e5 5d3f
00000150: b8ca 283f a617 b73e bbd9 c23e 79fa 86be
00000160: 3b35 a4bf f8a3 eb3e 6102 3c3f bbc1 98bb
00000170: 95b3 cf3e 12ca 32bf 7899 39bf dad6 4a3f
00000180: 4487 a53f 6371 9e3e ec52 193e 8baf 4c3f
00000190: 2ed8 973e 2ebc cf3e 59d4 ae3e dcb4 75be
000001a0: 20f6 45bd b9d4 b73e 61a9 06be 38ce 16be
000001b0: a48d d63f 1873 f93e 64f7 973e 3190 87bf
000001c0: 7a4d c1bd 6cf7 75be e1f3 49bf ed9f 10bd
000001d0: 22db f63e f344 d73e 0813 123f 736d 1dbf
000001e0: b54f 913e 1c97 713f f178 b93d 76ae 913e
000001f0: dd76 2b3f a91e f2be 98fc 113e f01e ddbe
00000200: 54c6 f6bc f5b9 2bbe 1d6e a03e e8e8 af3d
00000210: c6b0 0f3e 7778 f9bd 5ec4 b53b 3efa 31be
00000220: 2855 d2bd 25ea ad3e 23a7 053e 1299 673e
00000230: c039 b23e ffb3 073d 7008 3b3f 4aa0 b5be
00000240: 6263 1abe ac71 803c c96c 533e 9d2c f5bd
00000250: 852d 43be ea6b c1be f3ab ee3c e0ab 833e
00000260: 8a30 fc3c 968e 8e3e 7545 f43d be64 873d
00000270: 64f1 a6bc 9c96 c2be 1851 a7be 6e4f adbe
00000280: 521a ac3e 0065 c3be 5f92 913e f149 443e
00000290: c5ae ad3e 7748 92be ae69 a7be fdcb 683e
000002a0: 35a0 0b3e 1522 013e c79d 17bd f45f 393e
000002b0: 45c5 49bd ab7b 4a3e 512b a3bd e62a babd
000002c0: 11a5 d8bd a515 cfbe 45dd 02be 0148 073e
000002d0: f442 473d 1e45 b4bd 45fe 3bbd 2064 c53d
000002e0: 8724 0abe 8a2f 08be b4bc 53be 3d19 4ebd
000002f0: ccf2 06bd 5cb8 81be b8eb 07be 83f8 85bd

model.linear.weight f4 [1, 64]
-0.21633896 0.25561535 0.069018394 0.004553866 0.075131245 -0.12309678 0.119441345 -0.036741987
0.055177677 -0.003591875 -0.13245408 0.07552835 0.118638135 -0.015022274 0.015652968 0.046730116
0.09107488 0.07880631 0.023466093 -0.022075484 0.0021317014 0.2848985 -0.17743225 0.09114315
-0.001028256 -0.0918414 0.11293012 -0.12093259 -0.16884434 0.12959121 -0.0069110664 0.040969856
-0.0444081 0.020431357 0.0027448188 0.00071496685 0.23085175 0.12477519 0.02593547 0.11882096
-0.10711149 0.07299434 0.037997995 0.01000931 0.07409167 -0.08575908 0.040770162 -0.03237609
0.024266005 0.0697945 0.021175168 -0.1485986 -0.34842956 -0.27609047 -0.28313458 0.18428893
-0.12824264 -0.015308232 0.007763945 0.046246562 0.02457447 -0.031523887 -0.051669333 -0.051452823
00000000: f687 5dbe 04e0 823e 8459 8d3d 9938 953b
00000010: 69de 993d 2a1a fcbd aa9d f43d c47e 16bd
00000020: fd01 623d aa65 6bbb 0ba2 07be 9cae 9a3d
00000030: 8df8 f23d fc1f 76bc a73a 803c 1468 3f3d
00000040: 7785 ba3d 3465 a13d f73b c03c a5d7 b4bc
00000050: 04b4 0b3b 37de 913e cdb0 35be 43a9 ba3d
00000060: 8cc6 86ba 5817 bcbd e847 e73d 81ab f7bd
00000070: 88e5 2cbe 8fb3 043e 3a76 e2bb 02d0 273d
00000080: 45e5 35bd a95f a73c 6be2 333b 9d6c 3b3a
00000090: 6764 6c3e 238a ff3d 9f76 d43c 6758 f33d
000000a0: 455d dbbd 0e7e 953d c9a3 1b3d 17fe 233c
000000b0: 60bd 973d 75a2 afbd 9dfe 263d ca9c 04bd
000000c0: 80c9 c63c 6bf0 8e3d 8c77 ad3c 3b2a 18be
000000d0: 5c65 b2be bb5b 8dbe 04f7 90be 3db6 3c3e
000000e0: 0a52 03be 61cf 7abc b168 fe3b 096d 3d3d
000000f0: 6650 c93c 311f 01bd 39a3 53bd 32c0 52bd

exp_avg f4 [192, 1]
8.679654e-06 -5.811473e-06 0.00014092874 -6.514825e-05 -3.1387153e-05 -4.285167e-05 3.4507844e-05 3.638902e-05
-6.2967665e-05 2.07874e-06 1.9359855e-05 -6.6728016e-06 -0.00020499105 -1.45315635e-05 0.00056925265 8.449393e-06
9.976679e-07 -0.00032599206 -1.8825644e-05 -3.4124118e-05 -3.9859347e-06 6.937076e-07 -4.471391e-05 -8.467666e-06
8.5966894e-05 -8.07042e-05 -1.683572e-05 4.7684525e-06 -0.00012717773 4.008855e-05 -9.872109e-05 7.0441085e-05
4.13894e-07 2.0404648e-05 -0.00043924857 -4.6385354e-05 2.8099095e-05 1.6474562e-05 -0.00014339612 5.0783503e-05
5.1178547e-05 5.009548e-05 -9.516446e-06 -3.523288e-05 1.0125581e-05 -3.1768761e-06 -4.2633e-05 8.052998e-05
-0.00055113446 1.0688392e-05 -1.289593e-05 -3.689632e-05 6.6392404e-06 -1.2122078e-05 -0.00020004205 -3.1067524e-05
-1.908769e-05 -2.632346e-05 -1.2911062e-05 9.326165e-06 -2.459923e-05 3.7960115e-05 -0.0003645349 0.00012250412
-9.358457e-06 6.818769e-05 -3.3461434e-05 -1.2801331e-06 0.00010618319 5.785035e-05 -1.2247401e-05 4.970139e-06
-2.9910949e-05 -0.00026697048 -9.807293e-06 -2.4988554e-05 -7.593295e-05 -0.00023724852 -3.9455786e-05 -4.5545485e-06
-2.3212508e-06 -0.0029566123 7.789454e-06 -4.397115e-05 1.7227772e-05 9.946468e-05 7.4887025e-06 -7.714037e-06
-1.13643155e-05 8.194527e-05 2.314124e-06 -2.7463605e-07 -4.321228e-06 1.9879628e-06 8.82296e-06 -0.00014414125
-0.00014738586 -9.88707e-07 -0.0005730733 -0.00019778566 1.0655e-05 -1.0355156e-05 7.425802e-05 -2.6194562e-05
-4.0083778e-05 -7.269753e-06 -5.505571e-05 -0.00050844194 -0.00026831764 9.8385564e-05 -0.00015493887 -9.971403e-07
-0.00010303619 2.6059663e-06 -1.1712755e-06 1.5730868e-06 -1.0851462e-05 -3.103249e-05 0.0001937376 -1.5755282e-05
-3.3874019e-06 -0.00010062117 -2.5924513e-05 -7.2488336e-07 5.045724e-05 -1.079285e-05 -0.00022399856 -6.673049e-06
-1.1695545e-05 -0.0018702137 0.000114833885 -0.00031903014 -0.00037943866 -0.000102216225 -4.9583345e-05 -0.0005247778
0.001670739 0.00011603998 -5.389651e-05 -4.9547474e-05 0.00013579759 -7.0096604e-08 0.000662644 -0.00016053286
-0.00021841627 -0.00035565798 -0.0001678516 0.0016023522 0.0005966571 -0.00036535284 0.0005459485 -0.0010519009
-0.0010689792 -0.00037424473 0.00019560286 0.00012104554 -0.00047526608 0.0020093787 -0.0003251706 0.000936852
-0.0002861431 -0.0006289936 -0.00021296428 -0.0010536851 -0.00010763638 0.0005374553 0.00025639543 -0.00023934337
0.0005573115 -0.0009833925 -0.00085647317 -0.0015545612 0.00053402234 0.0015461663 -0.0014131385 0.0008238933
-0.0005684483 0.00047716862 -0.00021007858 0.00028076474 -0.00028353403 -0.00070401805 0.0018877413 0.00079369807
-0.00042112698 0.00016456655 0.00041103826 -0.0002650927 -0.0012840976 0.00093817065 -0.0018795683 0.0002799848
00000000: d49e 1137 2c00 c3b6 45c6 1339 33a0 88b8
00000010: b3a5 03b8 a1bb 33b8 84bc 1038 6aa0 1838
00000020: 820d 84b8 7b80 0b36 f966 a237 eee6 dfb6
00000030: def2 56b9 97cc 73b7 e639 153a dec1 0d37
00000040: 9ce7 8535 eae9 aab9 c3eb 9db7 7e20 0fb8
00000050: ebbe 85b6 3937 3a35 328b 3bb8 5910 0eb7
00000060: 2049 b438 bd3f a9b8 6f3a 8db7 b200 a036
00000070: 035b 05b9 c124 2838 7b08 cfb8 c5b9 9338
00000080: 2935 de34 a62a ab37 f24a e6b9 e58d 42b8
00000090: 59b6 eb37 da32 8a37 9a5c 16b9 5f00 5538
000000a0: 8ca8 5638 9d1d 5238 d3a8 1fb7 04c7 13b8
000000b0: 0ae1 2937 5132 55b6 d6d0 32b8 34e2 a838
000000c0: 027a 10ba 4b52 3337 995b 58b7 1fc1 1ab8
000000d0: a4c6 de36 ee5f 4bb7 61c2 51b9 804e 02b8
000000e0: 811e a0b7 33d1 dcb7 979c 58b7 9377 1c37
000000f0: 725a ceb7 5d37 1f38 0c1f bfb9 7374 0039
00000100: 4402 1db7 fdff 8e38 f158 0cb8 0ad1 abb5
00000110: abae de38 57a4 7238 307a 4db7 2bc5 a636
00000120: 46e9 fab7 2cf8 8bb9 018a 24b7 839e d1b7
00000130: 313e 9fb8 eac5 78b9 547d 25b8 46d3 98b6
00000140: c9c6 1bb6 b9c3 41bb 73af 0237 aa6d 38b8
00000150: 5c84 9037 b297 d038 7747 fb36 896b 01b7
00000160: 5da9 3eb7 08da ab38 594c 1b36 b171 93b4
00000170: 11ff 90b6 f168 0536 5306 1437 9f24 17b9
00000180: 978b 1ab9 b7b3 84b5 4c3a 16ba af64 4fb9
00000190: e0c2 3237 0ebb 2db7 f9ba 9b38 65bc dbb7
000001a0: a11f 28b8 b4ee f3b6 9eeb 66b8 f648 05ba
000001b0: fcac 8cb9 5954 ce38 1677 22b9 7bd5 85b5
000001c0: 2215 d8b8 29e2 2e36 b834 9db5 da22 d335
000001d0: ad0e 36b7 e228 02b8 0a26 4b39 362a 84b7
000001e0: 1f53 63b6 9404 d3b8 7878 d9b7 9b95 42b5
000001f0: 0da2 5338 f012 35b7 28e1 6ab9 0ee9 dfb6
00000200: fc37 44b7 f521 f5ba f9d2 f038 8043 a7b9
00000210: 65ef c6b9 eb5c d6b8 b6f7 4fb8 3e91 09ba
00000220: b3fc da3a 7d5a f338 f00e 62b8 32d1 4fb8
00000230: e364 0e39 0488 96b3 49b5 2d3a b654 28b9
00000240: ac06 65b9 9b77 bab9 5201 30b9 0506 d23a
00000250: fb68 1c3a d48c bfb9 fc1d 0f3a f0df 89ba
00000260: fd1c 8cba 4736 c4b9 be1a 4d39 d4d9 fd38
00000270: 222d f9b9 c8af 033b a97b aab9 1397 753a
00000280: 7a05 96b9 0ce3 24ba 2a4f 5fb9 ce1b 8aba
00000290: d7ba e1b8 04e4 0c3a d06c 8639 3ff8 7ab9
000002a0: 8b18 123a 2de5 80ba f184 60ba 6bc2 cbba
000002b0: a2fd 0b3a bba8 ca3a 0f39 b9ba 8bfa 573a
000002c0: eb03 15ba 7d2c fa39 8a48 5cb9 9b33 9339
000002d0: 4ba7 94b9 da8d 38ba 166e f73a 2d10 503a
000002e0: b5ca dcb9 7f8f 2c39 9f80 d739 24fc 8ab9
000002f0: 2a4f a8ba 91ef 753a d95b f6ba ecca 9239

exp_avg_sq f4 [192, 1]
1.629471e-08 1.9621454e-07 7.780993e-07 1.3250262e-07 5.4052506e-08 5.4080875e-08 9.972423e-08 3.9395175e-07
2.0036039e-07 4.4949777e-09 9.563663e-07 1.3509431e-07 3.0986852e-05 2.2630537e-07 5.532266e-05 3.7214345e-08
4.195557e-09 6.794578e-06 4.44282e-08 6.385111e-08 5.137767e-07 1.0653484e-08 3.226316e-07 9.0083025e-09
2.5202516e-07 4.9011635e-07 7.325806e-08 6.2878264e-08 1.3119372e-06 3.1349717e-08 1.047074e-06 2.2678612e-06
1.9652882e-08 6.786701e-08 8.351948e-06 1.12654654e-07 7.738166e-07 4.3035445e-08 6.131251e-07 1.0809205e-06
7.5876267e-07 8.059108e-08 6.628933e-08 2.2051341e-07 1.12791774e-07 9.1446815e-11 1.3458046e-07 1.053809e-07
2.9549366e-05 5.9445053e-08 2.3090712e-07 1.2482205e-07 2.5286742e-08 5.468413e-07 3.534812e-06 4.110772e-08
3.5193096e-08 7.020159e-08 4.6878572e-08 1.0157093e-07 2.4490511e-08 1.6677382e-07 1.51412505e-05 5.6581604e-07
3.0058693e-09 2.0804572e-07 8.263716e-06 2.750368e-09 6.635974e-07 2.153972e-06 5.841742e-08 1.3398256e-06
8.277965e-06 5.343379e-06 2.3071138e-08 2.8426777e-07 4.4394633e-07 3.0549938e-05 5.295313e-07 1.5605996e-09
2.1587878e-09 0.022344425 3.0320223e-08 6.6328557e-06 1.02493814e-07 2.3366188e-07 3.199633e-08 4.842866e-09
2.5633122e-07 7.247028e-08 2.6082684e-08 8.8558325e-09 7.855616e-08 3.5103933e-09 6.282478e-08 1.7653701e-05
7.403489e-06 5.6830434e-08 3.2176737e-05 8.6287155e-06 1.7501923e-08 1.3176962e-08 8.529075e-07 4.182102e-06
5.1637986e-08 5.631456e-08 1.1662439e-06 3.0705003e-05 3.1960964e-05 6.048547e-07 2.8286406e-06 8.3524826e-10
3.298474e-07 8.6355206e-10 2.8903605e-07 6.608419e-08 6.4993486e-08 8.361268e-08 5.8642127e-07 1.0787618e-08
5.168457e-08 4.6071864e-06 1.2724843e-07 3.1358791e-09 1.3594095e-07 1.0956658e-07 2.797748e-05 4.4162833e-09
2.1557325e-05 5.414244e-05 0.0011392683 1.6533048e-05 0.00032207073 0.0003657638 3.2483837e-05 5.1605042e-05
0.0011278727 0.00062687864 3.4008401e-06 4.6562873e-05 0.0012088715 0.000104714934 0.0008806964 1.7787439e-05
5.5420696e-06 2.271818e-06 1.4657467e-05 2.8456967e-05 0.00056425185 0.0017373228 0.000119803575 1.7173003e-05
5.589044e-05 9.943266e-05 1.2168505e-05 1.3909154e-05 6.88077e-05 0.0019688031 3.9580445e-05 0.0065625343
1.8751376e-05 4.445055e-05 0.005118859 0.00014364555 4.049572e-05 3.7897727e-05 0.00035491656 0.0006523929
1.58689e-05 4.4103217e-05 9.675254e-06 0.0004864747 5.7772624e-05 0.00014741364 3.409371e-05 2.0477937e-05
0.0008663074 8.397105e-06 0.0005841942 2.186666e-05 8.9215435e-05 3.1976007e-05 2.291503e-05 0.00021643013
4.862918e-05 5.234706e-05 3.083752e-05 1.1906023e-05 2.0340174e-05 5.5597116e-05 0.00031653102 3.2189102e-05
00000000: 72f8 8b32 0baf 5234 94de 5035 0b46 0e34
00000010: 5c27 6833 8d46 6833 fa27 d633 5180 d334
00000020: a522 5734 3e72 9a31 7f5c 8035 710e 1134
00000030: e1f7 0138 59fe 7234 410a 6838 9bd5 1f33
00000040: 8228 9031 fbfc e336 53d1 3e33 851e 8933
00000050: 77ea 0935 8506 3732 2636 ad34 efc2 1a32
00000060: 134e 8734 8a90 0335 0b52 9d33 b107 8733
00000070: d215 b035 61a5 0633 3089 8c35 8f31 1836
00000080: 25d1 a832 49be 9133 581f 0c37 8dec f133
00000090: 46b8 4f35 f9d5 3833 a395 2435 2514 9135
000000a0: c6ad 4b35 6a11 ad33 f25a 8e33 44c6 6c34
000000b0: ef37 f233 fb17 c92e 3281 1034 c34d e233
000000c0: c8e0 f737 8750 7f33 44ef 7734 d306 0634
000000d0: 2236 d932 a6ca 1235 9c37 6d36 6b8e 3033
000000e0: 3827 1733 bbc1 9633 8957 4933 361f da33
000000f0: 345f d232 7012 3334 2d07 7e37 95e2 1735
00000100: d08f 4e31 2c63 5f34 64a4 0a37 fc00 3d31
00000110: 1122 3235 f58c 1036 a2e6 7a33 0fd4 b335
00000120: 97e1 0a37 474b b336 f82d c632 779d 9834
00000130: 8557 ee34 bf22 0038 1d25 0e35 b87c d630
00000140: cc59 1431 a80b b73c 7039 0233 cc8f de36
00000150: 921a dc33 7de4 7a34 566c 0933 4d66 a631
00000160: e59d 8934 f5a0 9b33 6e0c e032 5d24 1832
00000170: b5b2 a833 7e3b 7131 4aea 8633 0917 9437
00000180: 7c6b f836 b915 7433 82f5 0638 0dc4 1037
00000190: 2357 9632 e460 6232 5bf3 6435 fc53 8c36
000001a0: 91c8 5d33 83de 7133 d687 9c35 3fc9 0038
000001b0: d30d 0638 4c5d 2235 add3 3d36 5f97 6530
000001c0: e215 b134 135f 6d30 d02c 9b34 2bea 8d33
000001d0: 8c92 8b33 8f8e b333 906a 1d35 7254 3932
000001e0: c9fb 5d33 6e97 9a36 c8a1 0834 f87e 5731
000001f0: 2af7 1134 dd4a eb33 2eb1 ea37 0abe 9731
00000200: 01d6 b437 0117 6338 8053 953a 73b0 8a37
00000210: 9adb a839 fcc3 bf39 413f 0838 7e72 5838
00000220: 21d5 933a 1d55 243a fd39 6436 814c 4338
00000230: ff72 9e3a 679a db38 89de 663a 3c36 9537
00000240: 04f6 b936 8975 1836 57e9 7537 dfb6 ee37
00000250: 4dea 133a e1b6 e33a 0e3f fb38 be0e 9037
00000260: e76b 6a38 8186 d038 5527 4c37 5d5b 6937
00000270: da4c 9038 0907 013b 2e03 2638 870a d73b
00000280: 464c 9d37 6a70 3a38 1abc a73b 8f9f 1639
00000290: f3d9 2938 60f4 1e38 1814 ba39 5905 2b3a
000002a0: 341e 8537 78fb 3838 e652 2237 870d ff39
000002b0: e250 7238 0c93 1a39 d8ff 0e38 09c8 ab37
000002c0: e818 633a 4be1 0c37 9c24 193a 4b6e b737
000002d0: 2c19 bb38 fa1d 0638 a739 c037 85f1 6239
000002e0: 2ff7 4b38 3a8f 5b38 8957 0138 fbbf 4737
000002f0: 31a0 aa37 f330 6938 13f4 a539 c902 0738

exp_avg f4 [192, 64]
-1.9753452e-05 1.7645783e-06 2.0631862e-06 -8.931537e-06 1.9466456e-06 4.7161848e-07 -3.7059188e-05 2.9978666e-05
-1.3844478e-05 1.4048293e-05 -2.251393e-05 4.601311e-06 -0.0002403185 5.5283585e-05 -0.0001299477 -1.3775824e-06
2.3597237e-05 1.2848092e-05 -4.7701422e-05 -1.5952226e-06 -7.891794e-06 6.81666e-06 5.1631272e-05 1.6509453e-05
2.8618933e-06 1.6995064e-05 -6.7376704e-06 -2.1391934e-06 2.3174155e-06 -1.6936525e-05 8.351201e-07 9.541018e-05
-0.0001691618 -1.0057546e-06 -2.1855907e-05 -1.618093e-05 -2.9214475e-06 9.567308e-06 2.51045e-05 -8.4763225e-05
-2.721135e-05 -1.0875629e-05 -0.00014705856 1.6470633e-05 9.457001e-06 -2.45674e-05 1.3562077e-05 -2.926735e-05
7.9642195e-05 -4.122728e-06 7.119243e-06 3.4536404e-06 -2.8230794e-05 -6.805265e-05 -2.7592878e-05 -3.6502431e-06
-9.919739e-06 9.654149e-06 8.63447e-06 6.2169674e-06 -3.7427883e-06 4.4652948e-06 2.7773196e-05 -4.47115e-06
-4.2704733e-06 5.956786e-06 2.6906198e-05 7.5349055e-07 2.735256e-06 4.936944e-06 -3.9786944e-05 7.9815574e-05
9.422517e-06 4.9974286e-05 -2.1264152e-05 -9.770928e-06 -6.166205e-05 0.00021077928 -4.331088e-05 -2.5398956e-05
-1.541025e-05 -0.00016232114 0.0001442456 -7.119715e-06 -2.7675043e-05 3.500654e-05 7.70431e-05 3.0839263e-05
1.6693655e-05 0.00014413457 -1.5988748e-05 -9.984061e-06 6.813519e-06 -9.214753e-06 2.3128758e-05 0.00017799255
-0.00046120604 3.4723919e-06 0.00019865748 5.9473125e-05 -1.42425915e-05 -6.182286e-05 -3.052277e-05 -0.0001056858
6.8139193e-06 3.3424443e-05 0.00012916245 -6.5658365e-05 3.5812234e-05 1.2235777e-05 -1.1133286e-05 -2.3665692e-05
-7.8826226e-05 2.0366288e-06 -6.236949e-05 6.45277e-05 3.0514042e-05 2.7325211e-06 -1.9534406e-05 -8.630464e-06
-3.0899228e-05 8.124213e-06 2.310514e-05 6.234397e-06 -6.0376406e-06 2.5603475e-05 -2.1500637e-05 -1.8521778e-05
-6.731956e-05 -0.00013228777 -5.472988e-06 -9.757351e-06 9.184888e-05 0.00061259005 -0.00016434526 8.187913e-05
0.00016504078 0.0001314091 -5.1164854e-05 1.4578686e-05 -0.0006279321 0.00019780798 -0.0011069328 -7.870096e-06
0.00010439502 -0.00027246794 -0.00018276398 -7.538922e-05 5.809195e-06 -0.00013369431 -5.7012236e-05 -1.5156381e-05
-0.0001724198 1.6145186e-05 -2.4640944e-05 8.5133164e-05 9.211378e-05 -9.6174e-05 -6.95809e-05 0.00048921927
-0.001084432 -3.6391622e-05 0.00044299333 4.5491244e-05 -6.2473344e-05 -8.7270266e-05 3.3730565e-05 -0.00025899502
-7.073705e-05 -0.000105540086 0.00033596976 -0.00020630438 8.950611e-05 -0.0007008746 -2.1636477e-05 -3.8094313e-05
-0.00017955061 -1.9380643e-05 6.400581e-05 1.2570315e-05 -0.00012506469 -0.00033913972 0.00030667527 1.6367649e-05
-4.871282e-05 8.018757e-06 0.00018608171 -2.954628e-05 -0.0001224013 -0.0001158018 0.000689893 7.995627e-05
3.3650736e-05 4.4224278e-05 -2.1855494e-05 4.489395e-05 3.6059904e-05 -0.00026134515 -3.6754993e-06 -2.9251829e-05
1.5770851e-05 -4.634137e-06 5.401982e-06 -4.422751e-05 -0.00023510186 -0.00013911608 0.0005425592 5.5396968e-06
-1.0217649e-05 -1.0607439e-05 -2.3474506e-05 -2.7987977e-05 7.43546e-06 1.9497747e-05 7.010943e-05 -1.2418185e-05
-4.6754803e-06 -3.3926478e-06 -1.5473117e-05 -1.44367405e-05 -0.00010558586 1.6439117e-05 -8.596046e-06 -0.00029105472
0.0006132985 9.808693e-06 -0.00026790818 1.3124366e-05 4.26914e-05 3.316486e-05 7.738079e-06 0.00017028162
4.9724176e-06 -1.4921268e-05 -0.00097152387 4.6511483e-05 -3.0431245e-05 0.00026245596 1.9577245e-05 -5.1412713e-05
0.0004959297 9.623343e-06 1.1901746e-05 -1.8493087e-05 -2.9285635e-05 -3.5779565e-05 -0.00014054467 0.00010428188
-8.950471e-06 -1.4721435e-05 -7.8095654e-05 -1.0752937e-05 1.8826022e-05 -6.145851e-05 -0.0003351859 -3.509323e-05
00000000: 37b4 a5b7 73d6 ec35 4575 0a36 a9d8 15b7
00000010: 1ea3 0236 c032 fd34 0070 1bb8 b27a fb37
00000020: 9545 68b7 f6b0 6b37 4cdc bcb7 f664 9a36
00000030: 02fe 7bb9 4ce0 6738 9242 08b9 5fe5 b8b5
00000040: aef2 c537 238e 5737 0313 48b8 6e1b d6b5
00000050: ff66 04b7 aaba e436 a88e 5838 c87d 8a37
00000060: f40e 4036 9f90 8e37 2614 e2b6 108f 0fb6
00000070: e584 1b36 e912 8eb7 042d 6035 f316 c838
00000080: 0661 31b9 77fd 86b5 3457 b7b7 48bc 87b7
00000090: 160e 44b6 4683 2037 8197 d237 e9c2 b1b8
000000a0: ee43 e4b7 7976 36b7 bb33 1ab9 6a2a 8a37
000000b0: 83a9 1e37 1716 ceb7 ad88 6337 2883 f5b7
000000c0: 9405 a738 f755 8ab6 d5e1 ee36 17c5 6736
000000d0: 2bd1 ecb7 7db7 8eb8 4177 e7b7 b3f6 74b6
000000e0: f46c 26b7 41f8 2137 c4dc 1037 589b d036
000000f0: 9d2c 7bb6 97d4 9536 7cfa e837 e306 96b6
00000100: 164b 8fb6 67e0 c736 9fb4 e137 7a43 4a35
00000110: 578f 3736 07a8 a536 e8e0 26b8 a962 a738
00000120: 6715 1e37 7b9b 5138 6b60 b2b7 d1ed 23b7
00000130: 9050 81b8 a204 5d39 b4a8 35b8 d80f d5b7
00000140: 4345 81b7 c034 2ab9 a240 1739 e3e5 eeb6
00000150: b427 e8b7 fcd3 1238 3392 a138 6859 0138
00000160: 5a09 8c37 d422 1739 931f 86b7 3781 27b7
00000170: af9f e436 1099 1ab7 a104 c237 83a3 3a39
00000180: 07ce f1b9 3d07 6936 b64e 5039 c872 7938
00000190: 77f3 6eb7 e5a6 81b8 9305 00b8 a2a3 ddb8
000001a0: 1fa3 e436 3931 0c38 c86f 0739 11b2 89b8
000001b0: 1835 1638 4348 4d37 19c9 3ab7 b085 c6b7
000001c0: 824f a5b8 04ad 0836 5dcc 82b8 0c53 8738
000001d0: 68f8 ff37 5b60 3736 d1dd a3b7 90cb 10b7
000001e0: cb99 01b8 3b4d 0837 e9d1 c137 1031 d136
000001f0: f096 cab6 0bc7 d637 445c b4b7 375f 9bb7
00000200: ea2d 8db8 bab6 0ab9 9ca4 b7b6 81b3 23b7
00000210: fe9e c038 3996 203a 1854 2cb9 86b6 ab38
00000220: cc0e 2d39 ddca 0939 d899 56b8 fb96 7437
00000230: cf9b 24ba ad6a 4f39 8016 91ba ce09 04b7
00000240: a6ee da38 07da 8eb9 55a4 3fb9 471a 9eb8
00000250: 9bec c236 4b30 0cb9 6c20 6fb8 2948 7eb7
00000260: 96cb 34b9 866f 8737 06b4 ceb7 8589 b238
00000270: 362d c138 06b1 c9b8 f6eb 91b8 f33e 003a
00000280: 8023 8eba 35a3 18b8 8f41 e839 dacd 3e38
00000290: 1f04 83b8 de04 b7b8 eb79 0d38 b9c9 87b9
000002a0: aa58 94b8 6755 ddb8 1925 b039 6953 58b9
000002b0: 3ab5 bb38 e6ba 37ba fb7f b5b7 75c7 1fb8
000002c0: c045 3cb9 9d93 a2b7 dc3a 8638 18e5 5237
000002d0: cc23 03b9 90ce b1b9 42c9 a039 424d 8937
000002e0: fe50 4cb8 4d88 0637 ee1e 4339 27da f7b7
000002f0: d958 00b9 9eda f2b8 efd9 343a 32ae a738
00000300: 3424 0d38 757d 3938 5156 b7b7 834c 3c38
00000310: 073f 1738 2705 89b9 99a8 76b6 d361 f5b7
00000320: a54b 8437 ef7e 9bb6 ac42 b536 ed80 39b8
00000330: ad85 76b9 b0df 11b9 883a 0e3a a2e1 b936
00000340: 786c 2bb7 9bf6 31b7 1eeb c4b7 b9c7 eab7
00000350: 1d7e f936 188f a337 b707 9338 b357 50b7
00000360: 12e2 9cb6 3fad 63b6 44cc 81b7 5435 72b7
00000370: fa6d ddb8 bce6 8937 bd37 10b7 b498 98b9
00000380: c4c5 203a 0490 2437 0776 8cb9 b930 5c37
00000390: 8b0f 3338 7f1a 0b38 ccd2 0137 a08d 3239
000003a0: bed8 a636 5c56 7ab7 ddad 7eba 5315 4338
000003b0: 9a46 ffb7 3e9a 8939 d039 a437 fba3 57b8
000003c0: 4701 023a f273 2137 9cad 4737 9a21 9bb7
000003d0: 6caa f5b7 0412 16b8 2c5f 13b9 e8b1 da38
000003e0: fb29 16b7 15fc 76b7 49c7 a3b8 8367 34b7
000003f0: 93ec 9d37 49e3 80b8 e4bb afb9 1231 13b8

exp_avg_sq f4 [192, 64]
3.389595e-08 1.8235141e-08 7.350481e-08 7.240784e-09 1.0648855e-08 2.079219e-07 6.509726e-08 4.143667e-08
3.787756e-07 4.61709e-08 1.8752809e-08 1.5167199e-08 4.270948e-06 4.559661e-07 1.977861e-06 5.0489786e-09
2.6505006e-08 4.4345757e-07 5.8440744e-08 1.01687036e-07 1.22952795e-08 2.8621537e-08 2.6041772e-07 2.5348463e-08
4.4514717e-08 4.462385e-08 2.1942324e-08 1.6261808e-08 2.5318421e-08 1.9902886e-08 6.9288255e-08 7.272307e-07
3.4353993e-06 3.238629e-09 1.7345768e-07 1.2262684e-07 1.4397375e-08 2.2361851e-08 1.5222588e-07 4.2531187e-07
1.0251155e-07 1.6643138e-08 3.300039e-06 1.1865194e-07 7.719869e-08 2.093968e-07 1.1545025e-08 2.0426457e-08
1.3204402e-06 6.164194e-09 1.0072375e-08 1.0704151e-08 2.998752e-08 1.7196213e-07 1.5323546e-07 2.4835646e-08
1.7096102e-08 7.762783e-08 1.7227533e-08 7.31765e-09 1.354167e-08 1.169291e-07 2.4930398e-07 3.161887e-08
1.9932205e-08 1.8906248e-07 8.8545946e-08 7.772555e-08 3.0376e-08 4.7583494e-06 1.6819406e-07 8.7442636e-08
1.7778122e-08 1.1729178e-07 2.3967814e-08 2.9387444e-08 3.9469073e-06 4.4607324e-07 1.5336622e-05 2.1118577e-08
1.0989009e-08 8.5145416e-07 4.836633e-07 7.910574e-09 3.5188634e-07 2.62694e-07 3.450231e-07 3.0905632e-08
4.0996915e-07 2.7436295e-06 5.195654e-08 4.8609287e-08 3.09402e-08 6.3064014e-08 1.0149063e-08 2.3982577e-06
8.406297e-06 3.766613e-08 1.9428123e-06 6.226438e-07 1.0381882e-07 1.12035174e-07 1.469514e-07 5.096595e-07
1.3500588e-07 1.17922596e-07 8.738624e-06 1.0387541e-06 5.3524932e-08 4.281044e-06 1.4429806e-07 3.381075e-08
4.3237937e-06 6.807646e-09 5.5381363e-08 1.8159439e-07 5.125591e-08 3.133416e-07 1.8159031e-06 2.7857475e-08
4.7548028e-08 1.2854291e-08 1.6337104e-07 8.668867e-08 8.1485844e-08 3.5089876e-08 5.470263e-06 3.6112308e-08
2.4608724e-07 6.8694095e-07 1.716321e-06 1.09359725e-07 3.3184614e-07 5.85699e-06 6.219792e-07 3.092133e-07
1.0145387e-05 3.543509e-06 3.765119e-07 2.6095867e-07 1.1599738e-05 1.3011983e-05 1.3664958e-05 5.053304e-08
3.1953442e-07 2.0155596e-05 2.7860867e-06 1.7910534e-06 1.6495666e-07 7.399875e-07 3.5569979e-06 2.3247699e-06
2.6996968e-06 8.1201676e-07 1.360172e-07 2.1376725e-07 4.11567e-06 1.9598755e-07 8.9445837e-07 5.4348407e-06
4.23936e-05 4.64647e-08 5.40692e-06 1.3685079e-06 6.3905696e-07 1.883696e-06 1.179065e-06 1.9460686e-06
1.6616349e-06 1.7937725e-07 1.9502455e-05 9.8882465e-06 1.1963728e-06 9.075965e-06 6.278716e-07 2.5297559e-06
1.635766e-05 3.722059e-07 4.1556976e-07 4.839249e-07 3.3898976e-07 1.3973736e-06 3.4690775e-06 1.4536752e-06
1.8836164e-07 7.2774986e-07 9.660467e-07 1.1200308e-07 6.299098e-07 1.4667893e-06 7.049456e-06 7.868389e-07
3.1564497e-08 1.2735728e-07 1.1269369e-07 1.2350307e-07 5.0283486e-08 1.7003235e-06 1.7012614e-07 2.3326069e-07
1.5992533e-06 9.160583e-08 6.694025e-08 9.342527e-08 9.525842e-06 1.1624718e-06 1.1285755e-05 3.0079736e-08
6.560824e-08 2.668154e-06 3.5362112e-07 1.053023e-07 2.5596935e-07 1.3661209e-07 5.3105515e-07 6.6943265e-08
3.1907112e-07 4.5937563e-07 1.3310773e-07 4.2613404e-08 2.1954213e-07 2.8860967e-08 2.6120563e-08 2.505642e-06
1.4896807e-05 3.143839e-08 1.599881e-06 1.0347352e-06 1.4241816e-07 1.433289e-07 2.1494967e-07 1.5219505e-06
1.5175577e-07 7.717257e-08 2.9074325e-05 1.2483343e-06 6.092777e-08 1.6408621e-06 1.4056984e-07 9.862289e-08
1.0750073e-05 3.8279488e-08 8.1266165e-08 1.7064106e-07 4.0063078e-08 4.76541e-07 7.192294e-07 3.173165e-07
8.669956e-08 1.3361233e-07 3.9787142e-07 8.2073086e-08 7.971859e-08 1.4055364e-07 1.8635913e-06 1.3288955e-07
00000000: fe94 1133 80a3 9c32 b2d9 9d33 9cca f831
00000010: 29f2 3632 2341 5f34 99cb 8b33 1af8 3133
00000020: 865a cb34 714d 4633 dd15 a132 0649 8232
00000030: 2a4f 8f36 81cb f434 65bb 0436 497b ad31
00000040: 20ad e332 5814 ee34 4700 7b33 0a5f da33
00000050: 363b 5332 6ddb f532 8acf 8b34 dcbd d932
00000060: 7330 3f33 71a8 3f33 ae7b bc32 18b0 8b32
00000070: cc7b d932 e9f6 aa32 9fcb 9433 ea36 4335
00000080: b68b 6636 908e 5e31 af3f 3a34 69ab 0334
00000090: 5358 7732 3b16 c032 8873 2334 6b56 e434
000000a0: 5224 dc33 a6f6 8e32 3d76 5d36 98cd fe33
000000b0: 6ec8 a533 8ed6 6034 8f57 4632 4176 af32
000000c0: fb39 b135 d3cc d331 c60a 2d32 5be5 3732
000000d0: a0cb 0033 97a4 3834 0b89 2434 2a56 d532
000000e0: bada 9232 5ab4 a633 bffb 9332 bb6e fb31
000000f0: e5a4 6832 741a fb33 14d8 8534 51cd 0733
00000100: 6237 ab32 1901 4b34 a626 be33 13ea a633
00000110: c476 0233 e9a9 9f36 d598 3434 19c8 bb33
00000120: 81b6 9832 d7e1 fb33 c8e1 cd32 ac6f fc32
00000130: ad6f 8436 d77b ef34 25a7 8037 3e68 b532
00000140: 2cca 3c32 7c8f 6435 17d5 0135 13e7 0732
00000150: e4ea bc34 6308 8d34 9d3b b934 1abd 0433
00000160: bb19 dc34 321f 3836 d226 5f33 7ac6 5033
00000170: 1ce3 0433 cf6d 8733 0d5c 2e32 c1f1 2036
00000180: c508 0d37 59c6 2133 4361 0236 c223 2735
00000190: 00f3 de33 fd97 f033 b1c9 1d34 89cf 0835
000001a0: 22f6 1034 a23c fd33 1b9c 1237 526b 8b35
000001b0: 49e3 6533 e3a5 8f36 59f0 1a34 5037 1133
000001c0: 1b15 9136 b0e8 e931 74dc 6d33 49fc 4234
000001d0: 7824 5c33 5739 a834 f5b9 f335 3c4b ef32
000001e0: 9c37 4c33 c5d5 5c32 176b 2f34 9a29 ba33
000001f0: 51fd ae33 bab5 1633 348d b736 e719 1b33
00000200: f91d 8434 3966 3835 575c e635 25d9 ea33
00000210: 9628 b234 2987 c436 16f6 2635 f401 a634
00000220: 1b36 2a37 05cd 6d36 6723 ca34 e319 8c34
00000230: 7f9c 4237 0b4e 5a37 8c42 6537 aa09 5933
00000240: 7a8c ab34 d013 a937 9bf8 3a36 2064 f035
00000250: f11e 3134 8ea3 4635 c2b4 6e36 3e03 1c36
00000260: 702c 3536 5ef9 5935 200c 1234 e587 6534
00000270: 5619 8a36 a670 5234 b61a 7035 ed5c b636
00000280: c8cf 3138 7a90 4733 176d b536 93ad b735
00000290: a98b 2b35 4dd3 fc35 5d40 9e35 3499 0236
000002a0: 5705 df35 d89a 4034 3499 a337 b2e5 2537
000002b0: 0e93 a035 f944 1837 028b 2835 e0c4 2936
000002c0: cf37 8937 97d3 c734 791b df34 11e7 0135
000002d0: 66fe b534 648d bb35 4cce 6836 e61b c335
000002e0: 7440 4a34 975a 4335 1da9 8135 5886 f033
000002f0: 1217 2935 7fde c435 5e8a ec36 2837 5335
00000300: 8891 0733 b4bf 0834 0302 f233 449c 0434
00000310: 47f7 5733 ac36 e435 ebab 3634 3676 7a34
00000320: eda5 d635 d6b8 c433 cbc0 8f33 16a1 c833
00000330: 2ed1 1f37 3a06 9c35 f357 3d37 0531 0133
00000340: 83e4 8c33 890e 3336 51d9 bd34 8d22 e233
00000350: 296c 8934 a5af 1234 d58d 0e35 73c2 8f33
00000360: cd4c ab34 1ba0 f634 60ec 0e34 ef05 3733
00000370: 48bb 6b34 f0e9 f732 ba5f e032 9a26 2836
00000380: 4ded 7937 e006 0733 7ebb d635 3be1 8a35
00000390: 9beb 1834 f3e5 1934 eacc 6634 d245 cc35
000003a0: 4ff2 2234 12ba a533 a3e4 f337 718c a735
000003b0: 65d7 8233 983b dc35 8bef 1634 82ca d333
000003c0: 365b 3437 be68 2433 8c84 ae33 7539 3734
000003d0: d211 2c33 4cd7 ff34 1111 4135 a65b aa34
000003e0: 962f ba33 1477 0f34 089b d534 2840 b033
000003f0: c231 ab33 17eb 1634 8220 fa35 67b0 0e34

exp_avg f4 [192]
-0.0001741311 -0.00046205867 -0.0010934465 0.0006242479 0.00029043123 0.0002116371 0.00043058602 9.426075e-05
0.00024219563 6.571615e-06 0.00042617912 3.411421e-05 0.00782106 -0.0002958311 0.00024712033 -0.00011274158
1.9522027e-05 0.0012470536 -0.00065332773 -0.0007018388 0.00013927785 -2.4002866e-05 -0.00034461013 -0.00037458012
0.0015161516 -0.00055933004 0.0008702685 -0.0002856571 5.8725946e-05 0.00010014397 0.00046603015 0.00012826364
0.00032738785 -0.00029694088 0.0074635716 0.0012631039 0.00030300586 6.348815e-05 0.0029413851 -0.00055470824
-0.00085942296 -0.00020605022 0.00028270882 -0.0018102541 0.0003986761 3.077409e-05 -0.000489 -0.0002441476
0.011545047 0.0004714135 -2.6654661e-05 -0.00014131819 -0.00031719432 0.00042140138 0.0032792697 -7.600908e-06
8.485854e-05 0.0005457585 -0.0003334048 0.00030924295 0.00013462853 -0.0005092046 -0.0038033098 -0.00016976603
0.0002303493 0.0008124279 0.00049259485 0.00012996273 0.0021627303 0.0053393417 -4.7801313e-05 -0.0004522443
-0.0005324891 0.0015242195 -0.00039384418 -0.00014425653 0.0012280592 -0.0010105985 0.0027656252 4.5712604e-05
0.00014179514 -0.031673618 -0.0007078778 0.0001975455 1.298553e-05 -0.0012561511 -0.00037215283 -8.083156e-05
-0.00016244077 0.0026625774 0.00015320875 0.0004361568 -0.0004686065 1.4898843e-06 0.00014617527 -0.0002980441
-0.001784143 6.733989e-05 0.0033264428 0.0006171808 -0.00016604939 0.00032088897 -0.0031218196 0.0010739894
0.00051345734 -0.00014514905 0.0015338749 -0.0014265013 0.00011373598 0.002367955 8.2789105e-05 6.321628e-06
0.0037598496 1.3285145e-05 0.00023193768 -0.00019708427 0.00040555684 -0.00032566043 0.0017484976 0.000382491
7.686265e-05 0.00053546426 7.204173e-05 0.00028234624 -1.5096929e-05 7.235722e-05 0.0055654487 6.6423665e-05
-0.0011784915 0.023307713 -0.008503741 -0.000928065 -0.0015434658 0.049190316 -0.0041866354 0.0064826785
0.008216049 -0.010656963 -0.0016729055 4.306526e-05 -0.021979397 0.0031861097 0.0008999123 0.0020271484
-0.0028918008 0.014107178 -0.0088057695 -0.008500627 0.0020970132 0.030996509 -0.0018987638 0.006116452
-0.010206433 -0.0068898043 -0.011105558 -0.006527006 0.002542903 0.010511719 0.00042806775 0.01874473
-0.0015417737 0.005392073 -0.01673271 0.00215927 0.01097114 -0.006698041 0.020566666 -0.005888145
-0.0060812547 0.018105991 0.017807916 -0.008060289 -0.00021641025 -0.0362575 0.018112207 -0.0019175239
0.01118793 0.004119538 0.002889588 0.0010900706 -0.00054033747 0.0029457305 -0.008911432 5.5814908e-05
0.0019898927 -0.0033349479 -0.014240615 0.0017829572 0.023142166 0.0012222866 0.023383083 0.002909265
00000000: f696 36b9 7740 f2b9 fa51 8fba 91a4 233a
00000010: 0545 9839 e7ea 5d39 47c0 e139 dbad c538
00000020: e5f5 7d39 be81 dc36 cb70 df39 db15 0f38
00000030: e723 003c c719 9bb9 ee8f 8139 ad6f ecb8
00000040: 3cc3 a337 2d74 a33a 1544 2bba 9bfb 37ba
00000050: 1d0b 1239 c359 c9b7 caac b4b9 4b63 c4b9
00000060: 9bb9 c63a 01a0 12ba bb22 643a 3fc4 95b9
00000070: 8150 7638 6204 d238 8255 f439 827e 0639
00000080: 41a5 ab39 bbae 9bb9 fa90 f43b bc8e a53a
00000090: c2dc 9e39 f124 8538 41c4 403b d769 11ba
000000a0: e64a 61ba 2f0f 58b9 8938 9439 0c46 edba
000000b0: 6605 d139 6d13 0138 3c30 00ba f000 80b9
000000c0: 7027 3d3c 0d28 f739 7398 dfb7 d02e 14b9
000000d0: 1a4d a6b9 89ef dc39 04e9 563b 4d0b ffb6
000000e0: 15f6 b138 3c11 0f3a d6cc aeb9 e321 a239
000000f0: 122b 0d39 247c 05ba f340 79bb 3903 32b9
00000100: eb89 7139 1df9 543a 7b21 013a 9b46 0839
00000110: 98bc 0d3b a5f5 ae3b 457e 48b8 341b edb9
00000120: bd96 0bba 52c8 c73a df7c ceb9 9143 17b9
00000130: d4f6 a03a 0f76 84ba 7e3f 353b 89bb 3f38
00000140: d8ae 1439 32bc 01bd e090 39ba 3724 4f39
00000150: 6ddc 5937 70a5 a4ba 821d c3b9 1d84 a9b8
00000160: dd54 2ab9 a37e 2e3b a9a6 2039 faab e439
00000170: 4daf f5b9 09f8 c735 a046 1939 cd42 9cb9
00000180: e8d9 e9ba d438 8d38 7300 5a3b 4dca 213a
00000190: 8b1d 2eb9 fd3c a839 7197 4cbb 1bc5 8c3a
000001a0: 8a99 063a 2733 18b9 4d0c c93a 71f9 baba
000001b0: 8a85 ee38 b12f 1b3b 109f ad38 5f1e d436
000001c0: cf67 763b 43e3 5e37 4c34 7339 68a8 4eb9
000001d0: eba0 d439 67bd aab9 d82d e53a 1389 c839
000001e0: 5231 a138 665e 0c3a 1c15 9738 df07 9439
000001f0: d148 7db7 7dbe 9738 5e5e b63b ef4c 8b38
00000200: 9d77 9aba d1ef be3c 4653 0bbc 6349 73ba
00000210: 1e4e caba c97b 493d 0b30 89bb a66c d43b
00000220: 9b9c 063c 8b9a 2ebc 6545 dbba f9a0 3438
00000230: 230e b4bc 0dce 503b 18e8 6b3a e8d9 043b
00000240: 5e84 3dbb cb21 673c 1346 10bc 3746 0bbc
00000250: 0b6e 093b 64ec fd3c f1df f8ba 856c c83b
00000260: e238 27bc dec3 e1bb 16f4 35bc 7fe0 d5bb
00000270: d5a6 263b 5839 2c3c 486e e039 8c8e 993c
00000280: 5715 caba fdaf b03b 0913 89bc 8a82 0d3b
00000290: 4cc0 333c 3e7b dbbb 6d7b a83c 57f1 c0bb
000002a0: 4345 c7bb 0453 943c e8e1 913c 4d0f 04bc
000002b0: 2fec 62b9 bf82 14bd 0d60 943c 6d55 fbba
000002c0: 944d 373c 30fd 863b 3e5f 3d3b b3e0 8e3a
000002d0: 6fa5 0dba 280d 413b 4101 12bc cd1a 6a38
000002e0: dc68 023b 248f 5abb 7851 69bc 1eb2 e93a
000002f0: a494 bd3c 2235 a03a e18d bf3c 5ea9 3e3b
