pretrained/muff_sr_indie_gru16.ckpt (torch, 25614 bytes, 22 tensors)

model.rec.weight_ih_l0 f4 [48, 2]
0.3515862 0.12997964 1.674746 -0.07422327 1.6379039 0.18038087 2.671599 0.5840224
1.556027 -0.11250507 -0.029564539 0.12261624 -0.23706244 0.5495019 -0.70538837 -0.2730824
7.814553 0.7857479 0.16267636 0.14982198 -7.978145 0.15075257 3.771598 0.24097976
-2.4611752 0.46949932 3.1279476 -1.4322138 -1.3818719 -0.19957884 0.5532226 0.7711246
-1.2952513 0.16259788 -0.59284204 0.19159973 1.6144491 0.066478565 -0.1645898 0.16176432
1.5460067 0.6015186 -0.8169275 0.20352197 -3.558153 0.07492998 0.43047747 0.29966414
1.3831087 0.23820315 -1.5136976 0.31797326 0.8164807 0.19633967 -0.77270055 0.0046847695
-0.70259976 -0.1867382 -2.6948228 -0.5531182 2.5727832 0.35188913 1.6588885 0.13557974
0.6563036 0.004063126 0.31650466 0.035156455 -2.9699476 0.17199965 0.10093843 0.036204893
0.699642 0.1522548 -1.1371166 0.09975987 -4.671305 -0.26223055 0.8988435 -0.053489573
-7.0071177 0.17952345 0.05237976 -0.28952336 -8.100815 -0.08879694 3.5794342 -0.19702737
-1.2768325 -0.23716415 -2.3072617 0.06159654 2.1777427 -0.026498148 -3.3702726 -0.26102418
00000000: 1b03 b43e 6219 053e 145e d63f 5f02 98bd
00000010: d6a6 d13f c3b5 383e 7afb 2a40 7e82 153f
00000020: e52b c73f 0f69 e6bd 5531 f2bc 391e fb3d
00000030: 7fc0 72be 28ac 0c3f 5594 34bf 75d1 8bbe
00000040: d110 fa40 c626 493f a294 263e ef6a 193e
00000050: f74c ffc0 e25e 1a3e dd61 7140 66c3 763e
00000060: e583 1dc0 3762 f03e 4b30 4840 c852 b7bf
00000070: 2ee1 b0bf 655e 4cbe ff9f 0d3f 6c68 453f
00000080: cbca a5bf 0f80 263e 7fc4 17bf b832 443e
00000090: 45a6 ce3f ea25 883d 3b8a 28be 8ca5 253e
000000a0: 8ce3 c53f 1ffd 193f 2922 51bf 1068 503e
000000b0: c7b8 63c0 e474 993d 8b67 dc3e 946d 993e
000000c0: b509 b13f 87eb 733e d8c0 c1bf 64cd a23e
000000d0: e104 513f 440d 493e b4cf 45bf b282 993b
000000e0: 94dd 33bf 4c38 3fbe fa77 2cc0 2899 0dbf
000000f0: 7ba8 2440 d02a b43e 7556 d43f 6ad5 0a3e
00000100: 8303 283f f923 853b e60c a23e 3700 103d
00000110: 9f13 3ec0 ad20 303e cfb8 ce3d 954b 143d
00000120: bd1b 333f afe8 1b3e 098d 91bf e74e cc3d
00000130: 557b 95c0 1543 86be 9c1a 663f e217 5bbd
00000140: 4f3a e0c0 ffd4 373e 298c 563d 683c 94be
00000150: f09c 01c1 2cdb b5bd 7315 6540 8bc1 49be
00000160: 3f6f a3bf 29db 72be 2daa 13c0 a74c 7c3d
00000170: 2360 0b40 a512 d9bc 8cb2 57c0 f6a4 85be

model.rec.weight_hh_l0 f4 [48, 16]
-0.6570985 0.038894508 -0.34937525 -2.2308617 0.19593182 1.2844412 -0.44542444 -1.6366485
-0.2935223 0.14849326 -0.20918463 0.02818048 -0.0044174106 -0.33012104 0.011913746 -0.38349515
0.0081488835 -0.60724956 0.16494444 0.17046037 0.0018993341 0.3840972 -0.1271153 -0.013871548
-0.15284538 0.04056434 -0.7842268 0.036439907 -0.33137015 -0.9340596 0.94552666 -0.64071023
-0.23930392 -1.1453264 0.15802667 -0.1449452 0.04419316 -0.047254194 0.5222679 -0.46869943
0.6393882 0.010059121 0.0116189495 0.053770356 0.5147756 0.08863203 -0.06164654 -0.65527606
-0.6985331 0.9098135 0.8001304 0.005638426 0.33637938 2.7930267 -1.6879443 -0.76210874
-1.1980089 -0.028955642 -0.6743104 -0.26801282 0.024217566 0.32974276 0.79020464 -0.83255637
1.5105852 -1.5265921 -1.5955358 0.1305834 -0.21142128 -0.1468654 -1.0386637 -0.26788133
1.10015 0.29494363 0.44936022 0.61763376 -0.45881405 0.15661618 0.9295783 -1.2156981
-0.7684205 0.085220516 1.2419102 -0.41986656 -0.4036993 1.0624013 0.21685728 -0.46749
-0.27451795 -0.04462456 -0.10513949 -0.36313748 -0.4975265 0.8758005 0.021452658 0.049388386
0.45066413 0.032350853 -0.44411743 -0.4041821 -0.17501591 1.3683679 -1.1329904 -0.36011308
0.29514533 0.6720285 -0.41286296 -0.12712976 -1.1703538 1.7827955 -0.26531878 -0.02438256
-0.6941431 -0.43406713 0.2179007 -0.7442656 -0.45668092 1.1446432 0.7045776 -0.21752416
-1.1572993 -0.068136446 -0.37894198 -0.05965302 0.52862 0.059506718 0.034468517 -0.9822373
-0.03480117 -0.45723152 0.19479503 -0.6531978 0.2809446 2.049261 -1.4800146 -0.24199189
-1.3465986 -0.016989466 -1.606678 -0.03181174 0.1448538 -0.88988805 1.0556006 -0.32714245
-0.6561377 1.8135401 1.2470092 0.9041473 0.5294733 -2.5946965 -0.6856669 0.48779723
0.31213024 -0.8762085 0.34392196 -1.2914016 0.24959001 0.5774898 0.008708953 0.052844547
0.3923781 -0.21102405 -0.20913193 0.288336 -0.12456842 0.8433529 1.1274074 0.39264053
0.7971113 0.031222938 0.041606076 -0.27770764 0.75150746 0.016161805 -0.50711745 -0.1579396
-0.09346959 -0.17680398 -0.0412872 0.029013956 -0.055238336 0.6828649 -0.62991685 0.47914264
0.22702675 -0.17666867 -1.1607754 0.44867638 0.20751384 -0.00649113 0.6495976 0.24259336
0.14345281 1.6353939 -0.15473711 -0.07575598 0.53185326 -1.3241582 -0.5246427 0.15303214
0.4395886 -0.7412525 -0.39510518 -1.0477521 -0.28701654 1.4261463 0.027231608 -0.15830219
-0.65276 -0.13577016 -0.7080364 0.12414141 -0.5318493 0.11854168 0.8807765 0.35100448
-0.57986325 0.041820236 -0.41203716 0.15578438 0.59861976 -0.79710376 -0.124003254 -0.27370563
0.18156324 0.5671563 -0.16599911 0.17092009 -0.167134 1.3121893 1.3464433 -0.039846912
0.024585895 0.26313484 0.04237329 -0.382971 1.0575893 0.5765642 -1.1159252 0.5273754
-0.56286854 0.046876214 -0.50701964 -0.21799617 0.46992418 1.2806165 -0.20471376 -0.11910935
0.24760744 -0.42232826 0.022425978 0.38552442 -0.25069737 -0.18502632 0.018339906 -0.030256892
00000000: 9b37 28bf d94f 1f3d 50e1 b2be 70c6 0ec0
00000010: 5aa2 483e 9268 a43f ac0e e4be b37d d1bf
00000020: 8e48 96be 9e0e 183e 7f34 56be c0da e63c
00000030: edbf 90bb a005 a9be df31 433c 7a59 c4be
00000040: e582 053c b574 1bbf 32e7 283e 2a8d 2e3e
00000050: 14f3 f83a 63a8 c43e 832a 02be 7d45 63bc
00000060: 8083 1cbe cb26 263d 16c3 48bf 0342 153d
00000070: 59a9 a9be 881e 6fbf 090e 723f 9605 24bf
00000080: 160c 75be 0e9a 92bf bed1 213e 846c 14be
00000090: e303 353d 9d8d 41bd 59b3 053f 5ff9 efbe
000000a0: f2ae 233f 03cf 243c 685d 3e3c 4e3e 5c3d
000000b0: 55c8 033f b684 b53d 1581 7cbd 2cc0 27bf
000000c0: 11d3 32bf 8ae9 683f 59d5 4c3f 8cc2 b83b
000000d0: eb39 ac3e f3c0 3240 8f0e d8bf 8f19 43bf
000000e0: 5b58 99bf 6234 edbc 9b9f 2cbf fa38 89be
000000f0: eb63 c63c 0bd4 a83e da4a 4a3f 6a22 55bf
00000100: db5a c13f 5f67 c3bf 843a ccbf a8b7 053e
00000110: d27e 58be e263 16be eff2 84bf be27 89be
00000120: b7d1 8c3f da02 973e 8b12 e63e 3f1d 1e3f
00000130: ade9 eabe fe5f 203e d8f8 6d3f ff9b 9bbf
00000140: 35b7 44bf 1888 ae3d eaf6 9e3f c0f8 d6be
00000150: adb1 cebe c4fc 873f d60f 5e3e d95a efbe
00000160: 9e8d 8cbe 3ec8 36bd 5f53 d7bd 28ed b9be
00000170: cbbb febe 7634 603f 7cbd af3c 7a4b 4a3d
00000180: 73bd e63e 5482 043d 5c63 e3be f5f0 cebe
00000190: 5f37 33be ae26 af3f d405 91bf be60 b8be
000001a0: 4a1d 973e 0f0a 2c3f c662 d3be 4e2e 02be
000001b0: 27ce 95bf a532 e43f ddd7 87be efbd c7bc
000001c0: 5db3 31bf 0c3e debe 5c21 5f3e 3188 3ebf
000001d0: 15d2 e9be ab83 923f 335f 343f a7be 5ebe
000001e0: 6222 94bf 1f8b 8bbd af04 c2be ba56 74bd
000001f0: a453 073f 51bd 733d dc2e 0d3d e773 7bbf
00000200: ac8b 0ebd 401a eabe 5978 473e f937 27bf
00000210: f8d7 8f3e 1827 0340 1e71 bdbf b9cc 77be
00000220: 585d acbf 7e2d 8bbc a0a7 cdbf 074d 02bd
00000230: 8e54 143e b4cf 63bf ec1d 873f 377f a7be
00000240: a4f8 27bf 1522 e83f ff9d 9f3f 3376 673f
00000250: 908b 073f 820f 26c0 de87 2fbf 8fc0 f93e
00000260: 89cf 9f3e 334f 60bf 8a16 b03e a64c a5bf
00000270: 8694 7f3e 5fd6 133f ffaf 0e3c 8673 583d
00000280: c8e5 c83e b016 58be ae26 56be c7a0 933e
00000290: ba1d ffbd fae5 573f e34e 903f 2e08 c93e
000002a0: 7c0f 4c3f 3fc7 ff3c 226b 2a3d b22f 8ebe
000002b0: cb62 403f c365 843c 73d2 01bf ebba 21be
000002c0: fc6c bfbd 1a0c 35be c41c 29bd adae ed3c
000002d0: 9841 62bd 3cd0 2e3f 3b42 21bf 2f52 f53e
000002e0: b379 683e a2e8 34be 4a94 94bf e9b8 e53e
000002f0: 827e 543e 8cb3 d4bb 074c 263f 656a 783e
00000300: 4be5 123e 9654 d13f 6873 1ebe f425 9bbd
00000310: 8927 083f 047e a9bf fc4e 06bf 75b4 1c3e
00000320: c211 e13e b9c2 3dbf 3a4b cabe be1c 86bf
00000330: d5f3 92be f68b b63f d214 df3c f819 22be
00000340: 481b 27bf 5507 0bbe e041 35bf da3d fe3d
00000350: 4727 08bf fbc5 f23d 927a 613f dcb6 b33e
00000360: eb71 14bf b24b 2b3d 89f6 d2be f185 1f3e
00000370: 253f 193f fe0e 4cbf 6bf5 fdbd 2523 8cbe
00000380: b7eb 393e 2831 113f acfb 29be ad05 2f3e
00000390: 2d25 2bbe d2f5 a73f 4158 ac3f 8436 23bd
000003a0: 5c68 c93c 9cb9 863e 9d8f 2d3d c614 c4be
000003b0: 165f 873f b699 133f a3d6 8ebf 1302 073f
000003c0: 2718 10bf 4601 403d 0acc 01bf 633a 5fbe
000003d0: e799 f03e 3eeb a33f 7ca0 51be 9aef f3bd
000003e0: ce8c 7d3e 693b d8be afb6 b73c 7563 c53e
000003f0: 685b 80be 8a77 3dbe 923d 963c 4ddd f7bc

model.rec.bias_ih_l0 f4 [48]
0.16303264 -0.043956388 0.18709002 0.15408932 -0.534515 0.044268955 -1.0074506 -0.07880148
0.026223995 0.036855996 -0.23271783 -0.5767405 0.31901142 0.34561473 -0.560841 0.4546531
-0.19313285 0.1518451 -0.4051426 -0.1254743 0.37178183 1.5766147 0.045039274 -0.4104059
-0.624976 -0.5746113 -0.18733425 0.44164267 -1.0170003 -0.2818648 -0.10354684 -0.18722956
-0.46152985 0.09706248 0.033599485 0.05117612 -0.12036232 0.105339155 0.35735136 0.18816781
0.33630863 -0.38616347 -0.096818805 -0.41819602 0.16031949 -0.0528271 0.28381205 0.009522426
00000000: 07f2 263e 9d0b 34bd 8794 3f3e 97c9 1d3e
00000010: fad5 08bf 5d53 353d 24f4 80bf ac62 a1bd
00000020: b4d3 d63c 50f6 163d 954d 6ebe 44a5 13bf
00000030: 7755 a33e 6af4 b03e 4793 0fbf 4bc8 e83e
00000040: 9ec4 45be 487d 1b3e da6e cfbe 567c 00be
00000050: 305a be3e 83ce c93f 1a7b 383d b920 d2be
00000060: 6dfe 1fbf ba19 13bf 8dd4 3fbe fd1e e23e
00000070: 112d 82bf 9550 90be 5e10 d4bd 1bb9 3fbe
00000080: a44d ecbe b2c8 c63d 9d9f 093d 0d9e 513d
00000090: 8580 f6bd 0ebc d73d c2f6 b63e 10af 403e
000000a0: a530 ac3e 38b7 c5be f048 c6bd ca1d d6be
000000b0: cb2a 243e 3b61 58bd d04f 913e f303 1c3c

model.rec.bias_hh_l0 f4 [48]
-0.042722568 0.12327126 0.4267378 0.3546162 -0.7192441 -0.19153555 -0.93065417 0.0024867714
0.3981086 -0.22562635 -0.4560363 -0.46105054 0.28736022 -0.12357174 -0.317623 0.27503562
0.09635755 0.46069318 0.023977667 -0.6065849 -0.014653796 1.6113535 0.12805887 -0.05861587
-0.48503357 -1.0178795 0.13313556 -0.016787212 -1.0268686 -0.62151194 -0.09574751 -0.25821403
-0.54874206 0.027781218 -0.32143703 -0.5620444 0.20013653 -0.25324497 -0.35977194 -0.37958536
-0.16991144 -0.5169557 0.043404713 -0.1607321 0.0975115 -0.6412365 0.42528707 -0.038958613
00000000: dcfd 2ebd a475 fc3d 607d da3e 4190 b53e
00000010: 6220 38bf e521 44be 5a3f 6ebf 1af9 223b
00000020: e4d4 cb3e 980a 67be 977d e9be d10e ecbe
00000030: e120 933e 2e13 fdbd 7b9f a2be 78d1 8c3e
00000040: 1b57 c53d fadf eb3e d06c c43c 2649 1bbf
00000050: 7a16 70bc d540 ce3f dd21 033e 3217 70bd
00000060: 5256 f8be e049 82bf b054 083e 5685 89bc
00000070: 6e70 83bf 681b 1fbf 4517 c4bd a134 84be
00000080: 5c7a 0cbf 7095 e33c 6593 a4be 24e2 0fbf
00000090: 97f0 4c3e 53a9 81be 0734 b8be 0359 c2be
000000a0: 44fd 2dbe 3557 04bf 24c9 313d f596 24be
000000b0: 1cb4 c73d 1328 24bf 3abf d93e 1193 1fbd

model.linear.weight f4 [1, 16]
-0.056749437 0.20104487 0.4264638 -0.14857751 -0.2351749 0.0073827915 0.113450654 -0.18586875
0.07779325 0.22786959 0.0728119 0.06266455 0.078617945 0.10528451 -0.006674537 -0.0035803674
00000000: 1972 68bd b5de 4d3e 7759 da3e b424 18be
00000010: b0d1 70be 58eb f13b d158 e83d 6154 3ebe
00000020: 1152 9f3d a556 693e 681e 953d 4656 803d
00000030: 7202 a13d 689f d73d 13b6 dabb 99a4 6abb

exp_avg f4 [48, 2]
-0.0058443663 0.07278529 0.0007883202 -0.04518538 0.00047594012 0.0074988836 0.0008606637 -0.013721056
0.0008186886 0.04967362 -0.0052939183 0.012001022 -0.0019970916 0.07887529 -0.0037446811 0.070485055
0.0007325014 -0.029577676 -0.00012299838 0.0049074045 -0.002032849 -0.07135812 -0.0070045213 -0.011969889
0.00018740282 -0.008523626 0.0021675183 0.050059523 -0.0052881776 0.08906536 -0.000750438 0.031776227
0.0006678856 -0.019040458 -5.837234e-05 0.033481095 -0.000373636 0.0008743462 0.0013964333 0.013910436
3.7779246e-05 -0.004439322 0.11584386 0.25713977 0.00050467474 0.09542044 -0.00042861848 -0.022343928
0.001126247 0.23749217 -0.00017788661 0.0022889157 -0.00013038066 -0.11323159 0.0005674184 0.018191308
-0.0001908575 -5.433025e-05 0.00020257769 0.004039387 0.0023537842 -0.07576006 -0.0006134013 0.035943083
-0.07611835 0.8140757 0.040852096 -0.41586313 -0.0065212892 -0.12784918 -0.02998032 0.2021305
0.09950944 0.42422336 -0.0019249785 0.66243434 -0.042802207 -0.47222546 -0.013579494 0.21227768
0.009589171 -1.6589059 -0.042593878 -0.61195666 0.018758066 -2.6924717 -0.034182243 0.7862436
-0.009000156 -0.024633897 -0.00037878074 0.042876687 0.065001234 0.4605743 -0.005119698 -0.33789384
00000000: 1982 bfbb 7410 953d 46a7 4e3a 4e14 39bd
00000010: 9a87 f939 32b9 f53b 2a9e 613a 48ce 60bc
00000020: 439d 563a 9176 4b3d 9b78 adbb ef9f 443c
00000030: a3e1 02bb 5e89 a13d 5369 75bb 785a 903d
00000040: 5605 403a e24c f2bc 20f9 00b9 4bce a03b
00000050: 8c39 05bb 3524 92bd 2f86 e5bb 5a1d 44bc
00000060: 9081 4439 aea6 0bbc ec0c 0e3b 370b 4d3d
00000070: 7348 adbb e667 b63d 0bb9 44ba ca27 023d
00000080: 0b15 2f3a bcfa 9bbc d3d4 74b8 7923 093d
00000090: 93e4 c3b9 6134 653a 8708 b73a 99e8 633c
000000a0: 2875 1e38 bb77 91bb 8c3f ed3d d3a7 833e
000000b0: 264c 043a cb6b c33d 33b8 e0b9 9d0a b7bc
000000c0: 949e 933a 2631 733e 1387 3ab9 a201 163b
000000d0: cbb6 08b9 f7e5 e7bd cebe 143a f005 953c
000000e0: ec20 48b9 a9e0 63b8 096b 5439 d65c 843b
000000f0: f241 1a3b 1728 9bbd aacc 20ba 0e39 133d
00000100: f0e3 9bbd 4467 503f 8754 273d 03ec d4be
00000110: 8ab0 d5bb e5ea 02be 4a99 f5bc 4cfb 4e3e
00000120: 9bcb cb3d ce33 d93e 8f4f fcba 4c95 293f
00000130: 5e51 2fbd 89c7 f1be 877c 5ebc 525f 593e
00000140: e61b 1d3c 0757 d4bf eb76 2ebd 31a9 1cbf
00000150: 84aa 993c 7551 2cc0 ae02 0cbd 4347 493f
00000160: 6475 13bc 07cd c9bc 1797 c6b9 779f 2f3d
00000170: 5e1f 853d 65d0 eb3e 24c3 a7bb 6c00 adbe

exp_avg_sq f4 [48, 2]
0.00015465799 0.06051909 9.899127e-06 0.20788041 2.6831003e-06 0.07931077 1.4239729e-06 0.00093105243
2.6711264e-06 0.009091937 3.9985618e-05 0.0027807937 7.146683e-05 0.028861765 5.6016128e-05 0.016925683
7.7841656e-07 0.0065842154 2.9121024e-06 0.002260115 7.190274e-06 0.19753636 8.68197e-05 0.020231914
2.8301312e-07 0.00043609308 9.700815e-06 0.008162241 9.1947055e-05 0.06638438 9.322021e-07 0.0011865909
2.7300403e-06 0.0057888823 5.562308e-06 0.022103079 2.2808417e-06 0.002982321 6.8239588e-06 0.0026601607
2.8192962e-06 0.00037176762 0.034906708 0.21312584 7.979676e-07 0.059494972 2.3754294e-06 0.00811491
9.361908e-06 0.41865596 7.1578376e-07 0.0009209406 8.855073e-06 0.1764523 3.2175449e-06 0.018795306
1.9634056e-06 0.00045839787 3.973436e-08 1.6539889e-05 6.8520008e-06 0.027916558 7.671624e-06 0.003036173
0.018500144 4.788146 0.008151683 29.578844 0.00012051999 15.892024 0.004616079 0.47510263
0.030783065 9.876709 1.5677731e-05 1.1355633 0.0025170418 1.2773713 0.0014813237 0.17189609
0.00016422322 10.06601 0.0031277447 0.78549606 0.00064340845 29.544611 0.0020400588 2.1369357
0.00020354529 0.3628454 0.00054670166 2.4443362 0.008682952 4.334478 7.0013724e-05 0.4467016
00000000: b02b 2239 dee2 773d 6d14 2637 9ade 543e
00000010: 500f 3436 af6d a23d 561f bf35 df11 743a
00000020: 9a41 3336 59f6 143c 3bb6 2738 fa3d 363b
00000030: 76e0 9538 826f ec3c dcf2 6a38 bba7 8a3c
00000040: 61f4 5035 67c0 d73b 8a6d 4336 701e 143b
00000050: fc43 f136 f946 4a3e f912 b638 66bd a53c
00000060: 07f1 9734 6ca3 e439 afc0 2237 ecba 053c
00000070: b3d3 c038 89f4 873d 713c 7a35 6287 9b3a
00000080: bc35 3736 aab0 bd3b dda3 ba36 8411 b53c
00000090: 9010 1936 0b73 433b 5cf9 e436 1756 2e3b
000000a0: 2433 3d36 cee9 c239 56fa 0e3d a93d 5a3e
000000b0: ea33 5635 00b1 733d 9169 1f36 66f4 043c
000000c0: 1711 1d37 135a d63e 4924 4035 476b 713a
000000d0: 4090 1437 e9af 343e 00ed 5736 9df8 993c
000000e0: 0dc3 0336 1f55 f039 64a8 2a33 24bf 8a37
000000f0: 3dea e536 44b1 e43c 60b5 0037 88fa 463b
00000100: 9d8d 973c 7e38 9940 a38e 053c 79a1 ec41
00000110: adbf fc38 bb45 7e41 7a42 973b a740 f33e
00000120: c42c fc3c 0007 1e41 ac83 8337 235a 913f
00000130: f4f4 243b e780 a33f fa28 c23a 8705 303e
00000140: 5633 2c39 610e 2141 d9fa 4c3b 4516 493f
00000150: 69aa 283a 5d5b ec41 82b2 053b 8ec3 0840
00000160: c66e 5539 dfc6 b93e 8750 0f3a 0170 1c40
00000170: f142 0e3c 0bb4 8a40 55d4 9238 12b6 e43e

exp_avg f4 [48, 16]
-0.019207614 0.011000254 0.0060138036 0.0016963002 0.0011715421 0.0078049325 0.026320465 0.015786756
0.045828596 -0.051643677 0.044988617 -0.04253869 0.01598347 0.006952971 -0.031179778 0.04721393
0.014209001 -0.006597532 -0.0027923083 -0.00037662132 -0.0020545584 -0.0043319166 -0.004617276 -0.012022502
-0.028315375 0.032000847 -0.016882101 0.013081258 -0.0026188358 0.0016065099 0.010117592 -0.026833463
-0.003118237 0.0012700225 -0.000601408 -0.003919391 0.0015946124 0.00078654935 -0.002664544 0.0013589413
0.002719566 -0.004559589 -0.0036586626 -0.0002934097 -0.00035490192 -0.0022801696 0.0017577112 -0.0026232312
0.0029505128 -0.005695219 -0.0015090125 -0.0052852435 -0.00023129635 -0.00051899947 -0.005357487 -0.0069859177
-0.013489167 0.010744613 -0.013162207 0.009535648 -0.0015686488 -0.00079152203 0.0034627211 -0.017578002
-0.017474143 -0.00010681015 -0.00303746 -0.029961044 0.0073693767 0.007359079 -0.008016319 -0.003100134
0.01039591 -0.031906977 -0.0129829105 -0.014699289 0.006649805 -0.008131344 0.0036034384 -0.016630009
0.019376254 0.057390165 0.0082457615 0.047818843 -0.003159042 0.002602229 0.03180129 0.07007827
0.10102813 -0.025480112 0.06781941 -0.041704305 0.0022158786 0.00995408 -0.028175728 0.10060441
-0.030663919 -2.0429481e-05 -0.0007863608 -0.01990992 0.0052857143 0.0011460411 0.008067657 -0.0048109153
0.024760436 -0.0526027 0.019721577 -0.03228491 0.008685018 -0.0035637745 -0.0020297715 0.015577905
-0.02313255 0.0049290047 0.0016478652 -0.011037405 0.0030443128 0.0042849923 0.015664088 0.004288301
0.035292245 -0.04826802 0.028841505 -0.035092954 0.012745633 0.00121386 -0.016202139 0.026306422
0.0046304413 -0.0152508095 -0.0039193565 -0.0075311717 -0.0012378122 -0.003175181 -0.0053189932 -0.019968763
-0.032185435 0.023472631 -0.018113177 0.016768461 -0.0018836169 0.0010655728 0.009630419 -0.03129373
-0.0036182664 -0.0002453419 0.002558392 -0.00614813 -0.00020372291 -0.0019409949 0.00014798825 -0.0019585893
-0.012417368 -0.002439912 -0.0029776786 -0.0020461618 0.0028859337 -0.0021623208 0.0006726076 -0.006169613
0.03256488 -0.0071595754 -0.0002896749 0.031730548 -0.0068277637 0.0041784085 0.0112895295 0.0023142986
-0.015454327 0.046582162 0.013290009 0.011620298 0.0008724714 0.015055889 -0.012629145 0.010350615
0.029303594 0.06813933 -0.0009622958 0.025050482 -0.0013804074 -0.0057217344 0.038810488 0.063045464
0.099456124 -0.014542639 0.055161692 -0.06822018 0.012542356 0.0068647205 -0.017406853 0.062083427
0.00451315 0.0047232234 0.0029205333 0.0070669255 -0.000966014 0.00092846726 -0.00029655587 0.008003591
0.00056157855 0.0060978597 -0.00084386824 0.0052741035 -0.0016501681 0.0008919027 -0.0013633831 0.0055097444
-0.020566914 0.0113073895 -0.0032919226 -0.043991785 0.008876933 0.004454267 -0.014119007 0.0028341294
0.009007252 -0.03449299 -0.0288032 -0.013147753 0.007276036 -0.016992759 0.01350762 -0.034599658
-0.024601579 0.02684908 0.0075706416 0.015193238 0.001846179 -0.0010375009 0.029357968 0.030243434
0.070117675 -0.065924734 0.06500639 -0.052550822 0.0066270297 0.004370347 -0.020631049 0.079504594
-0.013927922 -0.0044415225 -0.00050337304 -0.0099247815 0.0021854748 -0.00039503755 0.0026864954 -0.007724204
0.0019775007 -0.019791368 0.006301318 -0.012859155 0.0040993243 -0.0015787863 0.00043048797 0.0014532699
00000000: 4959 9dbc 693a 343c 710f c53b 6456 de3a
00000010: 6e8e 993a 85c0 ff3b 049e d73c 3a53 813c
00000020: c4b6 3b3d 5288 53bd fc45 383d 0d3d 2ebd
00000030: c4ef 823c c0d5 e33b bc6c ffbc 6563 413d
00000040: dfcc 683c 1c30 d8bb 29ff 36bb 4275 c5b9
00000050: c5a5 06bb c0f2 8dbb 854c 97bb 07fa 44bc
00000060: a5f5 e7bc 5213 033d 554c 8abc c652 563c
00000070: c6a0 2bbb 8791 d23a 42c4 253c dad1 dbbc
00000080: 565b 4cbb e276 a63a cfa7 1dba 3c6e 80bb
00000090: 5002 d13a 6f30 4e3a a19f 2ebb 811e b23a
000000a0: bf3a 323b 9b68 95bb 2cc6 6fbb c9d4 99b9
000000b0: 2112 bab9 e66e 15bb 0063 e63a 84ea 2bbb
000000c0: 645d 413b f69e babb 0fca c5ba d62f adbb
000000d0: 2488 72b9 770d 08ba dc8d afbb 20ea e4bb
000000e0: ab01 5dbc 2c0a 303c 4ca6 57bc 683b 1c3c
000000f0: 1f9b cdba 257e 4fba d2ee 623b beff 8fbc
00000100: ef25 8fbc 43ff dfb8 1f10 47bb dd70 f5bc
00000110: d07a f13b 6e24 f13b e156 03bc 9e2b 4bbb
00000120: 9b53 2a3c e4b0 02bd 46b6 54bc 49d5 70bc
00000130: 9be6 d93b 5439 05bc aa27 6c3b a83b 88bc
00000140: f3ba 9e3c f311 6b3d 3b19 073c b1dd 433d
00000150: ee07 4fbb 288a 2a3b 1242 023d 3285 8f3d
00000160: d6e7 ce3d abbb d0bc e7e4 8a3d 22d2 2abd
00000170: 4638 113b 7016 233c c9d0 e6bc af09 ce3d
00000180: e632 fbbc fa5f abb7 c823 4eba 211a a3bc
00000190: c933 ad3b c236 963a 352e 043c e2a4 9dbb
000001a0: 66d6 ca3c ee75 57bd 258f a13c 2f3d 04bd
000001b0: 9b4b 0e3c 378e 69bb ea05 05bb 783a 7f3c
000001c0: 7980 bdbc 7d83 a13b 2efd d73a 3bd6 34bc
000001d0: 1883 473b 1f69 8c3b f951 803c e084 8c3b
000001e0: 9a8e 103d b0b4 45bd 0545 ec3c a1bd 0fbd
000001f0: 0fd3 503c 621a 9f3a 59ba 84bc 9180 d73c
00000200: f5ba 973b 88de 79bc f26d 80bb 0cc8 f6bb
00000210: 163e a2ba b316 50bb f34a aebb 8895 a3bc
00000220: e0d4 03bd ad49 c03c 1662 94bc 035e 893c
00000230: b2e3 f6ba b1aa 8b3a e8c8 1d3c db2d 00bd
00000240: 7020 6dbb 3ba1 80b9 b2aa 273b 4176 c9bb
00000250: 749e 55b9 fb68 feba 4b2d 1b39 ad5b 00bb
00000260: 3772 4bbc eee6 1fbb 2825 43bb e618 06bb
00000270: ef21 3d3b b9b5 0dbb ef51 303a 772a cabb
00000280: c062 053d df9a eabb 82df 97b9 e4f7 013d
00000290: 6fbb dfbb 08eb 883b b8f7 383c 7dab 173b
000002a0: 2534 7dbc f0cc 3e3d 57be 593c 1063 3e3c
000002b0: 91b6 643a faac 763c 79ea 4ebc a095 293c
000002c0: 170e f03c a28c 8b3d 9442 7cba ab36 cd3c
000002d0: c9ee b4ba 637d bbbb bff7 1e3d fb1d 813d
000002e0: a7af cb3d 4044 6ebc 3af1 613d 06b7 8bbd
000002f0: 747e 4d3c 73f1 e03b d198 8ebc 314b 7e3d
00000300: 0ce3 933b 45c5 9a3b 6b66 3f3b ab91 e73b
00000310: 1a3c 7dba 6264 733a 0e7b 9bb9 7e21 033c
00000320: e636 133a 8ed0 c73b 0a37 5dba 63d2 ac3b
00000330: 744a d8ba 94ce 693a 8cb3 b2ba 168b b43b
00000340: f27b a8bc a142 393c 4cbd 57bb bb30 34bd
00000350: 8e70 113c 1af5 913b 6853 67bc cdbc 393b
00000360: 2793 133c 8548 0dbd b0f4 ebbc ac69 57bc
00000370: d06b ee3b 6634 8bbc 114f 5d3c 5fb8 0dbd
00000380: 4089 c9bc 9af2 db3c 2513 f83b 0fed 783c
00000390: 7dfb f13a c1fc 87ba 1f80 f03c 14c1 f73c
000003a0: db99 8f3d 8c03 87bd 1222 853d 883f 57bd
000003b0: 8e27 d93b 2135 8f3b 7202 a9bc 4ed3 a23d
000003c0: f031 64bc 318a 91bb cbf4 03ba 8d9b 22bc
000003d0: 2f3a 0f3b 0b1d cfb9 ea0f 303b 521b fdbb
000003e0: f598 013b 8221 a2bc 497b ce3b 35af 52bc
000003f0: a053 863b 47ef ceba 1eb3 e139 a57b be3a

exp_avg_sq f4 [48, 16]
0.0011413975 0.00047734723 0.00022578388 0.00013719844 0.00039618794 5.9188187e-05 0.003020789 0.0002461775
0.0076722596 0.008945077 0.007197863 0.0068485592 0.00024644492 0.0009760964 0.003979735 0.0071815387
0.0048197717 0.0005817714 3.190735e-05 0.0078065395 0.0028551174 6.0572882e-05 0.00060373853 0.008549109
0.004216465 0.015774146 0.0037461093 0.0071544414 0.00050876854 0.00051716523 0.00086731906 0.012052012
0.001424235 0.0001411871 1.7782326e-05 0.0016352698 0.0010925686 9.998485e-06 8.207596e-05 0.0014020001
0.0016358736 0.0053909635 0.00038419064 0.0026295173 0.00043976388 0.00022292475 0.00010306115 0.0018532965
5.8859332e-05 3.616891e-05 3.4816562e-06 5.982876e-05 7.192358e-06 1.4676704e-06 4.0706076e-05 3.7753744e-05
0.000238265 0.00024351198 0.00017599545 0.00012882122 9.686614e-06 1.6410058e-05 3.729264e-05 0.00029829296
0.00022620028 0.00013499116 4.0325767e-06 0.00042604347 0.00014149799 2.5825762e-05 8.3567706e-05 0.0003254639
0.00027989486 0.0007960142 0.00017488012 0.00036500735 4.8891372e-05 6.5210406e-05 4.8579925e-05 0.00038033258
0.0003029926 0.0029188506 3.4608944e-05 0.0022922216 1.8664527e-05 1.9454566e-05 0.0014672544 0.0040564723
0.01163697 0.0018399287 0.006051594 0.0031576678 5.5436427e-05 0.00016137928 0.0010884212 0.011414117
0.0028876895 0.008140725 6.96851e-05 0.013296086 0.0002850124 8.427474e-05 0.0040389807 0.010341342
0.027743176 0.0053771683 0.016921662 0.0037432152 0.00035806134 0.00046606432 0.0029568854 0.036976323
0.0011949347 9.40343e-05 2.5386476e-05 0.00022894451 9.436215e-05 2.5029512e-05 0.00086396525 0.00017900113
0.0028875312 0.0051885555 0.0021999553 0.0027267232 0.000138856 0.00014403704 0.001028773 0.001936982
0.00048066565 0.000438035 1.6686869e-05 5.843524e-05 4.02073e-05 1.2079523e-05 3.9976072e-05 0.00042950176
0.0026177352 0.0029543634 0.0008205142 0.0012005158 3.8813763e-05 0.000108336804 0.00012065146 0.0018037992
0.00021135478 0.0001678899 1.707597e-05 0.00023172786 3.343475e-05 2.8279267e-06 0.0001184588 0.00039816424
0.0002176113 0.0001136572 0.00014335498 6.620948e-05 1.9181258e-05 1.8105995e-05 4.507033e-05 0.00021815453
0.008926942 0.001807474 0.00013471821 0.008619051 0.0024497188 0.00023359379 0.00048385133 0.0030550046
0.01200237 0.03002839 0.0017039054 0.009576829 0.0012810079 0.0010124891 0.00072862563 0.0060838345
0.0030350247 0.009511964 0.00016322958 0.0032955983 0.00027495297 7.273605e-05 0.0037147861 0.009233291
0.019815356 0.002352476 0.0057814866 0.011370377 0.00039731603 0.00036442134 0.0006699145 0.007865705
0.00015190471 0.00014683165 8.324297e-06 0.0002308844 4.3880195e-06 1.9621534e-06 8.619002e-06 0.0002981357
0.00011728955 0.00013051908 1.2889631e-05 4.981196e-05 1.5208707e-05 1.4377011e-05 1.610728e-05 0.00019276027
0.0012117292 0.0014750772 3.0912288e-05 0.0015416923 9.0885e-05 3.8766302e-05 0.0002149587 0.0015043642
0.003354543 0.0049441336 0.0006592663 0.0009803786 9.1809925e-05 0.00075435307 0.0002886236 0.0011810558
0.0017854468 0.0009494506 9.377555e-05 0.00039883686 0.00051791774 5.301535e-05 0.0024653412 0.00053353084
0.011198447 0.01166195 0.009854372 0.008040906 0.00028713286 0.00061087316 0.0017117709 0.010993211
0.00018057307 1.6351163e-05 5.5516614e-07 7.666779e-05 6.2998342e-06 2.84535e-06 1.29729915e-05 5.1845214e-05
2.8556384e-05 0.0003848205 6.7875866e-05 0.00016990787 1.3519033e-05 7.791307e-06 4.8299075e-06 2.524572e-05
00000000: f29a 953a 7644 fa39 66c0 6c39 eddc 0f39
00000010: 72b7 cf39 d540 7838 6ef8 453b 6211 8139
00000020: 9467 fb3b 5f8e 123c 0ddc eb3b e169 e03b
00000030: 4735 8139 b8e0 7f3a 7068 823b 1d53 eb3b
00000040: 2def 9d3b 0582 183a 42d4 0538 00ce ff3b
00000050: ec1c 3b3b a30f 7e38 3544 1e3a 9011 0c3c
00000060: 462a 8a3b c838 813c 4981 753b ce6f ea3b
00000070: e15e 053a 5f92 073a cc5c 633a cd75 453c
00000080: 65ad ba3a a00b 1439 412b 9537 8d56 d63a
00000090: 8534 8f3a 2bbf 2737 3220 ac38 51c3 b73a
000000a0: cf6a d63a aea6 b03b 326d c939 fb53 2c3b
000000b0: 1c90 e639 e8c0 6939 8922 d838 50ea f23a
000000c0: badf 7638 12b4 1738 66a6 6936 a4f0 7a38
000000d0: e355 f136 c5fc c435 d1bb 2a38 c659 1e38
000000e0: c6d6 7939 4057 7f39 6b8b 3839 2f14 0739
000000f0: b183 2237 55a8 8937 ab6a 1c38 3464 9c39
00000100: 2d30 6d39 6a8c 0d39 924f 8736 965e df39
00000110: 145f 1439 67a4 d837 1241 af38 06a3 aa39
00000120: dabe 9239 9cab 503a 0660 3739 755e bf39
00000130: b610 4d38 92c1 8838 4cc2 4b38 6067 c739
00000140: fada 9e39 304a 3f3b 1229 1138 1939 163b
00000150: c491 9c37 5d32 a337 e350 c03a 28ec 843b
00000160: fda8 3e3c c329 f13a 734c c63b e0f0 4e3b
00000170: 6984 6838 ec37 2939 5ba9 8e3a 4702 3b3c
00000180: 643f 3d3b ad60 053c e723 9238 d4d7 593c
00000190: b76d 9539 a8bc b038 6d59 843b bb6e 293c
000001a0: a845 e33c f532 b03b 4c9f 8a3c bb50 753b
000001b0: 2eba bb39 185a f439 4ec8 413b 7c74 173d
000001c0: 5b9f 9c3a 4834 c538 0bf5 d437 d310 7039
000001d0: 4be4 c538 78f6 d137 ba7b 623a 40b2 3b39
000001e0: bc3c 3d3b c204 aa3b 202d 103b d3b2 323b
000001f0: e099 1139 a608 1739 e5d7 863a 55e2 fd3a
00000200: da01 fc39 10a8 e539 c7fa 8b37 5c18 7538
00000210: 42a4 2838 28a9 4a37 fbab 2738 c02e e139
00000220: 4f8e 2b3b fe9d 413b c717 573a a05a 9d3a
00000230: f6cb 2238 e132 e338 4206 fd38 756d ec3a
00000240: 1e9f 5d39 9a0b 3039 5e3e 8f37 f9fb 7239
00000250: 4a3c 0c38 69c7 3d36 166d f838 b3c0 d039
00000260: 972e 6439 3f5b ee38 8f51 1639 f2d9 8a38
00000270: 70e7 a037 54e2 9737 e609 3d38 69c0 6439
00000280: 4f42 123c c3e8 ec3a 2543 0d39 ec36 0d3c
00000290: 768b 203b dbf0 7439 6dad fd39 7936 483b
000002a0: 97a5 443c 19fe f53c 9455 df3a 22e8 1c3c
000002b0: 7ee7 a73a 7fb5 843a 3d01 3f3a e75a c73b
000002c0: 44e7 463b 12d8 1b3c 9b28 2b39 f7fa 573b
000002d0: 9027 9039 df89 9838 c573 733b 3b47 173c
000002e0: d053 a23c ff2b 1a3b a072 bd3b d14a 3a3c
000002f0: db4e d039 ce0f bf39 339d 2f3a 28df 003c
00000300: 9c48 1f39 d2f6 1939 95a8 0b37 8f19 7239
00000310: cd3c 9336 8aad 0336 559a 1037 194f 9c39
00000320: 59f9 f538 f3db 0839 8b40 5837 2fed 5038
00000330: e628 7f37 cb34 7137 1f1e 8737 b11f 4a39
00000340: e3d2 9e3a 6157 c13a d1a7 0138 9c12 ca3a
00000350: 8399 be38 0099 2238 8966 6139 162e c53a
00000360: e4d7 5b3b 6602 a23b 9dd2 2c3a 0c80 803a
00000370: 148a c038 c7bf 453a 6752 9739 a8cd 9a3a
00000380: a705 ea3a 8de4 783a 5da9 c438 fa1a d139
00000390: dfc4 073a cc5c 5e38 9091 213b a6dc 0b3a
000003a0: b179 373c c311 3f3c 3b74 213c 01be 033c
000003b0: 528a 9639 0123 203a 805d e03a de1c 343c
000003c0: 3758 3d39 db29 8937 ba06 1535 b5c8 a038
000003d0: 2a63 d336 bef2 3e36 93a6 5937 6074 5938
000003e0: 5e8c ef37 bcc1 c939 9458 8e38 4c29 3239
000003f0: cecf 6237 69b7 0237 9710 a236 c5c6 d337

exp_avg f4 [48]
0.052933853 -0.032861397 0.005453602 -0.0099788355 0.03612615 0.008727993 0.057363153 0.05126074
-0.021510689 0.0035692365 -0.05189448 -0.0087053105 -0.006198948 0.036406633 0.06477384 0.023109695
-0.013847209 0.0243492 0.00063561264 0.010116553 -0.0032286372 0.18701014 0.069395244 -0.016249837
0.17271867 0.0016646618 -0.08234931 0.013229305 -3.9380222e-05 0.0029377616 -0.05509738 0.026140071
0.59204465 -0.30243948 -0.09297987 0.1470004 0.3085237 0.4817632 -0.3434307 0.15438043
-1.2064612 -0.4450532 -1.9581333 0.57180613 -0.017915182 0.031182943 0.33495942 -0.24573825
00000000: 2bd1 583d ac99 06bd 21b4 b23b 457e 23bc
00000010: 04f9 133d dbff 0e3c a0f5 6a3d c8f6 513d
00000020: 2f37 b0bc dae9 693b 4e8f 54bd b8a0 0ebc
00000030: 8b20 cbbb 1f1f 153d 26a8 843d 8b50 bd3c
00000040: 67df 62bc f977 c73c 3e9f 263a e6bf 253c
00000050: 8b97 53bb 967f 3f3e 181f 8e3d 611e 85bc
00000060: 2add 303e c830 da3a c1a6 a8bd babf 583c
00000070: 312c 25b8 7687 403b caad 61bd b423 d63c
00000080: 3d90 173f 59d9 9abe 3b6c bebd 4687 163e
00000090: d2f6 9d3e aba9 f63e 26d6 afbe e715 1e3e
000000a0: 526d 9abf 03de e3be 1da4 fabf e361 123f
000000b0: dcc2 92bc 5f73 ff3c cd7f ab3e cfa2 7bbe

exp_avg_sq f4 [48]
0.009143212 0.018115781 0.0059498753 0.00024773515 0.0008940764 0.00097625423 0.0061551398 0.0055937045
0.002930464 0.0003185031 0.03254906 0.002846393 0.00024062915 0.0048994212 0.011664225 0.0005159212
0.0011736546 0.003934891 0.00039075865 0.000383931 7.736309e-05 0.036694538 0.012058403 0.0017388603
0.07127003 0.000105279534 0.035031404 0.0025316237 0.000102510676 8.13303e-06 0.0067933486 0.0007556895
0.90450853 2.3966923 1.1790313 0.098863654 0.788317 0.30603996 0.23907349 0.0500436
2.1131296 0.23060723 5.9143324 0.5664234 0.079732046 0.2724028 0.41727024 0.07752905
00000000: 69cd 153c 8c67 943c 2cf7 c23b 73e2 8139
00000010: 7460 6a3a 50eb 7f3a 0eb1 c93b 654b b73b
00000020: 070d 403b c3fc a639 2a52 053d 8d8a 3a3b
00000030: 6551 7c39 538b a03b 4e1b 3f3c e33e 073a
00000040: 50d5 993a 42f0 803b bdde cc39 594a c939
00000050: fe3d a238 034d 163d 9c90 453c 78ea e33a
00000060: 06f6 913d 85c9 dc38 177d 0f3d 99e9 253b
00000070: 00fb d638 1973 0837 bd9a de3b 7719 463a
00000080: df8d 673f 6863 1940 7fea 963f 0779 ca3d
00000090: 25cf 493f 45b1 9c3e aecf 743e 85fa 4c3d
000000a0: 843d 0740 4d24 6c3e 3642 bd40 2001 113f
000000b0: 8e4a a33d 6178 8b3e 72a4 d53e 8dc7 9e3d

exp_avg f4 [48]
0.052933853 -0.032861397 0.005453602 -0.0099788355 0.03612615 0.008727993 0.057363153 0.05126074
-0.021510689 0.0035692365 -0.05189448 -0.0087053105 -0.006198948 0.036406633 0.06477384 0.023109695
-0.013847209 0.0243492 0.00063561264 0.010116553 -0.0032286372 0.18701014 0.069395244 -0.016249837
0.17271867 0.0016646618 -0.08234931 0.013229305 -3.9380222e-05 0.0029377616 -0.05509738 0.026140071
0.050757073 0.008197642 -0.07462867 -0.08671071 0.17407735 0.32727003 -0.083082356 -0.017706674
-1.0353825 0.0014289712 -0.54977566 0.08208966 0.004774491 0.024646197 -0.2830131 -0.23228742
00000000: 2bd1 583d ac99 06bd 21b4 b23b 457e 23bc
00000010: 04f9 133d dbff 0e3c a0f5 6a3d c8f6 513d
00000020: 2f37 b0bc dae9 693b 4e8f 54bd b8a0 0ebc
00000030: 8b20 cbbb 1f1f 153d 26a8 843d 8b50 bd3c
00000040: 67df 62bc f977 c73c 3e9f 263a e6bf 253c
00000050: 8b97 53bb 967f 3f3e 181f 8e3d 611e 85bc
00000060: 2add 303e c830 da3a c1a6 a8bd babf 583c
00000070: 312c 25b8 7687 403b caad 61bd b423 d63c
00000080: a6e6 4f3d 674f 063c ebd6 98bd 6295 b1bd
00000090: 5541 323e f08f a73e 1527 aabd 960d 91bc
000000a0: 6a87 84bf 514c bb3a 19be 0cbf a01e a83d
000000b0: 5573 9c3b d2e6 c93c 18e7 90be c1dc 6dbe

exp_avg_sq f4 [48]
0.009143212 0.018115781 0.0059498753 0.00024773515 0.0008940764 0.00097625423 0.0061551398 0.0055937045
0.002930464 0.0003185031 0.03254906 0.002846393 0.00024062915 0.0048994212 0.011664225 0.0005159212
0.0011736546 0.003934891 0.00039075865 0.000383931 7.736309e-05 0.036694538 0.012058403 0.0017388603
0.07127003 0.000105279534 0.035031404 0.0025316237 0.000102510676 8.13303e-06 0.0067933486 0.0007556895
0.03499142 0.6726317 0.9302905 0.023813967 0.034006093 0.14309263 0.04708775 0.0014889985
1.5674875 0.00575793 0.5638545 0.023240352 0.07218696 0.004358501 0.13141836 0.07152749
00000000: 69cd 153c 8c67 943c 2cf7 c23b 73e2 8139
00000010: 7460 6a3a 50eb 7f3a 0eb1 c93b 654b b73b
00000020: 070d 403b c3fc a639 2a52 053d 8d8a 3a3b
00000030: 6551 7c39 538b a03b 4e1b 3f3c e33e 073a
00000040: 50d5 993a 42f0 803b bdde cc39 594a c939
00000050: fe3d a238 034d 163d 9c90 453c 78ea e33a
00000060: 06f6 913d 85c9 dc38 177d 0f3d 99e9 253b
00000070: 00fb d638 1973 0837 bd9a de3b 7719 463a
00000080: 2a53 0f3d 9731 2c3f 8527 6e3f 8215 c33c
00000090: f949 0b3d e086 123e 16df 403d 802a c33a
000000a0: 6ea3 c83f 05ad bc3b c558 103f 8d62 be3c
000000b0: c2d6 933d c2d1 8e3b 8992 063e 017d 923d

exp_avg f4 [1, 16]
0.119961366 0.049478564 0.013687915 -0.0782885 -0.050258063 -0.014650608 0.010693813 0.025971472
0.08303834 0.17591894 -0.008466245 0.060312204 0.022331955 -0.0007571809 -0.024199856 -0.062278137
00000000: 4eae f53d 09aa 4a3d 4743 603c b955 a0bd
00000010: 66db 4dbd 1b09 70bc 1a35 2f3c 20c2 d43c
00000020: 0110 aa3d 1824 343e 01b6 0abc ee09 773d
00000030: 81f1 b63c 8d7d 46ba c73e c6bc 5c17 7fbd

exp_avg_sq f4 [1, 16]
5.5306516 0.11813311 0.043268416 8.0154 3.87131 0.02567406 0.36045527 7.1866865
2.0226102 17.31095 1.6545355 7.493909 1.2590337 0.5953418 0.4566445 9.186886
00000000: 19fb b040 c6ef f13d 393a 313d 143f 0041
00000010: 8bc3 7740 6852 d23c 988d b83e 56f9 e540
00000020: 7272 0140 d37c 8a41 d2c7 d33f 1ace ef40
00000030: 0428 a13f 5268 183f 4fcd e93e 7cfd 1241

weight_ih_l0 f4 [48, 2]
0.3515862 0.12997964 1.674746 -0.07422327 1.6379039 0.18038087 2.671599 0.5840224
1.556027 -0.11250507 -0.029564539 0.12261624 -0.23706244 0.5495019 -0.70538837 -0.2730824
7.814553 0.7857479 0.16267636 0.14982198 -7.978145 0.15075257 3.771598 0.24097976
-2.4611752 0.46949932 3.1279476 -1.4322138 -1.3818719 -0.19957884 0.5532226 0.7711246
-1.2952513 0.16259788 -0.59284204 0.19159973 1.6144491 0.066478565 -0.1645898 0.16176432
1.5460067 0.6015186 -0.8169275 0.20352197 -3.558153 0.07492998 0.43047747 0.29966414
1.3831087 0.23820315 -1.5136976 0.31797326 0.8164807 0.19633967 -0.77270055 0.0046847695
-0.70259976 -0.1867382 -2.6948228 -0.5531182 2.5727832 0.35188913 1.6588885 0.13557974
0.6563036 0.004063126 0.31650466 0.035156455 -2.9699476 0.17199965 0.10093843 0.036204893
0.699642 0.1522548 -1.1371166 0.09975987 -4.671305 -0.26223055 0.8988435 -0.053489573
-7.0071177 0.17952345 0.05237976 -0.28952336 -8.100815 -0.08879694 3.5794342 -0.19702737
-1.2768325 -0.23716415 -2.3072617 0.06159654 2.1777427 -0.026498148 -3.3702726 -0.26102418
00000000: 1b03 b43e 6219 053e 145e d63f 5f02 98bd
00000010: d6a6 d13f c3b5 383e 7afb 2a40 7e82 153f
00000020: e52b c73f 0f69 e6bd 5531 f2bc 391e fb3d
00000030: 7fc0 72be 28ac 0c3f 5594 34bf 75d1 8bbe
00000040: d110 fa40 c626 493f a294 263e ef6a 193e
00000050: f74c ffc0 e25e 1a3e dd61 7140 66c3 763e
00000060: e583 1dc0 3762 f03e 4b30 4840 c852 b7bf
00000070: 2ee1 b0bf 655e 4cbe ff9f 0d3f 6c68 453f
00000080: cbca a5bf 0f80 263e 7fc4 17bf b832 443e
00000090: 45a6 ce3f ea25 883d 3b8a 28be 8ca5 253e
000000a0: 8ce3 c53f 1ffd 193f 2922 51bf 1068 503e
000000b0: c7b8 63c0 e474 993d 8b67 dc3e 946d 993e
000000c0: b509 b13f 87eb 733e d8c0 c1bf 64cd a23e
000000d0: e104 513f 440d 493e b4cf 45bf b282 993b
000000e0: 94dd 33bf 4c38 3fbe fa77 2cc0 2899 0dbf
000000f0: 7ba8 2440 d02a b43e 7556 d43f 6ad5 0a3e
00000100: 8303 283f f923 853b e60c a23e 3700 103d
00000110: 9f13 3ec0 ad20 303e cfb8 ce3d 954b 143d
00000120: bd1b 333f afe8 1b3e 098d 91bf e74e cc3d
00000130: 557b 95c0 1543 86be 9c1a 663f e217 5bbd
00000140: 4f3a e0c0 ffd4 373e 298c 563d 683c 94be
00000150: f09c 01c1 2cdb b5bd 7315 6540 8bc1 49be
00000160: 3f6f a3bf 29db 72be 2daa 13c0 a74c 7c3d
00000170: 2360 0b40 a512 d9bc 8cb2 57c0 f6a4 85be

weight_hh_l0 f4 [48, 16]
-0.6570985 0.038894508 -0.34937525 -2.2308617 0.19593182 1.2844412 -0.44542444 -1.6366485
-0.2935223 0.14849326 -0.20918463 0.02818048 -0.0044174106 -0.33012104 0.011913746 -0.38349515
0.0081488835 -0.60724956 0.16494444 0.17046037 0.0018993341 0.3840972 -0.1271153 -0.013871548
-0.15284538 0.04056434 -0.7842268 0.036439907 -0.33137015 -0.9340596 0.94552666 -0.64071023
-0.23930392 -1.1453264 0.15802667 -0.1449452 0.04419316 -0.047254194 0.5222679 -0.46869943
0.6393882 0.010059121 0.0116189495 0.053770356 0.5147756 0.08863203 -0.06164654 -0.65527606
-0.6985331 0.9098135 0.8001304 0.005638426 0.33637938 2.7930267 -1.6879443 -0.76210874
-1.1980089 -0.028955642 -0.6743104 -0.26801282 0.024217566 0.32974276 0.79020464 -0.83255637
1.5105852 -1.5265921 -1.5955358 0.1305834 -0.21142128 -0.1468654 -1.0386637 -0.26788133
1.10015 0.29494363 0.44936022 0.61763376 -0.45881405 0.15661618 0.9295783 -1.2156981
-0.7684205 0.085220516 1.2419102 -0.41986656 -0.4036993 1.0624013 0.21685728 -0.46749
-0.27451795 -0.04462456 -0.10513949 -0.36313748 -0.4975265 0.8758005 0.021452658 0.049388386
0.45066413 0.032350853 -0.44411743 -0.4041821 -0.17501591 1.3683679 -1.1329904 -0.36011308
0.29514533 0.6720285 -0.41286296 -0.12712976 -1.1703538 1.7827955 -0.26531878 -0.02438256
-0.6941431 -0.43406713 0.2179007 -0.7442656 -0.45668092 1.1446432 0.7045776 -0.21752416
-1.1572993 -0.068136446 -0.37894198 -0.05965302 0.52862 0.059506718 0.034468517 -0.9822373
-0.03480117 -0.45723152 0.19479503 -0.6531978 0.2809446 2.049261 -1.4800146 -0.24199189
-1.3465986 -0.016989466 -1.606678 -0.03181174 0.1448538 -0.88988805 1.0556006 -0.32714245
-0.6561377 1.8135401 1.2470092 0.9041473 0.5294733 -2.5946965 -0.6856669 0.48779723
0.31213024 -0.8762085 0.34392196 -1.2914016 0.24959001 0.5774898 0.008708953 0.052844547
0.3923781 -0.21102405 -0.20913193 0.288336 -0.12456842 0.8433529 1.1274074 0.39264053
0.7971113 0.031222938 0.041606076 -0.27770764 0.75150746 0.016161805 -0.50711745 -0.1579396
-0.09346959 -0.17680398 -0.0412872 0.029013956 -0.055238336 0.6828649 -0.62991685 0.47914264
0.22702675 -0.17666867 -1.1607754 0.44867638 0.20751384 -0.00649113 0.6495976 0.24259336
0.14345281 1.6353939 -0.15473711 -0.07575598 0.53185326 -1.3241582 -0.5246427 0.15303214
0.4395886 -0.7412525 -0.39510518 -1.0477521 -0.28701654 1.4261463 0.027231608 -0.15830219
-0.65276 -0.13577016 -0.7080364 0.12414141 -0.5318493 0.11854168 0.8807765 0.35100448
-0.57986325 0.041820236 -0.41203716 0.15578438 0.59861976 -0.79710376 -0.124003254 -0.27370563
0.18156324 0.5671563 -0.16599911 0.17092009 -0.167134 1.3121893 1.3464433 -0.039846912
0.024585895 0.26313484 0.04237329 -0.382971 1.0575893 0.5765642 -1.1159252 0.5273754
-0.56286854 0.046876214 -0.50701964 -0.21799617 0.46992418 1.2806165 -0.20471376 -0.11910935
0.24760744 -0.42232826 0.022425978 0.38552442 -0.25069737 -0.18502632 0.018339906 -0.030256892
00000000: 9b37 28bf d94f 1f3d 50e1 b2be 70c6 0ec0
00000010: 5aa2 483e 9268 a43f ac0e e4be b37d d1bf
00000020: 8e48 96be 9e0e 183e 7f34 56be c0da e63c
00000030: edbf 90bb a005 a9be df31 433c 7a59 c4be
00000040: e582 053c b574 1bbf 32e7 283e 2a8d 2e3e
00000050: 14f3 f83a 63a8 c43e 832a 02be 7d45 63bc
00000060: 8083 1cbe cb26 263d 16c3 48bf 0342 153d
00000070: 59a9 a9be 881e 6fbf 090e 723f 9605 24bf
00000080: 160c 75be 0e9a 92bf bed1 213e 846c 14be
00000090: e303 353d 9d8d 41bd 59b3 053f 5ff9 efbe
000000a0: f2ae 233f 03cf 243c 685d 3e3c 4e3e 5c3d
000000b0: 55c8 033f b684 b53d 1581 7cbd 2cc0 27bf
000000c0: 11d3 32bf 8ae9 683f 59d5 4c3f 8cc2 b83b
000000d0: eb39 ac3e f3c0 3240 8f0e d8bf 8f19 43bf
000000e0: 5b58 99bf 6234 edbc 9b9f 2cbf fa38 89be
000000f0: eb63 c63c 0bd4 a83e da4a 4a3f 6a22 55bf
00000100: db5a c13f 5f67 c3bf 843a ccbf a8b7 053e
00000110: d27e 58be e263 16be eff2 84bf be27 89be
00000120: b7d1 8c3f da02 973e 8b12 e63e 3f1d 1e3f
00000130: ade9 eabe fe5f 203e d8f8 6d3f ff9b 9bbf
00000140: 35b7 44bf 1888 ae3d eaf6 9e3f c0f8 d6be
00000150: adb1 cebe c4fc 873f d60f 5e3e d95a efbe
00000160: 9e8d 8cbe 3ec8 36bd 5f53 d7bd 28ed b9be
00000170: cbbb febe 7634 603f 7cbd af3c 7a4b 4a3d
00000180: 73bd e63e 5482 043d 5c63 e3be f5f0 cebe
00000190: 5f37 33be ae26 af3f d405 91bf be60 b8be
000001a0: 4a1d 973e 0f0a 2c3f c662 d3be 4e2e 02be
000001b0: 27ce 95bf a532 e43f ddd7 87be efbd c7bc
000001c0: 5db3 31bf 0c3e debe 5c21 5f3e 3188 3ebf
000001d0: 15d2 e9be ab83 923f 335f 343f a7be 5ebe
000001e0: 6222 94bf 1f8b 8bbd af04 c2be ba56 74bd
000001f0: a453 073f 51bd 733d dc2e 0d3d e773 7bbf
00000200: ac8b 0ebd 401a eabe 5978 473e f937 27bf
00000210: f8d7 8f3e 1827 0340 1e71 bdbf b9cc 77be
00000220: 585d acbf 7e2d 8bbc a0a7 cdbf 074d 02bd
00000230: 8e54 143e b4cf 63bf ec1d 873f 377f a7be
00000240: a4f8 27bf 1522 e83f ff9d 9f3f 3376 673f
00000250: 908b 073f 820f 26c0 de87 2fbf 8fc0 f93e
00000260: 89cf 9f3e 334f 60bf 8a16 b03e a64c a5bf
00000270: 8694 7f3e 5fd6 133f ffaf 0e3c 8673 583d
00000280: c8e5 c83e b016 58be ae26 56be c7a0 933e
00000290: ba1d ffbd fae5 573f e34e 903f 2e08 c93e
000002a0: 7c0f 4c3f 3fc7 ff3c 226b 2a3d b22f 8ebe
000002b0: cb62 403f c365 843c 73d2 01bf ebba 21be
000002c0: fc6c bfbd 1a0c 35be c41c 29bd adae ed3c
000002d0: 9841 62bd 3cd0 2e3f 3b42 21bf 2f52 f53e
000002e0: b379 683e a2e8 34be 4a94 94bf e9b8 e53e
000002f0: 827e 543e 8cb3 d4bb 074c 263f 656a 783e
00000300: 4be5 123e 9654 d13f 6873 1ebe f425 9bbd
00000310: 8927 083f 047e a9bf fc4e 06bf 75b4 1c3e
00000320: c211 e13e b9c2 3dbf 3a4b cabe be1c 86bf
00000330: d5f3 92be f68b b63f d214 df3c f819 22be
00000340: 481b 27bf 5507 0bbe e041 35bf da3d fe3d
00000350: 4727 08bf fbc5 f23d 927a 613f dcb6 b33e
00000360: eb71 14bf b24b 2b3d 89f6 d2be f185 1f3e
00000370: 253f 193f fe0e 4cbf 6bf5 fdbd 2523 8cbe
00000380: b7eb 393e 2831 113f acfb 29be ad05 2f3e
00000390: 2d25 2bbe d2f5 a73f 4158 ac3f 8436 23bd
000003a0: 5c68 c93c 9cb9 863e 9d8f 2d3d c614 c4be
000003b0: 165f 873f b699 133f a3d6 8ebf 1302 073f
000003c0: 2718 10bf 4601 403d 0acc 01bf 633a 5fbe
000003d0: e799 f03e 3eeb a33f 7ca0 51be 9aef f3bd
000003e0: ce8c 7d3e 693b d8be afb6 b73c 7563 c53e
000003f0: 685b 80be 8a77 3dbe 923d 963c 4ddd f7bc

bias_ih_l0 f4 [48]
0.16303264 -0.043956388 0.18709002 0.15408932 -0.534515 0.044268955 -1.0074506 -0.07880148
0.026223995 0.036855996 -0.23271783 -0.5767405 0.31901142 0.34561473 -0.560841 0.4546531
-0.19313285 0.1518451 -0.4051426 -0.1254743 0.37178183 1.5766147 0.045039274 -0.4104059
-0.624976 -0.5746113 -0.18733425 0.44164267 -1.0170003 -0.2818648 -0.10354684 -0.18722956
-0.46152985 0.09706248 0.033599485 0.05117612 -0.12036232 0.105339155 0.35735136 0.18816781
0.33630863 -0.38616347 -0.096818805 -0.41819602 0.16031949 -0.0528271 0.28381205 0.009522426
00000000: 07f2 263e 9d0b 34bd 8794 3f3e 97c9 1d3e
00000010: fad5 08bf 5d53 353d 24f4 80bf ac62 a1bd
00000020: b4d3 d63c 50f6 163d 954d 6ebe 44a5 13bf
00000030: 7755 a33e 6af4 b03e 4793 0fbf 4bc8 e83e
00000040: 9ec4 45be 487d 1b3e da6e cfbe 567c 00be
00000050: 305a be3e 83ce c93f 1a7b 383d b920 d2be
00000060: 6dfe 1fbf ba19 13bf 8dd4 3fbe fd1e e23e
00000070: 112d 82bf 9550 90be 5e10 d4bd 1bb9 3fbe
00000080: a44d ecbe b2c8 c63d 9d9f 093d 0d9e 513d
00000090: 8580 f6bd 0ebc d73d c2f6 b63e 10af 403e
000000a0: a530 ac3e 38b7 c5be f048 c6bd ca1d d6be
000000b0: cb2a 243e 3b61 58bd d04f 913e f303 1c3c

bias_hh_l0 f4 [48]
-0.042722568 0.12327126 0.4267378 0.3546162 -0.7192441 -0.19153555 -0.93065417 0.0024867714
0.3981086 -0.22562635 -0.4560363 -0.46105054 0.28736022 -0.12357174 -0.317623 0.27503562
0.09635755 0.46069318 0.023977667 -0.6065849 -0.014653796 1.6113535 0.12805887 -0.05861587
-0.48503357 -1.0178795 0.13313556 -0.016787212 -1.0268686 -0.62151194 -0.09574751 -0.25821403
-0.54874206 0.027781218 -0.32143703 -0.5620444 0.20013653 -0.25324497 -0.35977194 -0.37958536
-0.16991144 -0.5169557 0.043404713 -0.1607321 0.0975115 -0.6412365 0.42528707 -0.038958613
00000000: dcfd 2ebd a475 fc3d 607d da3e 4190 b53e
00000010: 6220 38bf e521 44be 5a3f 6ebf 1af9 223b
00000020: e4d4 cb3e 980a 67be 977d e9be d10e ecbe
00000030: e120 933e 2e13 fdbd 7b9f a2be 78d1 8c3e
00000040: 1b57 c53d fadf eb3e d06c c43c 2649 1bbf
00000050: 7a16 70bc d540 ce3f dd21 033e 3217 70bd
00000060: 5256 f8be e049 82bf b054 083e 5685 89bc
00000070: 6e70 83bf 681b 1fbf 4517 c4bd a134 84be
00000080: 5c7a 0cbf 7095 e33c 6593 a4be 24e2 0fbf
00000090: 97f0 4c3e 53a9 81be 0734 b8be 0359 c2be
000000a0: 44fd 2dbe 3557 04bf 24c9 313d f596 24be
000000b0: 1cb4 c73d 1328 24bf 3abf d93e 1193 1fbd

weight f4 [1, 16]
-0.056749437 0.20104487 0.4264638 -0.14857751 -0.2351749 0.0073827915 0.113450654 -0.18586875
0.07779325 0.22786959 0.0728119 0.06266455 0.078617945 0.10528451 -0.006674537 -0.0035803674
00000000: 1972 68bd b5de 4d3e 7759 da3e b424 18be
00000010: b0d1 70be 58eb f13b d158 e83d 6154 3ebe
00000020: 1152 9f3d a556 693e 681e 953d 4656 803d
00000030: 7202 a13d 689f d73d 13b6 dabb 99a4 6abb
