pretrained/muff_gru64_epoch=242-step=224532.ckpt (torch, 171918 bytes, 22 tensors)

model.rec.weight_ih_l0 f4 [192, 1]
000000 e1 52 80 bf a7 00 d0 3e db 6b 44 be c5 05 88 be
       -1.0025293 0.40625498 -0.19181769 -0.26566902
000010 c2 ca 7c be c5 5f 22 3f e8 c1 f7 3e 99 82 09 3f
       -0.24686721 0.6342738 0.48390126 0.537149
000020 61 24 27 3e ec ec 2b bf 9f bc 32 3f 63 a7 1a be
       0.16322471 -0.6715839 0.6981906 -0.15102915
000030 dc 36 7b 3f 9d 02 ea 3d b9 f8 fb 3d 7a eb 39 3e
       0.98130584 0.1142628 0.123032995 0.18156233
000040 b1 06 6d bf 67 f0 40 3e fb 9f ca be 7e 4b db be
       -0.92588335 0.18841706 -0.3957518 -0.42831033
000050 88 12 9d be 2b 06 1a bf af ba 9b bf 44 9f c9 3f
       -0.306782 -0.6016566 -1.2166346 1.5751729
000060 18 1f 59 3f 69 e3 23 3f 70 50 42 3f d8 20 83 3f
       0.8481307 0.64018875 0.7590399 1.0244398
000070 fc 02 c9 3e 6d 30 f9 3b b5 e0 f6 be 3a 42 60 bf
       0.3926009 0.0076046498 -0.48218313 -0.87601054
000080 96 c1 9f be be 6a 41 3f 6d 3c 3f bf 98 6f 2c bf
       -0.31202382 0.755535 -0.7470158 -0.6735778
000090 9a d6 01 bc 7d 17 a1 3e 07 a7 b8 be 5f c0 ab be
       -0.0079247 0.31463233 -0.36064932 -0.33545205
0000a0 44 b7 03 3f 53 37 1f 3f b8 d8 9e 3e bf 95 f4 3e
       0.51451516 0.62193793 0.31024718 0.47770497
0000b0 b3 04 81 be 50 38 2a bf c3 a7 af 3f 28 a7 f4 be
       -0.25198898 -0.66492176 1.3723072 -0.4778378
0000c0 b6 c1 46 40 cc fe 09 3f 66 10 83 be 59 51 16 3f
       3.1055732 0.53904414 -0.2559845 0.58717877
0000d0 70 dc 59 be a5 62 4e 3e 48 12 3c 3e 10 06 c8 bf
       -0.21275496 0.20154817 0.18366349 -1.562685
0000e0 13 af b9 3e 07 5c 0c bf 6e eb e8 3d aa 37 e7 bc
       0.36266384 -0.5482792 0.1137303 -0.028224785
0000f0 1d d0 19 bf 84 29 1b bf 27 9c 76 bd 6e 91 93 bf
       -0.6008318 -0.6061022 -0.060207512 -1.1528757
000100 90 55 a3 3f d2 f4 c1 be 55 58 d2 3e bf e6 48 bf
       1.2760487 -0.37882096 0.41083017 -0.7847709
000110 e4 6c 49 bf ed 43 02 3f d7 c6 a3 be 8b fe f5 3d
       -0.7868178 0.50884897 -0.3198764 0.12011441
000120 6b cf 28 3f d0 ae 63 bf 47 b8 b5 be 4b 3a 5d bf
       0.65941495 -0.8893862 -0.35492155 -0.86417073
000130 41 4c a8 3f fa 07 13 bf e0 13 58 bf a7 bc 85 3c
       1.3148271 -0.57434046 -0.84405327 0.016325308
000140 fd d1 d2 3e 42 3d a8 bd 6e 17 b2 3f 55 b6 ea bd
       0.41175833 -0.08214809 1.39134 -0.11460558
000150 3c cd a1 be 92 41 45 3f 31 1e 53 c0 00 98 f4 3f
       -0.31601894 0.7705318 -3.2987177 1.9108887
000160 d1 13 ba 3f a2 27 3c 3e 33 eb aa bf 57 4b f6 3f
       1.4537297 0.18374494 -1.3353027 1.9241742
000170 91 4e 64 c0 31 17 6c 3f 47 6b ea bc 33 be bd be
       -3.5672953 0.9222289 -0.028615607 -0.37059173
000180 2d 49 42 3e 37 c9 44 3f f5 75 32 bf ec 86 e5 be
       0.18973227 0.7686953 -0.6971124 -0.448295
000190 21 3c 3c 3e 66 86 50 bf 50 f9 a1 be 43 67 b1 3d
       0.18382312 -0.81455076 -0.31635523 0.08662274
0001a0 42 3a 6b 40 38 0b 80 be 3b 66 84 bf 7d 4e 6e 3e
       3.6754308 -0.2500856 -1.0343698 0.23272128
0001b0 ef 33 a0 be 67 5b 87 3d c2 45 3a 3f 0f a2 c0 3f
       -0.31289622 0.066092305 0.7276269 1.5049456
0001c0 4a 4a 1e bf af b4 5b 3f f7 18 22 3e c4 0a 32 bf
       -0.61832106 0.85822576 0.15829836 -0.6954768
0001d0 9e 5a ca 3e d5 ef 34 be 0f b7 ea 3e c6 f6 ca 3f
       0.3952226 -0.17669614 0.45842788 1.5856559
0001e0 95 bb 9e bd db 72 49 be 43 dd 37 3e 46 c0 9e 3f
       -0.07750622 -0.1967272 0.17955498 1.2402427
0001f0 ee 54 2d be 71 3c a0 be 0a 5b 38 3f 40 68 a6 3f
       -0.1692693 -0.31296113 0.72013915 1.3000565
000200 d2 dd 70 3c 85 26 9b bf 47 4d 3c bf 40 54 1a 3e
       0.014701324 -1.212113 -0.73555416 0.15071201
000210 49 db 38 bf 00 57 a7 40 3e 2c 2b bf b6 f7 7f be
       -0.722096 5.22937 -0.66864383 -0.24996838
000220 1a e9 c9 3c 98 7a 0f bf a4 81 c3 3f 90 90 a5 3e
       0.024647284 -0.5604644 1.5273938 0.32336855
000230 fa 32 a1 3f c4 31 f4 be 00 62 04 bf c9 5a 08 be
       1.2593682 -0.47694218 -0.51712036 -0.13315882
000240 42 12 44 be 6d 4b 0f bf 06 41 a5 3e a6 05 a3 3e
       -0.1914759 -0.55974466 0.3227617 0.31840247
000250 b8 18 06 3f 18 db aa bf 02 7d e6 bf d6 c9 37 bf
       0.5238147 -1.3348112 -1.8006899 -0.7179235
000260 f7 dd 40 be e7 c8 05 be 33 73 60 be 8a a4 aa 3e
       -0.18834673 -0.1306492 -0.21918945 0.33328658
000270 83 fb 2c 3f e2 f6 1a bf 62 e4 0d 3f 3b 9f 84 3d
       0.67571276 -0.60532963 0.5542661 0.06475683
000280 50 3e 5b be 08 4d 19 bf 3a 5e 54 3f 51 65 1b be
       -0.21410489 -0.59883165 0.8295628 -0.15175368
000290 9c 4b 6d bf 20 61 f7 be a1 f8 b6 be 14 6e 5d bf
       -0.92693496 -0.48316288 -0.35736564 -0.8649609
0002a0 a3 20 4e 3e 2a a9 14 bf 91 6d 27 40 4c 7a 47 bf
       0.20129637 -0.58070624 2.6160624 -0.77920985
0002b0 e4 8c 5f 3e b2 e8 a5 c0 a7 20 35 bf a0 3d 8c 3f
       0.2183109 -5.184655 -0.7075295 1.0956306
0002c0 8c 43 58 c0 a0 6b b8 be 2a a2 20 3f 55 47 65 bf
       -3.3791227 -0.3601961 0.6274744 -0.8956197
0002d0 54 d3 14 be 89 80 ed bd 14 be 05 40 f3 77 3c bf
       -0.1453374 -0.11596782 2.0897264 -0.7362053
0002e0 71 c8 99 3d 92 cb 77 3e dc 43 e2 3f f2 b2 f1 be
       0.07508934 0.2419875 1.7676959 -0.47206837
0002f0 9f 39 9c bf 54 c1 3c 3f 8e 32 90 40 d6 cd a1 3f
       -1.2205085 0.73732495 4.506171 1.2640941

model.rec.weight_hh_l0 f4 [192, 64]
000000 51 64 b4 3a aa 6e 40 3e 30 4c db bd 5d 55 09 be
       0.0013762807 0.18792215 -0.10707891 -0.1341147
000010 0b 41 c2 3e 81 8d c4 be 93 09 7c be 4a 20 ad be
       0.3794025 -0.3838921 -0.24613027 -0.33813697
000020 c1 b8 13 3f eb d7 12 3f 06 9c eb be 67 8d 52 bf
       0.5770379 0.57360715 -0.46017474 -0.8224701
000030 70 e4 78 be 02 e9 d8 be 5a bb 5d 3e a8 1a 97 3d
       -0.24305892 -0.4236527 0.216535 0.07378131
000040 02 5c ed 3e 2c 4c cd 3d d0 27 f5 3d d9 c5 ba be
       0.4635926 0.10024294 0.11970484 -0.3647907
000050 25 f1 12 3f 56 18 41 3d 4c 3e a0 3e 2f 52 89 3e
       0.5739921 0.04714235 0.3129753 0.26820514
000060 06 be 2f be 94 ff 47 bd e0 3a 68 3e bd 21 a8 bd
       -0.17162332 -0.048827723 0.22678709 -0.0820956
000070 64 8a e8 be 65 30 0c 3f 76 41 fb bd 78 15 8e bd
       -0.45418084 0.54761344 -0.12268345 -0.069376886
000080 a6 52 1f be a6 fa 50 3e 1e 92 18 be db bc d7 be
       -0.15558872 0.20408115 -0.1489949 -0.42136273
000090 0b 63 03 bf 11 eb 8f bd 9c 2e 22 3b 6c 6b 3d 3e
       -0.51323 -0.07027257 0.002474702 0.1849801
0000a0 16 72 00 3d 60 6b 27 3e f9 a8 9e be 19 17 55 3d
       0.0313588 0.16349554 -0.3098829 0.05202398
0000b0 28 0e 34 be 53 6e 29 be 0b e7 8e 3d 8d a2 a8 be
       -0.17583525 -0.16545992 0.06977662 -0.32936516
0000c0 dc 29 ba 3e 60 81 03 3b ac 4b 78 3d 8e 72 b7 3e
       0.3636006 0.0020066127 0.06061904 0.35829586
0000d0 22 d0 ef be 26 c4 ed be 9c 95 02 be 70 93 b4 be
       -0.4683848 -0.46438712 -0.12752384 -0.35268736
0000e0 e4 69 88 be 2c 72 2a bf c7 f1 11 be a1 e5 29 bf
       -0.26643288 -0.6658046 -0.14252387 -0.6636601
0000f0 f1 8e 41 3e 83 79 68 bf 28 61 af bd a6 01 11 bf
       0.18902184 -0.9081041 -0.08563453 -0.5664314
000100 32 38 2f bf c3 63 60 3e 8b 3f 04 3f 47 4f 41 bf
       -0.6844512 0.21913056 0.5165946 -0.7551159
000110 43 e2 0f 3e d7 df 4a 3e a8 87 e8 bd c4 e7 19 3f
       0.14051156 0.1981195 -0.113539994 0.6011927
000120 de a1 44 3f 29 6d 6d 3e ed b8 51 bf a4 27 c3 be
       0.7680949 0.23186173 -0.819228 -0.3811618
000130 fc f8 aa be 0e 07 12 3d 6c 6e 24 bf 23 02 ff 3d
       -0.33393085 0.03565126 -0.6423099 0.124515794
000140 8e 8a 36 3e 3c f1 d2 bd e9 9b af be 3f f5 f5 3e
       0.17826292 -0.10299918 -0.34298638 0.4803867
000150 df c9 e8 3e f1 50 8f 3e 35 5a 10 be 2c c3 f8 3d
       0.45466515 0.2799144 -0.14096911 0.12146601
000160 82 f6 15 3f 94 54 17 3e 59 5f 7c bd c0 71 0a be
       0.58579266 0.14778358 -0.061614368 -0.13519955
000170 11 2a bc be 95 dc 45 3f 32 ed 1e bf 08 60 15 3f
       -0.36750844 0.77289706 -0.6208068 0.5834966
000180 1c e4 7d bf c4 1e ca 3e 30 12 c5 be ed 79 20 be
       -0.9917619 0.39476597 -0.38490438 -0.15671511
000190 45 1b 34 bf 11 29 4d bf 24 4d 4d 3f 30 73 45 bf
       -0.7035411 -0.8014079 0.8019583 -0.7712889
0001a0 7b 3d 5f 3e 4e 4f bf 3e d8 d8 84 3e 73 83 1e 3b
       0.21800797 0.37365192 0.2594669 0.0024187237
0001b0 8d cf b8 3e a5 7d 6c be ef 6c 87 3e 96 fc e7 be
       0.3609585 -0.23094805 0.26450297 -0.45309895
0001c0 c7 bc 10 3d 6f a6 01 3e eb 28 a2 be 74 f7 a2 3e
       0.035336282 0.12661146 -0.31671843 0.31829417
0001d0 4a ed 78 bd a0 95 06 bf a7 be 91 be c3 e2 fa be
       -0.06077317 -0.5257206 -0.2846577 -0.4900113
0001e0 28 6b 87 be ed 9d 46 be 2f 56 ac bd 14 f2 14 3e
       -0.2644894 -0.19396181 -0.08414876 0.1454547
0001f0 d2 32 0e 3e db 04 29 3f 4e 6d 90 3e 0b 9f 2e bf
       0.13886574 0.66023034 0.28208393 -0.6821143
000200 20 cf 94 bf aa 14 10 3e a8 20 7a 3d 90 7e b3 3e
       -1.162571 0.14070383 0.0610663 0.35057497
000210 6c 0d c7 3e 26 57 49 be cf f8 44 bf 2e ef bf 3d
       0.38877428 -0.1966215 -0.7694215 0.09371792
000220 9b db b5 3e c6 31 17 3f 4d 73 33 bf c2 70 8a 3e
       0.35519108 0.59060323 -0.7009781 0.27039152
000230 d0 31 f0 3c dd 8b 00 3f 07 33 f7 bd 86 b1 8d bd
       0.029320627 0.50213414 -0.120702796 -0.069186255
000240 81 3b 16 3f de 10 17 3f a5 f8 8e 3f 45 6b 1f 3f
       0.58684546 0.5901011 1.116963 0.62273055
000250 28 e4 00 3f 1c 48 3a 3e 0e 28 f5 bd a4 84 0b 3f
       0.5034814 0.1819157 -0.119705305 0.5449927
000260 4f 01 b7 3e 07 29 8f 3e b3 e4 f7 3e 12 bd 07 3f
       0.35743186 0.2796099 0.4841667 0.53022873
000270 c1 c2 1b 3e 46 99 50 3e 39 2c d3 3d b6 46 8d 3e
       0.15211011 0.20370969 0.10311169 0.2759301
000280 9d f8 ff be cd b1 97 bd 09 d5 cd bc 87 1a 30 bf
       -0.49994364 -0.0740696 -0.025125997 -0.6879048
000290 41 8d 46 be 9c 19 93 be e1 7e 19 3e 85 33 ba bd
       -0.19389822 -0.28730476 0.14989807 -0.09091858
0002a0 bf 75 ac 3e ba d3 f2 be 49 50 9b be 2c 21 18 3f
       0.33683583 -0.4742716 -0.3033469 0.59425616
0002b0 cb ab 0e bc 9f e0 6f 3e 5d 6d 17 3f ea 3f f1 be
       -0.008707951 0.2342553 0.5915125 -0.47119075
0002c0 ae 2a 31 3e d0 c5 eb be 60 f9 22 be 3f 17 3a 3f
       0.17301437 -0.46049356 -0.15915442 0.7269172
0002d0 db 38 38 bf e9 73 9a bf eb c3 04 bf 3d aa a5 3e
       -0.71961755 -1.2066623 -0.5186145 0.32356444
0002e0 e9 f8 c2 bf d1 a3 75 3e b7 b7 a1 bd dd 26 07 be
       -1.5232211 0.23988272 -0.07896369 -0.13198419
0002f0 7f 43 9a bd 32 67 b6 bd 11 66 91 bd 5c 34 c9 bd
       -0.07532405 -0.08906402 -0.07099546 -0.0982444
000300 dd 3a f7 bd d5 3b 21 be 63 bd 98 3c d2 ed 8e bd
       -0.12071774 -0.1574548 0.018644994 -0.069789544
000310 90 c8 6a 3e 50 3f c8 bd 19 e4 9b be 7a e1 02 3f
       0.22928071 -0.09777701 -0.30447462 0.511253
000320 59 93 12 3f 7e e8 a3 3e ab d6 c1 be 13 60 0b bf
       0.57256085 0.32013315 -0.3785909 -0.5444347
000330 09 28 99 bd 2f 52 3f 3f eb 70 a5 bb 1f 18 7c 3e
       -0.07478339 0.7473478 -0.0050488613 0.24618576
000340 c6 43 ca 3e 31 72 33 bf 55 a3 7b bd 83 39 4c 3e
       0.39504832 -0.7009612 -0.061435062 0.19943814
000350 3f 8c 82 bd aa 18 a7 be e8 f9 3a 3e 68 d4 29 3e
       -0.06374406 -0.32636005 0.18259394 0.16584933
000360 60 7f c3 3c c6 47 28 3e d6 3d 4d be e4 64 03 3f
       0.023864448 0.1643363 -0.2004312 0.5132582
000370 89 39 06 3f 88 5a 96 3d 7e 62 eb 3e 1f 6d 8a 3e
       0.5243154 0.07341486 0.4597358 0.27036378
000380 3a a4 04 bf 7d 95 fa 3e d8 34 cb bc 5f 5b ba 3e
       -0.5181309 0.48942176 -0.024805471 0.36397836
000390 a8 58 9a bd 13 ec 09 bf a3 cd 12 3e f5 a4 2a be
       -0.07536441 -0.53875846 0.14336257 -0.16664489
0003a0 d1 e0 2b bd 59 c2 98 3b 58 df 3d be cc 89 6b be
       -0.04196245 0.00466184 -0.1854223 -0.23001784
0003b0 b8 fb 8e 3e f1 30 0d 3e 61 2b 22 be 1f 70 d5 be
       0.2792642 0.13788201 -0.1583686 -0.41687104
0003c0 8b 63 a2 3e 07 58 e4 3c 2a 4a f4 3e c4 7c 4a 3e
       0.3171657 0.027874006 0.47712833 0.19774157
0003d0 a7 65 9e be 5d a9 b9 be 0c 57 39 3e 33 89 10 3e
       -0.3093693 -0.36262026 0.18099612 0.14114837
0003e0 95 e5 c2 be 90 d3 eb be bf 02 4b be 6b 5a 1b bf
       -0.38065782 -0.46059847 -0.19825266 -0.6068484
0003f0 f6 76 04 bf 31 2a b5 be 7e 4f b0 be 65 77 e7 bc
       -0.5174402 -0.35383752 -0.34435648 -0.028255174

model.rec.bias_ih_l0 f4 [192]
000000 9e 55 39 be 4f 34 37 bf 06 df b7 be 91 a0 57 be
       -0.18099067 -0.7156419 -0.3591234 -0.21057345
000010 45 24 02 be 47 15 7a bf ad 74 3e be fc ba 2d bd
       -0.12709148 -0.97688717 -0.18599196 -0.04241465
000020 ad 85 2f bf 41 19 36 be 3e 26 41 bd f4 66 f7 be
       -0.6856335 -0.17783071 -0.04715561 -0.48320735
000030 8a fa 87 3e d9 28 da bc b6 54 24 3e db 4c 11 bf
       0.26558334 -0.026630806 0.1604794 -0.567579
000040 ab f8 12 bf 41 17 a0 3e 26 83 6a be df 1c 9b be
       -0.5741069 0.3126774 -0.22901592 -0.30295464
000050 19 87 3a bf 4d 5c 7f bf 8f f8 50 3d 2f 67 92 bd
       -0.7286239 -0.99750215 0.051018294 -0.07148587
000060 37 5d e2 be 49 55 10 be 5e 76 62 be 5c 43 29 bd
       -0.44211742 -0.14095034 -0.22115466 -0.041324005
000070 72 64 38 3d 97 f7 95 bf 3a 11 0d bf b6 55 e7 3d
       0.045017667 -1.1716183 -0.5510441 0.11295645
000080 4e 58 24 3e e3 8a 61 bf 19 ac 88 be b6 92 cd 3c
       0.1604931 -0.8810255 -0.266938 0.025094371
000090 af 15 cf bd 8c a4 e2 be bc f5 1e be 77 a3 03 bf
       -0.10111558 -0.44266164 -0.15523428 -0.514213
0000a0 8d 5e 32 3d 24 0d f0 be b5 a8 f2 3e ba 68 81 be
       0.043547202 -0.46885026 0.47394338 -0.25275213
0000b0 a7 3b 64 be fc 55 5a bf 54 81 c5 be 93 b3 13 be
       -0.2228838 -0.8528745 -0.38575232 -0.14423971
0000c0 81 45 12 3e 31 ed 21 bf 90 bc b1 be 89 23 2e be
       0.14284326 -0.6325255 -0.34714174 -0.17005743
0000d0 60 6c a5 be 7e a4 37 bd d0 58 4e be a4 c6 a7 be
       -0.32309246 -0.044834606 -0.20151067 -0.32768738
0000e0 20 d8 39 be 23 a3 c5 be 64 4b 09 bf 19 1a cc be
       -0.18148851 -0.38601026 -0.5363066 -0.3986366
0000f0 82 c3 d1 be 06 dc bd be 44 31 9b be 28 85 18 bf
       -0.40969473 -0.37081927 -0.30311024 -0.5957818
000100 a7 3a 91 3e 54 18 84 3e 51 cf c1 be eb ac 03 bf
       0.2836506 0.2579981 -0.37853482 -0.51435727
000110 e7 99 09 bf 73 03 61 3e 5c d3 da be ef be 31 3f
       -0.5375046 0.21973972 -0.4273938 0.69431967
000120 fb 11 25 3e 1f f8 84 be 4f 9e ff bd ab 28 23 be
       0.1612014 -0.2597055 -0.12481367 -0.15933482
000130 2c c9 73 bf 23 3f b3 3e 60 7a 13 3f 22 c4 80 be
       -0.9522884 0.35009107 0.57608604 -0.25149637
000140 53 76 1e 3e 4d 88 e3 3f c7 d4 b3 3e 29 ae 39 3f
       0.15474825 1.7775971 0.35123274 0.7253137
000150 99 c0 03 3e 88 56 ab 3e a0 1e ca 3e bc 0e b8 3d
       0.12866439 0.33464456 0.3947649 0.08987185
000160 d3 b5 95 bf 12 22 a3 3e 2a 61 f4 3e a9 61 77 be
       -1.1696113 0.3186193 0.4773038 -0.24158348
000170 ab 72 3b 3e 48 d3 e9 be 7a 26 36 bf 13 63 03 3f
       0.18305461 -0.45669007 -0.7115246 0.5132305
000180 0f 54 81 3f 33 49 ff 3d 95 19 e7 3d 1f 6f 0e 3f
       1.0103778 0.124651335 0.11284176 0.5563831
000190 95 e4 cc 3d e2 24 2b 3d 88 6b c0 3d 71 25 c6 be
       0.10004536 0.04178322 0.0939551 -0.3870044
0001a0 be da 27 be 95 c2 33 3e ba c0 70 bd 5d cf 9a bd
       -0.16392037 0.17554696 -0.05877755 -0.07559083
0001b0 53 e5 59 3f 5b 39 36 3e 94 11 e5 3d 99 66 2a bf
       0.85115546 0.17795317 0.111849934 -0.665628
0001c0 47 40 c5 be bf 30 cd be ab 9f 69 bf c9 a2 09 3e
       -0.38525602 -0.40076253 -0.9125926 0.13441004
0001d0 c2 63 75 3e 9c f7 b9 3e b0 5e b7 3e ab 35 49 bf
       0.23963836 0.36321723 0.35814428 -0.78597516
0001e0 4f ac 57 3c 94 d6 59 3f b4 65 9d 39 96 4a 18 3e
       0.01316364 0.85093045 0.00030021148 0.14872202
0001f0 0d c4 dc 3e cf a2 fb be 71 74 8f bd 31 7e 8f be
       0.43118325 -0.4914765 -0.07004631 -0.28025964
000200 a7 b1 66 bc dd 0d 46 3b 2b a0 4c bc 4d 4d da bc
       -0.014080442 0.0030220666 -0.012489359 -0.026648188
000210 00 43 f4 3c 02 25 05 bc 56 37 c1 3d 1c 1c 84 3d
       0.029817104 -0.008126499 0.094343826 0.06450674
000220 c2 3f 42 bd 93 cc 94 3d 58 31 6b bd 0c ec d0 3b
       -0.047424085 0.07265582 -0.057420105 0.006375795
000230 4c 68 08 3e ac 5f 13 bd 7d a4 08 3f f9 85 9d bc
       0.13321036 -0.03597991 0.5337599 -0.019228922
000240 85 2d 4b bc e7 9e bf 3c 23 8f d9 bd cc 7b 5f bd
       -0.012400989 0.0233912 -0.10623004 -0.05456142
000250 d6 dc c2 bc 03 0e 5b bd 40 13 88 bc 5e de 4f bd
       -0.023786943 -0.05348016 -0.016610742 -0.050749175
000260 20 c5 a7 bb 80 86 b0 3d 9b 7c d8 3d 93 3d 66 bd
       -0.0051199347 0.08619404 0.105706416 -0.056211066
000270 b0 98 43 be 62 7d 65 bc cf 19 9a bc 56 8f fd be
       -0.19101214 -0.014006944 -0.018811135 -0.4952342
000280 86 aa 6b 3e ba 50 71 3c ff 25 8e 3e 63 6c 86 3d
       0.23014268 0.014728719 0.27763364 0.06563642
000290 0f 51 2b 3c e2 57 5c bc 79 6e 85 be 51 80 0b 3e
       0.010456338 -0.013448687 -0.26060846 0.13623168
0002a0 73 e8 06 be f9 08 e0 bb 44 df a1 be d9 9f ca 3d
       -0.1317461 -0.006837007 -0.3161565 0.0989377
0002b0 b2 c6 91 bb bc ef 60 bc 73 ee 3a 3b b0 ee 99 3d
       -0.004448735 -0.013729032 0.0028523474 0.07516229
0002c0 56 39 8f 3d 76 61 1b 3d af 6d a9 bc 27 2c 07 3e
       0.06993358 0.037934743 -0.020682184 0.13200437
0002d0 d9 0a 8b bc 13 4c 65 bd 61 ab 13 3d f3 58 e0 3d
       -0.016972946 -0.055980753 0.03605211 0.10954466
0002e0 2f be 63 3d 90 6f 05 bc 15 64 ea bc c8 ac 97 bc
       0.055601295 -0.008144274 -0.028612176 -0.018515006
0002f0 81 f0 80 bc a2 60 8c 3d 62 73 38 bd 8e a1 3d 3d
       -0.015739681 0.06854369 -0.045031913 0.04629665

model.rec.bias_hh_l0 f4 [192]
000000 ba 68 04 be 22 94 64 bf 6b cf 5a be 7c fa 0f be
       -0.12930575 -0.8928853 -0.21368186 -0.14060396
000010 c1 4b 85 3d df 99 49 bf de 01 d7 bd ad 7f 21 bd
       0.065085895 -0.78750414 -0.10498403 -0.0394284
000020 6f d1 21 bf f8 a3 c4 be 6d 20 4c bd cc 13 76 be
       -0.63210195 -0.38406348 -0.04983561 -0.2403099
000030 e8 2b 6d 3e 19 d0 02 be 83 32 79 3d 83 91 0f bf
       0.2316128 -0.12774695 0.060839187 -0.5608141
000040 77 ed 07 bf 93 5e 73 3e b0 f9 68 be f4 bc 45 be
       -0.5309672 0.23766546 -0.22751498 -0.19310361
000050 1a be 4f bf 08 47 95 bf 1d 53 98 3d f4 a5 95 be
       -0.81149447 -1.1662302 0.074377276 -0.29228175
000060 97 10 87 be 95 e4 96 be 65 a0 3b bc 80 e7 cb 3d
       -0.26379845 -0.2947127 -0.011451815 0.099562645
000070 4f 75 9f 3c 0c 52 99 bf 53 bf bd be 39 64 be 3d
       0.019465117 -1.1978164 -0.3706003 0.0929646
000080 59 45 ac bd 0c 76 3c bf 75 15 27 bd 66 e0 1d 3c
       -0.084116645 -0.73617625 -0.040791947 0.00963602
000090 fc 8e 9b be 6d 47 ca be 0d db d3 bd 38 80 ec be
       -0.30382526 -0.3950762 -0.10344515 -0.46191573
0000a0 b2 83 bb bd 6a 19 ec be 17 19 10 3f 95 8a 6f be
       -0.09155978 -0.4611314 0.56288284 -0.23392709
0000b0 f0 08 8c be 19 66 86 bf aa db ee be 26 60 a1 bd
       -0.2735057 -1.0499908 -0.46651965 -0.07879667
0000c0 7f 78 29 3e 67 85 04 bf eb 4c e2 be a1 8f 05 be
       0.16549872 -0.51766056 -0.4419931 -0.13043071
0000d0 52 0e 19 be a0 0e c9 bd af 0f 0a be a0 10 0d be
       -0.14946869 -0.098172426 -0.13482545 -0.13775873
0000e0 61 8d 55 be eb e2 1c bf 05 7b 04 bf 99 91 01 bf
       -0.20854713 -0.6128375 -0.5175021 -0.5061279
0000f0 53 ca c4 be 4e 70 57 be 71 f5 bc be c3 e8 c2 be
       -0.3843561 -0.21038935 -0.36906007 -0.38068208
000100 68 1c 7a 3d 2e 8c f6 3e a6 ec cc be a2 b8 02 bf
       0.061062247 0.48153824 -0.40024298 -0.5106298
000110 ff 63 b6 be bb e4 c6 3d 6d d6 d4 be 67 4f 32 3f
       -0.35623166 0.097115956 -0.41569844 0.6965241
000120 16 96 42 3e fa 78 89 be 23 c7 26 bb 6a 8c 15 be
       0.19002566 -0.2685011 -0.0025448285 -0.14604345
000130 5b a3 62 bf e2 be b8 3e 91 20 de 3e 5f cb 1e be
       -0.8853051 0.36083132 0.4338422 -0.15507267
000140 f4 4d 80 3e 91 2d ec 3f c2 c4 52 3e 8d 6d 27 3f
       0.25059474 1.8451406 0.2058287 0.65401536
000150 76 9d 93 3e c3 18 ab 3e 90 ee 7f 3e 58 c8 8c bd
       0.2883107 0.3341733 0.24993348 -0.0687415
000160 30 f3 91 bf b1 1c a7 3e 7d 6a 21 3f 9d e8 d7 bd
       -1.140234 0.32639077 0.63053113 -0.10542414
000170 c9 a7 72 3e e8 d6 fe be ef ab 13 bf 5d f5 1f 3f
       0.23696817 -0.49773335 -0.57684225 0.6248377
000180 ae 22 86 3f 13 88 05 3a 60 b4 32 3e bf f3 20 3f
       1.0479333 0.0005093824 0.1745162 0.6287193
000190 50 08 7d 3e 24 98 63 3e 85 9b 2a 3e 89 ae c9 be
       0.24710202 0.22226006 0.16660888 -0.39390972
0001a0 ea e2 29 be 2d 13 52 3d 80 e8 56 be ec e8 9b be
       -0.16590467 0.05128782 -0.20987129 -0.30451143
0001b0 09 08 58 3f 3b 8b 80 3e d0 7a 0d 3e bc ac 55 bf
       0.8438726 0.25106224 0.1381638 -0.83466697
0001c0 c7 88 8b be a4 8a 6d be f2 8a 53 bf 45 06 bd bd
       -0.2725279 -0.23197418 -0.8263389 -0.092297114
0001d0 e8 29 a4 3e 2c fd 53 3e 0a 05 cb 3e 0f 5e 47 bf
       0.32063222 0.20702046 0.39652282 -0.778779
0001e0 b3 0d 6a bb 99 47 33 3f 33 ec c7 bc 3c fe 0e 3e
       -0.0035713732 0.70031124 -0.02440462 0.1396417
0001f0 59 cd c4 3e 97 01 13 bf 2e bc 9d bd 1d c8 d0 be
       0.38437918 -0.574243 -0.07701908 -0.40777674
000200 99 aa 59 3c 47 19 5a be 59 00 85 3e 8f cb 47 bd
       0.013285303 -0.21298705 0.25976828 -0.048778113
000210 8a 6c 22 3e 22 81 46 bc b8 8d 81 bd 09 31 de bd
       0.15861717 -0.012115749 -0.06325859 -0.108491965
000220 7f 12 21 be 11 a6 84 3e ed d2 d3 3d ad 87 4a 3e
       -0.15729712 0.2590795 0.10342965 0.19778319
000230 83 a2 8a 3e 73 65 7b 3d 44 f8 0d 3f b3 35 14 be
       0.27077112 0.061376046 0.5545695 -0.1447361
000240 7e 05 06 be 72 31 f4 3c 98 a7 ca 3d 6c db f1 bb
       -0.13088033 0.029808734 0.09895247 -0.0073808935
000250 65 a2 2c be 1b 6d 32 be 47 1f e4 3d 3f 77 2b 3e
       -0.16858824 -0.17424433 0.11138778 0.16744708
000260 ee 17 ba 3d 5c ce 73 3e fe 19 48 3d 56 1f 36 3d
       0.090865955 0.23809189 0.048852913 0.044463478
000270 a0 74 07 bd 65 4f 3b be e2 0d 72 be 5c 61 9a be
       -0.033070207 -0.18292005 -0.23638108 -0.30152404
000280 f6 60 bc 3d 85 9e 8a be b8 9f 86 3e ab 09 0d 3e
       0.09198181 -0.27074066 0.2629373 0.1377322
000290 c8 da 21 3e 7b 84 30 be 91 73 7b be f6 c0 f8 3d
       0.15806115 -0.17238037 -0.24555804 0.121461794
0002a0 af fb b0 3d 74 7c cc 3c d2 84 e8 bb 0a f1 db 3d
       0.08641755 0.024961688 -0.0070959115 0.10739334
0002b0 15 d3 d4 bd 07 d2 e7 3d 80 84 9d bc e7 cc 85 bd
       -0.10391823 0.113193564 -0.01922822 -0.06533223
0002c0 3a e3 b7 bd 46 c7 66 be c1 b0 92 bd 2b 3f 95 3c
       -0.08978887 -0.22536954 -0.071626194 0.018218597
0002d0 54 42 94 3d 44 7d 9e bd 7f aa 02 bd c3 4d ae 3d
       0.072392136 -0.07738736 -0.03190088 0.085109256
0002e0 13 71 c7 bd 15 b2 56 bd 63 ef 01 be 86 97 ed 3c
       -0.09738364 -0.052415926 -0.12688975 0.029002916
0002f0 bf 76 a6 bd 3d a6 27 be 94 a7 0d be 25 3d ad bd
       -0.08128118 -0.16372009 -0.13833457 -0.08458928

model.linear.weight f4 [1, 64]
000000 b3 b9 62 be cf 58 5b 3e f6 ef db 3d 55 2a a0 3b
       -0.22141151 0.21420597 0.10739128 0.004887859
000010 19 42 75 3d 8e 17 0c bd 96 f9 d4 3d 68 d2 db bb
       0.05987749 -0.03420215 0.10399167 -0.006708432
000020 41 04 ea 3c 70 a5 19 bd ab 6c 3a be b1 1c cf 3d
       0.028566482 -0.03751129 -0.18205516 0.10112894
000030 e1 1a f9 3d 1b d1 8f 3c 5c 01 ea 3c ee 2c dd 3d
       0.1216333 0.017555764 0.028565101 0.10799585
000040 ea 36 b8 3d 0a 5a 36 3d ad cd 15 bd 37 82 16 3d
       0.08994849 0.04451946 -0.0365731 0.036745276
000050 7b 68 b6 bc 74 7c 45 3e 65 36 48 be 14 49 bb 3d
       -0.022266617 0.19285756 -0.19552 0.09144798
000060 cd 83 80 3c e2 fd f5 bd 86 94 14 3e d9 d4 fc bd
       0.015687848 -0.12011315 0.14509782 -0.12345285
000070 13 72 0d be 39 ad 0f 3e 3b 47 b8 3c 93 d2 47 3d
       -0.13813047 0.14030923 0.022494903 0.048784804
000080 12 bd f7 bc 88 da 62 3d 2d ad ed bc 07 5e 88 bd
       -0.030241523 0.05538419 -0.02901324 -0.06658559
000090 53 aa 4f 3e 64 54 ce 3d 43 61 48 3d 48 63 f3 3d
       0.20279817 0.1007469 0.04892088 0.11884171
0000a0 c6 14 c3 bd c6 2d 8f 3d a0 fb 0d 3c 2d a0 04 3d
       -0.095254466 0.069911525 0.008665949 0.032379318
0000b0 d6 d9 80 3c f8 71 83 bc d9 85 b6 3c 2a 4a 1d bd
       0.015728872 -0.016045555 0.02228062 -0.038400806
0000c0 5f 99 33 bc 22 c1 39 3d cf fc 55 bd 73 12 c5 bd
       -0.0109618595 0.0453502 -0.05224305 -0.096226595
0000d0 3c 03 7c be 2c db 74 be 2a c4 5d be 82 b5 3d 3e
       -0.24610609 -0.23911732 -0.21656862 0.18526271
0000e0 93 79 64 be f4 de 3f bc a5 96 0d bc af 55 7e 3d
       -0.22312002 -0.011710871 -0.0086418735 0.062093433
0000f0 0b bb 7f 3d 61 c3 1c bd 1a cb 61 bd ca 94 8b bd
       0.062434237 -0.038272265 -0.055125333 -0.06815489

exp_avg f4 [192, 1]
000000 2b 96 c4 37 07 64 04 38 06 d9 8c 3a 97 39 79 b9
       2.3434948e-05 3.156441e-05 0.001074583 -0.00023767944
000010 db e1 2b b9 94 7e 98 ba 96 de 04 3b d1 60 24 bb
       -0.00016391969 -0.0011634403 0.0020274273 -0.002508212
000020 79 b6 00 3a 06 85 78 38 24 33 99 39 b9 72 75 b8
       0.0004910003 5.9251695e-05 0.00029220537 -5.8519396e-05
000030 34 af 01 bb bd 1b 9a b7 17 9e 19 3b 55 4f e3 b6
       -0.0019788267 -1.8371147e-05 0.0023440176 -6.7743626e-06
000040 c0 60 1f 38 d8 b8 0d bb 55 02 a5 37 f2 63 0a 39
       3.799866e-05 -0.0021625068 1.9670619e-05 0.00013197938
000050 c7 99 02 bb e3 e2 c5 36 6a 28 50 ba 61 41 fe 37
       -0.0019928084 5.8974706e-06 -0.00079405925 3.0309604e-05
000060 b5 6f e9 39 3b e9 92 ba 57 d9 88 b9 8c 58 bd b8
       0.0004452445 -0.0011208424 -0.00026101872 -9.0287154e-05
000070 ae 5b c7 ba 46 b0 b2 39 f7 d0 20 b9 99 8f 44 39
       -0.0015209818 0.0003408214 -0.00015336635 0.00018745511
000080 a5 94 fe 3a cf e2 9e 39 a2 3a 50 bb ee c2 39 bb
       0.0019422962 0.00030305094 -0.003177323 -0.0028344947
000090 c2 e8 07 b9 f6 2d 54 39 bd dd b3 ba ca 45 4f 3a
       -0.00012961312 0.00020235017 -0.0013722699 0.0007906823
0000a0 80 2a b2 39 2f e2 89 38 a0 97 6a 3a ed 01 af ba
       0.0003398247 6.574799e-05 0.00089489855 -0.0013352014
0000b0 3e fd 91 38 07 ae 5a ba 28 bf ce b9 65 59 6b 39
       6.961309e-05 -0.0008341972 -0.00039433804 0.00022444648
0000c0 48 63 6d bb 11 1f 52 b8 bc 4f c9 b9 92 46 b5 ba
       -0.0036222506 -5.0096834e-05 -0.00038397114 -0.0013830236
0000d0 2e b4 98 39 af d0 81 3a dc 63 6f bb 1c f0 51 b9
       0.00029125944 0.0009904112 -0.0036528027 -0.00020021241
0000e0 52 63 f5 b8 69 74 b6 b9 77 ca b8 ba 17 f0 22 b9
       -0.0001170101 -0.00034800477 -0.0014098425 -0.00015538964
0000f0 10 ca 1d ba 8f b6 b5 39 55 aa c3 bb 22 4e 94 38
       -0.00060191844 0.00034659027 -0.005971233 7.071743e-05
000100 d0 4b d0 b6 65 63 37 38 8a 22 62 ba 24 e8 c9 b7
       -6.207709e-06 4.372317e-05 -0.00086263625 -2.4069166e-05
000110 fb ac e1 39 bf 83 0f 3a 1c 60 dc b9 56 88 97 bb
       0.00043044225 0.0005474649 -0.00042033277 -0.004624407
000120 79 3f 86 ba de 32 db ba d8 b6 48 b8 e2 56 02 b9
       -0.0010242305 -0.0016723534 -4.7854002e-05 -0.00012430132
000130 db 25 05 b9 d2 f4 be bb 03 dd 01 37 60 0e fd b6
       -0.0001269797 -0.0058275247 7.7404575e-06 -7.541661e-06
000140 5f dc 10 b7 09 2f 20 bc d6 63 13 b9 d3 fc b9 ba
       -8.634378e-06 -0.009776839 -0.00014056204 -0.0014189727
000150 9c 24 05 b8 0a b3 24 39 68 8a 12 b9 ac 96 26 b7
       -3.1743766e-05 0.00015706956 -0.00013975205 -9.929452e-06
000160 d1 46 28 39 12 86 c9 37 8b 5f 12 38 de 33 4d 37
       0.0001604811 2.4023499e-05 3.4898094e-05 1.2231028e-05
000170 82 91 f2 b8 8a 87 66 39 a9 62 bb b8 d6 80 7d ba
       -0.00011566562 0.00021985002 -8.935232e-05 -0.0009670382
000180 94 04 cc bb eb 1b a1 36 6f 36 93 bb a4 48 37 bb
       -0.0062261317 4.801424e-06 -0.004492573 -0.0027966881
000190 0a e2 18 39 4f 29 83 37 7a ed 6c 38 1c 62 9e ba
       0.00014580056 1.5635653e-05 5.6487952e-05 -0.0012083682
0001a0 bc 8e 1f b8 2a ef 9b b8 2b f5 65 b9 cf 6d 93 bb
       -3.8041486e-05 -7.435524e-05 -0.00021930474 -0.004499174
0001b0 2f c7 7d ba 2b 68 f6 39 df 7a fa 38 df 4e a0 b6
       -0.0009680865 0.00046998388 0.000119438155 -4.7775534e-06
0001c0 d5 cb 2e b9 03 d2 29 b6 4c 99 4a b8 71 39 5c 39
       -0.00016669866 -2.5305205e-06 -4.830332e-05 0.00021002234
0001d0 2c 94 3b b9 e5 29 37 b9 89 64 c8 39 c5 4a 11 b7
       -0.00017888908 -0.00017467847 0.00038221877 -8.660082e-06
0001e0 13 86 0b b7 1a 4e 27 b9 67 64 9d 37 34 f1 13 37
       -8.316262e-06 -0.00015955456 1.8762612e-05 8.818042e-06
0001f0 29 44 a4 b7 80 39 8c 38 6f 88 d7 38 23 4c d3 b7
       -1.9582063e-05 6.6864304e-05 0.00010277412 -2.5188614e-05
000200 d1 7a c8 ba 96 65 3e 3b 85 c4 39 bb d5 5a f5 3b
       -0.0015295391 0.002905225 -0.0028345895 0.0074876347
000210 3b 9e 5f bb 38 3d eb bb 84 3b 12 bb 45 ac 1e 3c
       -0.0034121412 -0.0071789287 -0.0022313306 0.009684627
000220 2f 28 6e 3c 0c 0f 60 bc 4d 98 a4 3a 19 ce ba 3b
       0.014535948 -0.013675462 0.0012557596 0.0057008383
000230 2f 2e 1e 3b f3 b0 3a 3b 22 27 2f 3c 0c 12 c5 3b
       0.0024136414 0.0028486818 0.010690482 0.0060141142
000240 13 6d 28 3c cc 98 ea ba 1a bb 0f 3b 51 33 48 3c
       0.010279912 -0.001789832 0.002193159 0.012219266
000250 0b a3 4d 3c 59 7a c2 3b 0c 03 b3 3b 45 91 31 bc
       0.0125510795 0.005934995 0.0054630097 -0.010837858
000260 b8 5e 58 bc 36 02 57 bb 3d 28 93 3b 9d 3d 84 bb
       -0.013206176 -0.0032807714 0.0044908808 -0.004035665
000270 f1 5a e4 bb 9b 74 b6 3a 31 35 1b 3b 33 e3 82 3c
       -0.006968849 0.0013920249 0.0023682828 0.015977478
000280 22 d9 86 bc d2 7e f7 b9 97 9d 33 39 c0 03 82 bc
       -0.016460959 -0.00047206 0.00017129477 -0.015870929
000290 a1 f7 a2 3b 04 11 05 3c ef e4 39 3c f2 b5 61 bc
       0.0049733673 0.008121733 0.011346086 -0.013776289
0002a0 c7 b6 9d 3b d9 85 0a bb 2e 22 40 bb b4 7c 69 ba
       0.0048130485 -0.0021136908 -0.0029317248 -0.0008906827
0002b0 bf 3a 31 3a 41 8e 30 3c 7c 40 62 bc 76 ef f9 3b
       0.0006760768 0.0107761035 -0.01380932 0.007627423
0002c0 f4 e5 61 bc d0 55 42 3b dd 50 32 3b ea 60 85 3b
       -0.013787735 0.00296532 0.0027208843 0.004070391
0002d0 fc 9a 93 bb 39 96 b7 b7 71 7e 6d 3b 1b 70 8b bc
       -0.0045045596 -2.1885253e-05 0.0036238695 -0.01702123
0002e0 27 2b 8c bc 57 e0 08 3b 8f 9c 2e 3b 73 5c 94 b9
       -0.01711042 0.002088567 0.002664361 -0.0002829764
0002f0 c5 5c 4c 3b 3c 4e a4 38 d4 82 3a bc 25 d1 94 3b
       0.0031183225 7.834702e-05 -0.011383731 0.0045415335

exp_avg_sq f4 [192, 1]
000000 18 75 d9 32 95 6b eb 32 14 46 ad 35 68 eb 4d 33
       2.5315373e-08 2.7406523e-08 1.29099e-06 4.7944383e-08
000010 74 fb 28 34 7f cc c6 35 30 71 9b 35 f5 cd a1 36
       1.5737697e-07 1.4811666e-06 1.1581342e-06 4.8221505e-06
000020 aa 9f 47 35 7f be 88 33 f7 9b bb 35 a8 a9 8b 33
       7.436562e-07 6.3676445e-08 1.3977977e-06 6.503552e-08
000030 b4 bd e9 38 ce 4c cc 34 5d 48 e7 38 e0 e8 34 32
       0.00011145641 3.8053844e-07 0.00011028417 1.0530329e-08
000040 c5 41 b8 31 c2 ad 3d 37 17 64 8f 33 9b c6 1a 35
       5.362582e-09 1.1305734e-05 6.677163e-08 5.765848e-07
000050 9f d8 8d 36 25 27 06 32 68 02 ae 35 6b 7e a9 32
       4.2273455e-06 7.808727e-09 1.296471e-06 1.9731678e-08
000060 41 e4 8f 33 8f cd 03 35 e8 17 62 34 a2 51 a2 33
       6.7004756e-08 4.910043e-07 2.1056587e-07 7.558562e-08
000070 6d 5a 5b 37 10 34 a3 33 e6 5b da 33 83 e5 98 36
       1.3074471e-05 7.599749e-08 1.0168132e-07 4.5566717e-06
000080 49 85 7a 36 b8 68 01 35 02 67 88 37 04 27 d8 36
       3.7330485e-06 4.820863e-07 1.626043e-05 6.4418437e-06
000090 14 c5 a9 35 88 8d 56 33 03 e4 f3 35 bf 53 ed 35
       1.2648838e-06 4.995448e-08 1.8171271e-06 1.7682249e-06
0000a0 47 ce b4 34 a3 a6 80 34 1e f5 6a 36 4b 2c ce 35
       3.36777e-07 2.3963102e-07 3.5011394e-06 1.5361087e-06
0000b0 64 01 8b 33 35 fe 92 35 18 5e 1c 34 49 aa 43 34
       6.472945e-08 1.0951832e-06 1.4562863e-07 1.822274e-07
0000c0 34 15 68 38 33 6f 32 33 2d 85 05 36 b9 ce 0d 37
       5.5332857e-05 4.154499e-08 1.9896063e-06 8.452386e-06
0000d0 b4 27 1f 35 de a6 21 35 14 45 e8 36 f8 74 db 33
       5.928989e-07 6.022e-07 6.9221805e-06 1.0219259e-07
0000e0 c1 db c8 33 26 c5 3b 34 a7 f2 60 36 d0 98 c0 33
       9.353199e-08 1.7487454e-07 3.3519843e-06 8.968493e-08
0000f0 ec d7 eb 35 1e e4 b0 34 bd 4a d9 37 55 28 58 35
       1.7571706e-06 3.2948532e-07 2.5903219e-05 8.052496e-07
000100 58 aa b1 31 3d 99 58 35 bc dd f8 36 c6 65 ac 31
       5.170744e-09 8.068926e-07 7.4167892e-06 5.017429e-09
000110 d0 29 fd 34 f1 87 24 36 98 0d 73 34 45 d9 1f 39
       4.7155345e-07 2.4517033e-06 2.2636084e-07 0.00015244361
000120 85 96 8c 37 77 da 18 37 60 b4 21 34 05 c9 ef 33
       1.6759392e-05 9.110771e-06 1.5059913e-07 1.116587e-07
000130 ed 9f 84 34 4b 35 eb 38 2d 0c 6f 35 c9 bb bb 30
       2.4703277e-07 0.000112156 8.9052156e-07 1.3659412e-09
000140 d7 ad 16 31 e8 51 c1 3c 42 fc 9f 33 6f b4 bf 37
       2.192669e-09 0.023598626 7.4499e-08 2.2852995e-05
000150 8e ef a9 34 b4 1a 51 35 7d 41 94 34 3f fb e7 30
       3.1653002e-07 7.7897425e-07 2.7614797e-07 1.687887e-09
000160 a1 a5 95 34 4b f4 3f 34 12 16 fa 32 d7 46 0c 33
       2.7873924e-07 1.7877134e-07 2.9113867e-08 3.266072e-08
000170 2b 99 d0 34 25 3e 95 33 5e fb 90 33 4c 4a 8b 37
       3.8854463e-07 6.949657e-08 6.751246e-08 1.6604688e-05
000180 a8 97 64 39 5d 7b eb 32 53 b5 98 38 16 c2 44 39
       0.00021800271 2.74137e-08 7.281699e-05 0.00018764319
000190 a0 1d 0e 33 5d 37 5a 31 2c 61 b2 35 e1 8f 0b 37
       3.3088895e-08 3.1754646e-09 1.3290314e-06 8.318545e-06
0001a0 4f f8 17 33 c7 cd 4a 32 08 76 e7 35 31 21 25 39
       3.5383263e-08 1.1804736e-08 1.7245193e-06 0.00015747991
0001b0 b2 b6 e2 36 f1 55 26 35 fd 4c 27 35 09 1d d0 30
       6.7565934e-06 6.196488e-07 6.232438e-07 1.5142244e-09
0001c0 56 30 41 35 2d 99 8e 2f 2e 9b a4 33 00 74 36 33
       7.196844e-07 2.5938487e-10 7.665072e-08 4.248068e-08
0001d0 cc 24 03 34 6e b8 ea 33 8d 27 ff 35 9d 38 f2 32
       1.2213712e-07 1.0930022e-07 1.9010491e-06 2.8198253e-08
0001e0 3e 68 16 33 4f 5b ae 36 37 be 1a 33 a6 6f 3d 31
       3.5019404e-08 5.196234e-06 3.602892e-08 2.7566585e-09
0001f0 34 48 d9 35 2e 0d 36 33 12 05 ba 34 dc ad 0d 32
       1.6188774e-06 4.2387164e-08 3.464889e-07 8.246811e-09
000200 6a fc 95 38 e5 60 3d 3a c8 04 ea 3b fa 22 2e 38
       7.1518894e-05 0.0007224216 0.0071416833 4.1517407e-05
000210 5b 6d a2 3a ab a4 b8 39 b0 42 1b 39 dc f6 f7 38
       0.001239221 0.00035217902 0.00014806795 0.00011823859
000220 b5 2c f1 3b 7b 79 0b 3c 1f f6 ac 37 ea ee 56 38
       0.007360066 0.00851285 2.0618607e-05 5.1244082e-05
000230 27 db 33 3b dc ba d5 38 09 e8 6c 3b a0 52 58 3b
       0.0027443857 0.00010191437 0.0036149046 0.0033008233
000240 49 d4 11 3a d4 8c df 36 58 76 3a 38 50 07 c5 38
       0.0005562944 6.6623124e-06 4.4456072e-05 9.395054e-05
000250 a1 7c c7 3b 3c 4d 89 3b 5f 05 18 39 1c a4 b9 38
       0.006087855 0.0041901153 0.0001449785 8.852055e-05
000260 6e f0 a0 38 be 30 bb 3a cc f1 f1 37 6c dd ac 38
       7.674178e-05 0.0014281494 2.8842034e-05 8.242842e-05
000270 ca 23 b1 39 61 ed 2a 3c 4c 5a b3 39 69 36 6e 3c
       0.00033786736 0.010432572 0.00034208817 0.01453934
000280 b8 f2 16 3a 52 7a a4 3a 47 bc 58 3c 74 de 45 3b
       0.0005758214 0.0012548661 0.013228483 0.0030192407
000290 18 b4 8f 39 4a 03 a3 39 4a f8 32 3b 57 92 82 3b
       0.00027409266 0.00031092233 0.0027308636 0.00398473
0002a0 56 ee 22 38 6c dc 9b 39 0c 53 77 38 75 8c 4f 3b
       3.8845777e-05 0.0002972813 5.8966732e-05 0.0031669412
0002b0 03 d5 5e 38 1a e2 5c 39 c1 b4 a1 39 55 dd db 38
       5.3127307e-05 0.00021065064 0.00030842985 0.0001048396
0002c0 08 8c c8 3a d6 7b 55 39 1f 6c e0 3a 98 02 3f 39
       0.0015300522 0.00020359395 0.0017122066 0.00018216146
0002d0 63 31 84 3a 93 74 0e 39 c2 87 72 38 9e 87 80 3b
       0.0010085519 0.00013585603 5.782373e-05 0.003922417
0002e0 00 92 1d 39 4b 9b cb 37 50 81 a0 39 17 02 d4 37
       0.00015027076 2.42718e-05 0.00030613923 2.5273343e-05
0002f0 6b 38 db 3a 98 f4 66 39 12 1f 83 39 9b b4 2e 39
       0.0016725188 0.00022025628 0.00025009416 0.00016661214

exp_avg f4 [192, 64]
000000 15 c4 a3 b9 69 0f ab b7 1a 6a 63 38 fb 4b ee 36
       -0.00031235875 -2.0391964e-05 5.4219832e-05 7.101798e-06
000010 9f 70 e4 b8 fd 59 50 b6 b4 b8 5c b9 56 da 15 b9
       -0.000108928645 -3.1046795e-06 -0.00021049642 -0.00014291084
000020 6d dd 50 b9 83 81 22 39 86 c7 fb b8 17 ef e8 38
       -0.00019918913 0.00015497771 -0.00012005777 0.00011107156
000030 0a 52 3c ba b1 5d d3 39 4c 90 ee 39 e4 67 02 b8
       -0.00071838556 0.00040314862 0.00045502407 -3.109117e-05
000040 0c 11 02 39 62 c0 c9 38 99 d5 18 b9 f1 00 09 b8
       0.00012404117 9.620261e-05 -0.00014575421 -3.2664222e-05
000050 aa c4 3d b9 86 0b 87 36 c2 e3 12 3a 80 44 c9 36
       -0.00018097708 4.024655e-06 0.00056033966 5.9982412e-06
000060 5a 23 23 b8 1c 98 13 38 8f 87 e0 37 9b 7e 2a b9
       -3.8895152e-05 3.5189194e-05 2.6766005e-05 -0.00016259628
000070 65 01 a0 38 f2 ee 5f b8 f0 28 c6 37 16 30 4f b9
       7.629654e-05 -5.338988e-05 2.3622502e-05 -0.00019758972
000080 0b 7e 8d 39 33 72 9b b7 03 b9 47 b8 bd b2 3d 39
       0.00026987525 -1.8530618e-05 -4.7617603e-05 0.0001809103
000090 79 75 0f 39 eb ea bc 38 dd 7e 31 b9 b0 b9 c7 b8
       0.00013681305 9.0082955e-05 -0.00016927296 -9.5236464e-05
0000a0 e1 de 04 38 e7 3d 15 b5 46 a5 8a 36 96 92 a3 b9
       3.1678825e-05 -5.5596905e-07 4.131961e-06 -0.00031198998
0000b0 3f 62 31 39 d8 14 44 b7 74 8c 54 b8 fd 77 58 38
       0.00016916635 -1.1687363e-05 -5.0675546e-05 5.161016e-05
0000c0 48 2e 17 ba 89 81 a4 36 0d a2 87 38 fb 3f 85 37
       -0.00057670893 4.9026607e-06 6.467486e-05 1.5884629e-05
0000d0 0a 5b 16 b9 60 14 ac b9 80 7e 05 b9 a8 bd 8c 38
       -0.0001433903 -0.00032821577 -0.00012730993 6.7110464e-05
0000e0 14 80 26 b9 46 a8 49 37 67 52 ba 38 4b b9 5a 38
       -0.00015878706 1.2019713e-05 8.88452e-05 5.2147818e-05
0000f0 60 69 e3 b7 52 1a c2 b8 12 c2 56 39 fc 91 d0 34
       -2.7109578e-05 -9.2555434e-05 0.00020480927 3.8849237e-07
000100 b1 19 8e b8 0b 2c 2a 37 c0 33 a0 38 f6 70 94 b8
       -6.775873e-05 1.0143044e-05 7.639034e-05 -7.0782306e-05
000110 27 32 4a b8 86 0e 0e b8 4b 80 2d b9 2a 77 e6 39
       -4.820726e-05 -3.3868964e-05 -0.00016546359 0.00043957803
000120 0a ff 8b 37 10 99 25 b9 b4 da d3 b7 de 00 9a 38
       1.6688853e-05 -0.00015792646 -2.5255002e-05 7.343454e-05
000130 09 50 16 b9 38 89 fc 39 88 d5 d4 b9 de 1e c5 b8
       -0.0001433493 0.00048167421 -0.00040594884 -9.3994415e-05
000140 f3 e8 20 36 28 49 ad b9 fb ae 62 39 77 86 a2 36
       2.3977452e-06 -0.00033051637 0.00021618225 4.84363e-06
000150 aa 97 df b8 e1 81 23 39 18 2a aa b8 e8 2a b6 38
       -0.00010661718 0.00015593275 -8.114072e-05 8.686428e-05
000160 af 31 53 39 26 fb 0c 39 75 69 a6 b8 d1 e9 b7 b8
       0.00020141037 0.00013445 -7.93514e-05 -8.769672e-05
000170 b1 26 d4 b8 a2 d7 f4 b1 3c c7 03 38 7e 89 1e 3a
       -0.000101161546 -7.1258492e-09 3.1418385e-05 0.00060477096
000180 b9 79 84 ba 31 ab 16 b7 1f ad d4 38 0b 30 20 38
       -0.0010107077 -8.980555e-06 0.00010141194 3.8191716e-05
000190 22 11 72 38 d8 7d f4 b8 50 28 a7 b7 96 17 8d b9
       5.7713252e-05 -0.00011658267 -1.9926723e-05 -0.0002691119
0001a0 f8 f9 14 39 9d 14 e7 b7 3c 68 df 38 89 47 d3 b8
       0.000142075 -2.7546945e-05 0.00010652884 -0.000100745885
0001b0 fa 27 07 39 be 83 83 b7 0d 4c be b7 ed 30 88 b8
       0.00012889496 -1.5677764e-05 -2.2685179e-05 -6.4940985e-05
0001c0 c1 a2 08 b9 16 f0 b3 37 96 1d 8f b8 58 75 cf 39
       -0.00013030601 2.1450262e-05 -6.824282e-05 0.00039569545
0001d0 35 b6 aa 38 56 72 50 38 d0 7e 28 b9 20 45 f9 b9
       8.1401704e-05 4.9697548e-05 -0.0001606897 -0.00047544483
0001e0 c6 7e 9b b8 52 86 ac 38 e0 c0 ab b4 15 47 a8 b7
       -7.414589e-05 8.226618e-05 -3.1991567e-07 -2.006026e-05
0001f0 41 95 81 38 26 70 98 b7 32 29 ca 38 ca a6 d0 b7
       6.179e-05 -1.8172035e-05 9.639784e-05 -2.48732e-05
000200 9f c0 f2 ba 81 87 a1 ba aa 05 bf ba de bc 6c b9
       -0.001852054 -0.0012323709 -0.0014573832 -0.00022577072
000210 25 97 c2 b9 b7 65 92 3b 16 1b 25 bb 26 2d 7a 3b
       -0.00037115175 0.0044676918 -0.0025193146 0.0038173883
000220 31 55 e5 3a 46 34 9b 3a fe 07 d4 b9 04 6b 11 b9
       0.0017496702 0.001184114 -0.00040441746 -0.00013868144
000230 3d eb 32 bc ca af 37 3b 5b 5e 6a bc 1d 7e 84 39
       -0.010920343 0.0028028362 -0.014304723 0.00025270964
000240 fb 19 98 3a 72 07 14 bb 5c 9e e0 ba 7a 1b 64 39
       0.0011604422 -0.0022587446 -0.0017137039 0.0002175401
000250 7a 60 1d 38 60 82 2f ba f7 71 0b 3b 62 f3 42 ba
       3.7521568e-05 -0.00066951476 0.0021277645 -0.00074367796
000260 fb 55 24 bb 68 fd 22 ba f9 a3 68 b8 7a 05 e0 39
       -0.0025075662 -0.000621757 -5.546582e-05 0.0004272869
000270 c3 c7 9d 3a 3a ee 04 ba 9d 38 ab b9 6c 69 03 3c
       0.0012037683 -0.0005070899 -0.00032657842 0.00802074
000280 f5 ac 4a bc e9 f9 3a ba 7d e9 81 ba 39 13 51 ba
       -0.012370338 -0.00071325764 -0.0009911504 -0.00079755817
000290 c2 4d 21 b9 e8 3d 97 3a cd 01 3d 3b f4 4b 42 bb
       -0.00015383124 0.0011538835 0.0028840185 -0.0029647322
0002a0 7e be a3 39 b4 da 6f b9 79 20 00 bb 79 39 bc bb
       0.0003123171 -0.0002287429 -0.0019550605 -0.005744156
0002b0 05 29 2e 3b 3d fe 92 bb b8 b8 9f ba 7b c8 eb 39
       0.0026574743 -0.004485874 -0.0012185788 0.00044972062
0002c0 f8 04 9e bb 05 32 19 37 46 e9 6d 3a 6c 45 23 bb
       -0.0048223697 9.131157e-06 0.0009075593 -0.0024913205
0002d0 70 c8 f4 ba 57 76 5c bb d6 32 2f 3b f7 c0 7b b9
       -0.0018675458 -0.0033639872 0.0026733181 -0.0002400911
0002e0 a8 af 90 ba 94 72 23 ba 3e 62 35 3b b1 19 9f 39
       -0.0011038678 -0.000623503 0.0027676965 0.00030345985
0002f0 31 50 04 bb b1 58 06 bb a7 68 eb 3b 43 9a 8c 39
       -0.00201894 -0.0020499642 0.0071841064 0.00026817815
000300 3e 9d ad b6 7f 1d 64 39 6c 4b c4 38 82 6e a5 38
       -5.174107e-06 0.00021754763 9.360057e-05 7.888397e-05
000310 b1 f2 8b 38 56 70 5f ba 9c 77 37 b9 3a 98 df 39
       6.673241e-05 -0.0008523514 -0.00017496798 0.00042647292
000320 bd 96 bf 38 df e3 f0 b8 93 2e 4e b9 8d bc b4 b8
       9.135667e-05 -0.00011486536 -0.00019663041 -8.618189e-05
000330 43 3e 06 bb 2e 74 ca 39 21 49 98 39 85 ac 2d 39
       -0.0020483888 0.00038615003 0.00029046184 0.00016562834
000340 97 cc 19 39 ab 85 eb b9 68 5c 00 b9 6e 61 57 b8
       0.00014667433 -0.00044922283 -0.00012241455 -5.1350733e-05
000350 55 e4 d2 b8 b3 5f 5e 39 72 fc 6f 3a 6b 39 8f 38
       -0.000100561105 0.0002120722 0.0009154744 6.829466e-05
000360 81 d0 6c b7 db 02 e6 39 f7 b8 67 38 99 20 90 b8
       -1.4115242e-05 0.00043871146 5.5246954e-05 -6.872527e-05
000370 36 8a a7 b8 67 9c 01 39 bf df c2 b7 24 1e 8f 39
       -7.988924e-05 0.00012360663 -2.3230792e-05 0.00027297542
000380 84 8a 4a ba f3 e6 95 38 90 45 78 ba 9a 92 13 39
       -0.0007726329 7.147891e-05 -0.0009470815 0.00014073626
000390 58 6f 89 38 89 eb 06 39 dc cd 14 3a 71 c1 c6 b8
       6.5534085e-05 0.0001286698 0.00056764274 -9.477407e-05
0003a0 a5 f4 e4 38 70 36 cd 38 d5 b6 49 bb e3 5d 81 38
       0.00010917456 9.7853015e-05 -0.0030779142 6.168687e-05
0003b0 9a 35 aa 38 f2 dc 65 3a c3 72 aa 38 d1 b6 a4 b8
       8.116216e-05 0.000876858 8.127608e-05 -7.8541816e-05
0003c0 79 21 f1 3a b1 aa b2 b3 d6 ad 9c 37 9d 33 27 3a
       0.0018396816 -8.3198195e-08 1.8677598e-05 0.00063782354
0003d0 ab 1d 12 b9 16 5a ca b9 1d e3 5d ba 5a 39 87 39
       -0.00013934697 -0.00038595562 -0.00084643235 0.00025791937
0003e0 15 31 0d b9 67 82 f0 36 35 ee 18 ba 5f 50 4f 38
       -0.00013465092 7.167738e-06 -0.00058338355 4.9427497e-05
0003f0 00 b9 a4 39 8c 03 75 b9 4c 27 94 ba b8 bc 2d b9
       0.00031418353 -0.00023366342 -0.0011303215 -0.00016568869
